models/lstm_attn_v1.pt (torch, 965770 bytes, 15 tensors)

lstm.weight_ih_l0 f4 [512, 32]
00000000: daa9 8dbd 9118 a2bd a3cd c1bc dcb3 933d
00000010: 2ed8 753d 9544 5dbd 0a64 89bd ef02 3b3d
00000020: 1c60 8b3d e878 f83b 5fbd 01bc 3267 96bd
00000030: 6c8a 43bc 86a8 5f3d 6085 b23c dc18 593b
00000040: 1293 1e3d 1c1d e93c 1edb 213d ef4b 3cbd
00000050: 7a2a 8dbd 73fc 9a3d 3c39 a4bc 0ec0 433d
00000060: 68ee d83c 0012 8ebd 9c3e bcbc 7cf0 97bc
00000070: 3f9b 56bd d8c7 e83c 524e a4bd c62a 88bd
00000080: 0ea4 483d f9db bcbc 1bda 593c 9f8d b0bd
00000090: 4e86 e33c fe0e 823d 651c 5cbd dfdc e3bc
000000a0: 0b93 3dbd 32a9 ebbc bf8e 86bd 6538 a13d
000000b0: 8ee0 32bd b381 d73b 1004 b53c 2b1f 86bd
000000c0: 8f7f 99bd 24d2 0e3c f888 eabc fc3e a0b9
000000d0: 8614 243d 2485 92bc 63f8 803d a5c2 963d
000000e0: 1c93 af3b efbb 94bd 1413 8fbd 44f5 fe3c
000000f0: 7cc1 38bc 3203 773d c468 df3c 8d37 863d
00000100: 8851 883d 6332 a13d 27e8 803d 6cc1 81bd
00000110: ff56 053d 3de6 713d 38ba 223d 4b54 47bd
00000120: 3a51 8cbd 2622 fc3c 7da5 debc 90ed 513c
00000130: 1408 ec3c ec9f c73d d4d8 8c3c c070 ccbc
00000140: 80f9 ecbc 53b6 5dbd 1aab e3bc d94f aa3d
00000150: 78c5 ddbc f881 913c 6ec4 793d c055 8dbc
00000160: 4179 993d dcf9 103d 50b1 41bd 4e44 1b3d
00000170: beb0 8ebd f39e afbd fc9e dab9 f46e 7cbd
00000180: 080b 9a3c 963c 1d3d daf5 2ebd 3f2a febc
00000190: 362e 82bd 4eef 8abd eadb 8fbd c9e7 053d
000001a0: fa60 8d3d 8d68 b73d 0953 0c3d 7298 d0bc
000001b0: 0b9b b5bc 4404 b43d 2ec8 343d 9cd5 e13b
000001c0: 4fba 8d3d 68aa a23c 7d4d 953d 81da 873d
000001d0: d561 38bd c234 403d 4e47 77bd 8a4f f6bc
000001e0: bcd0 a73b e204 303d 473c a5bd 54f5 793c
000001f0: 790c a83d 4cea 61bc 8519 8d3d 1511 9ebd
00000200: c5da 96bd 145d 7ebd fd3d dbbb b013 34bd
00000210: 240b f23b e35f 1e3d a3de 5f3d a38a 90bd
00000220: 4b5d 173d 7ec5 d7bc c82d 28bc b55d 89bd
00000230: 965f 3fbd d551 173a 5469 00bd df6a 2fbd
00000240: 82f3 acbd 446a 823c 5443 5dbd c8ce cf3c
00000250: 5afc 2b3d 90a0 89bd 63fc 2ebd cc81 76bd
00000260: 397c 9f3d 5a70 59bd b586 9abd 5380 21bd
00000270: 0cbf ae3b a447 22bc 36f3 87bd 2a18 4a3d
00000280: 663d babd c7fa 32bd 813f c4bd 457d 15bd
00000290: 4518 b2bd 0996 b93c a529 83bd fbf2 3c3d
000002a0: 81cb 46bd ee0a 853d bfa4 d23b 2818 8dbd
000002b0: 7bde 5ebc 9e42 8dbd 78f8 b43c dc85 fc3c
000002c0: 9d5c 49bd 4e4f 2f3d 883a 83bc c336 923d
000002d0: d7a9 9b3d b674 7f3d 0c16 34bd 3136 b43d
000002e0: e79a ac3d 74af 7abc 5108 8d3d 3658 81bd
000002f0: e05e e53c b8bf dfbc fcc7 113c fc37 90b9
00000300: d85f aabd fb8b 89bc e22f 263d c6ba 6abc
00000310: 7d6b 8c3d a56e 59bd 703c b73c 7bd1 f73c
00000320: 7215 013c e266 90bd dabf ac3d 3a0a 2ebd
00000330: d163 543d 8fbb cfbd 3cf4 6d3b ef01 09bd
00000340: 12e8 423d d331 8f3d 20df fb3c 5e52 283d
00000350: fc39 64bc 2a4c f9bc 44f6 a53c d813 ed3c
00000360: a18a b13d 449c a8bc b1e7 aebd 111b 9e3d
00000370: 2fbe 87bd 7c92 f33c 0460 c2bc da1f 42bd
00000380: fcc5 be3d 6221 a63d 5ed4 fcbc b5fe 563c
00000390: d532 ee3c 9bdf 44bd 55f2 233d f79b f83c
000003a0: 5835 e33b 37a0 d13d 0344 a03d b063 803d
000003b0: 13f7 3cbd db5f cc3d 65e9 30bd 87e8 8cbd
000003c0: 3a49 573d e427 073c b039 853c 023d 1a3d
000003d0: b652 313d 9a78 4e3d 7f97 8c3d f00e 863c
000003e0: eaa7 263d 5301 66bd d8ef 023d e885 d3bc
000003f0: dc6c 4b3c c762 843d 5c1e 50bc 56c4 253d
-0.06917162 -0.07914842 -0.023657626 0.0721204 0.06002062 -0.054020483 -0.06708534 0.045657095
0.06805441 0.0075827725 -0.007918685 -0.07343902 -0.011934858 0.054604076 0.021792114 0.003312639
0.038714476 0.028456263 0.039515607 -0.045970853 -0.068928674 0.07567682 -0.020046823 0.04779058
0.026480868 -0.06937027 -0.022979073 -0.01854729 -0.052394148 0.028415605 -0.08022751 -0.066487834
0.04898458 -0.02305411 0.013296629 -0.08620762 0.027774002 0.06350516 -0.053738017 -0.02781528
-0.04628281 -0.028767202 -0.065701954 0.078720845 -0.043671183 0.0065767406 0.022096664 -0.065489136
-0.07495033 0.008717094 -0.028629765 -0.00030564505 0.040058635 -0.017885752 0.06297376 0.07361344
0.005358113 -0.07262408 -0.06986061 0.031122811 -0.011276599 0.06030578 0.027271636 0.06553564
0.06656176 0.07870939 0.062942795 -0.063357204 0.03255367 0.059057463 0.039728373 -0.048664372
-0.0685143 0.030778002 -0.02717852 0.012812987 0.028812446 0.097472996 0.017193235 -0.024956107
-0.028927565 -0.054128956 -0.027791549 0.08316011 -0.0270717 0.01776217 0.060978346 -0.017252803
0.074938305 0.035394534 -0.04728824 0.037906937 -0.06967305 -0.08575239 -0.00041698653 -0.06162925
0.018804088 0.038387857 -0.04271493 -0.031026004 -0.0635647 -0.06783925 -0.07024367 0.03269175
0.069032624 0.08955488 0.034258876 -0.025463317 -0.022168657 0.08789876 0.04413622 0.0068919193
0.06920301 0.019856647 0.0729017 0.06633473 -0.045015175 0.046925314 -0.060370736 -0.030067224
0.0051213186 0.042973407 -0.080681376 0.015256245 0.08205504 -0.013788771 0.06889633 -0.07718102
-0.07365946 -0.062100485 -0.006690739 -0.043964088 0.007386582 0.038665663 0.054655682 -0.07057693
0.036954205 -0.026339289 -0.010264821 -0.06707326 -0.046722017 0.0005772387 -0.03135045 -0.04282653
-0.08444883 0.015919812 -0.054019287 0.025367156 0.041988708 -0.06720078 -0.042721163 -0.060182378
0.077873655 -0.053085662 -0.075452246 -0.03942902 0.005332833 -0.009904776 -0.06638186 0.04933945
-0.09093742 -0.04369619 -0.09582425 -0.03649642 -0.08696035 0.02265455 -0.064044274 0.04613016
-0.04853392 0.06496225 0.0064283307 -0.06889373 -0.013602848 -0.06897472 0.022091135 0.030825548
-0.04916059 0.04280024 -0.01601912 0.07139351 0.07600754 0.062367164 -0.043966338 0.08799399
0.08427983 -0.01530062 0.06886352 -0.06315653 0.027999341 -0.027313098 0.008897778 -0.00027507532
-0.08319062 -0.01679038 0.04057301 -0.014326757 0.06856439 -0.053084034 0.022367686 0.030251255
0.007878648 -0.07050873 0.0843503 -0.04249022 0.051853005 -0.10143196 0.0036308905 -0.03344911
0.0475846 0.06991925 0.030746043 0.041094176 -0.01392984 -0.030431826 0.02025903 0.028940126
0.086690195 -0.020582326 -0.085402854 0.07720006 -0.066280715 0.029732935 -0.023727424 -0.047393657
0.09315106 0.08111836 -0.030862983 0.01312225 0.029076973 -0.04806481 0.040026028 0.030347807
0.0069338493 0.10235637 0.07825472 0.06269014 -0.046134066 0.099792205 -0.043191332 -0.068802886
0.05256007 0.008249257 0.01626286 0.037655838 0.04329177 0.050407983 0.06864833 0.016364545
0.04068748 -0.056153607 0.031967014 -0.025820687 0.012416091 0.06464153 -0.012702551 0.040470444

lstm.weight_hh_l0 f4 [512, 128]
00000000: b9fa 61bd 5efd c23d f0a8 b2bd b628 89bd
00000010: a7b7 14bd 09fb f23b 1b40 f2bd 8ba3 7d3b
00000020: 58c3 9e3d a39a 623c e24e fabd bc75 04bd
00000030: 9d66 5bbd 21ef eebb 53c1 67bc a95f 47bd
00000040: 7d72 82bd 3b3e a73c c6ed 64bd b442 babc
00000050: d432 ab3d 2638 403b 575f 03bd 632d 13bd
00000060: b00a f03a 28e7 6dbd 86e1 a7bb 2a4a e8bd
00000070: 1d96 90bd 44aa 823c ecde 253d 7e70 b4bd
00000080: aed8 5dbd 4515 203c 9607 803c 90fa acbc
00000090: fb7c 253d c055 75bc 8584 743d 244d 123d
000000a0: ed42 17bd 1c9f 68bd cf27 0ebd f496 a7bc
000000b0: 08bb fb3c f58b b9bd 226c 80bd a1df 223d
000000c0: f142 9939 d0f0 0d3d 31e8 19bd 578d ccbc
000000d0: 90d1 333d c41b 04bd 8da9 5f3d 19ca 7a3c
000000e0: 5623 b7bc 9424 d3bb 900f 9a3d c665 913c
000000f0: 1e2c 32bd 3e96 343d c33d ac3b 265e a9bc
00000100: 3f7e 313d fb03 cd3c c86d 0b3d 968a 51bd
00000110: 840a eabc 3cd2 9abd 2b5f 7ebd ac47 b33c
00000120: b501 013d 66bb 11bd ec48 b53c b279 67bc
00000130: 7a93 9a3b ca1d 1fbd d01b 893d 82cb a53c
00000140: c2e4 68bd 1c8a 2e3d 21c8 313d a8d4 5bbb
00000150: 74de 573d 4967 013d 49f9 963d 150e 4abd
00000160: 1e91 c3bd 427a 53bd bf3e 83bd 0bc0 d7bc
00000170: 9fab babd f49a ecbb df41 333d e406 52bd
00000180: 6f3c 98bd c48a b43b 3e1f 1c3a 816e 9a3b
00000190: c0a9 af3c 9648 43bd aa24 663d dace bd3d
000001a0: b975 91bc 663f 953d 6d0f 01bd 0a8e cdbd
000001b0: f6b0 123d 05bc f43c 7d4f 353d dc51 14bd
000001c0: 9f2a 543d db09 8e3d 0438 953d d183 92bc
000001d0: d50b 263d 906a a6bc 531d 06bd ca16 4b3d
000001e0: 3e2d 4ebd 56c0 8fbd 5f08 cf3d 4705 48bd
000001f0: f25d cdbd d943 cabc b651 9a3c d5c3 883d
00000200: 3d3a 81bd aa71 90bd 7909 513c ea5d adbd
00000210: 58d8 0bbd 146a 18bd de44 40bc 32f7 6dbd
00000220: 8638 563d f76b 42bd 3252 84bc 59a4 8b3d
00000230: 4561 67bd 7fd3 b83d b8e5 3d3d f608 443a
00000240: b29a b83d db72 933c 53df 19bc 4354 f83d
00000250: 4f69 2c3a 7002 0bbc 417f 973d 4e67 b33d
00000260: b053 40bd 7b1e 23bd bff2 c9bc a8c5 173d
00000270: 29c7 963d e4e0 ea3c 975e 863d bf42 1e3d
00000280: 07b6 a73d f3a9 8dbd 8df9 9cbd 18cf a5bd
00000290: 001b 9f3d 38cb 103d eba3 14bd 4ca7 a1bd
000002a0: 86cd 44bb 7528 373c 6b39 a13d 11b0 913d
000002b0: c325 01bd 2192 87bd a622 023c 0d2f 75bd
000002c0: 6f08 ec3d 0788 5d3c 2172 7dbd 4963 3abd
000002d0: bbc6 653b 0a30 383c ca83 38bd b86a 31bd
000002e0: b7a8 333d a13c ae3d 774a e5bb 39d4 963c
000002f0: 614a 4fbd d111 efba 025f 74bc 9e04 33bd
00000300: 7510 89bd 8b3f 1b3d 1b1c 2fbc 3d10 40bd
00000310: be2b 843d 804f 89bc 0f0c 623d 9bb7 933d
00000320: 2853 fbbb 61d2 ab3c 68e6 d63c a119 b8bd
00000330: 9d11 903d 31f0 d8bc 49c6 253d 81f4 b53d
00000340: 01ab 89bd 80bf e0bd 7038 4c3d b817 76bd
00000350: 52eb 213c 59e0 a43d 8e29 dc3c a2aa 9c3d
00000360: 3291 203d e66f 6fbd f8e5 b2bc 5446 da3c
00000370: f610 dbbd e2c8 ab3c a3fa a03d a476 d53c
00000380: 4e74 a4bd 7ffd 5dbd b52a ed3b bc6b b33d
00000390: 3755 9f3d 50c8 ac3d 8bd0 f73c 3bf8 b43c
000003a0: c51b 22bd bc5a 1abd f65e bbbd ed36 babd
000003b0: 1391 ef3b e030 7ebc 3529 d9bc 1a5e b2bc
000003c0: bb6b 583d e5ba ff3c 27c8 ea3c e27b c6bc
000003d0: 2c95 b83c 6683 4e39 e4dc 283d 568e 0d3d
000003e0: 1b83 bbb9 083a ab3d 85b6 af3c c429 89bd
000003f0: 626c 343d 170b 30bd 0f67 26bd 3b02 88bd
-0.05517075 0.09520982 -0.087236285 -0.06697218 -0.036307957 0.0074151796 -0.118286334 0.0038702216
0.077521026 0.013830814 -0.12222077 -0.032338843 -0.053564657 -0.00729169 -0.014145213 -0.048675213
-0.06369493 0.020415416 -0.05589082 -0.022736885 0.08359304 0.0029330342 -0.032073345 -0.035931956
0.0018313732 -0.058081776 -0.00512332 -0.11342271 -0.07059882 0.01595033 0.040495798 -0.08810519
-0.05416172 0.009770696 0.015628617 -0.021115571 0.040402394 -0.014974058 0.059696693 0.0357181
-0.03692906 -0.056792364 -0.034705933 -0.020457722 0.030728832 -0.09059898 -0.06270625 0.03976405
0.0002923231 0.034653485 -0.03757495 -0.02496974 0.043901026 -0.032253042 0.054605056 0.015306973
-0.022355717 -0.0064435694 0.075224996 0.017748725 -0.043499105 0.044088595 0.005256386 -0.020674776
0.04333329 0.025026312 0.034040242 -0.051157556 -0.028569467 -0.0755963 -0.062102478 0.021884762
0.03149577 -0.035579108 0.022129498 -0.0141281355 0.0047172876 -0.03884677 0.06694758 0.020238642
-0.056858785 0.04261218 0.04340375 -0.00335435 0.052702382 0.03159264 0.07371766 -0.049329836
-0.09549163 -0.051630266 -0.06408452 -0.02633669 -0.091147654 -0.0072206203 0.04376399 -0.051276103
-0.07433402 0.005509706 0.0005955583 0.00471288 0.021443248 -0.047676645 0.05618731 0.092679694
-0.01775633 0.07287483 -0.03150885 -0.100368574 0.035813294 0.029874811 0.04426526 -0.03621088
0.05179846 0.069354735 0.07286075 -0.01788512 0.040538628 -0.020314485 -0.03274281 0.04958228
-0.050336115 -0.07019107 0.101090185 -0.048833158 -0.10027684 -0.024690555 0.018837791 0.06677977
-0.06309936 -0.0705293 0.012758606 -0.08465178 -0.03414187 -0.03721054 -0.011735169 -0.058097072
0.0523 -0.047466245 -0.016152475 0.06818456 -0.056489248 0.09024715 0.046361655 0.0007478142
0.09013881 0.017999103 -0.009391624 0.12125447 0.00065769715 -0.008484468 0.07397319 0.08759938
-0.04695481 -0.03982399 -0.024651883 0.037053734 0.073622055 0.02867169 0.0656101 0.038637873
0.08189016 -0.06917181 -0.076647855 -0.080961406 0.07768822 0.035350055 -0.036289137 -0.078932375
-0.0030029728 0.011179079 0.0787228 0.0711366 -0.031530153 -0.06619669 0.007942831 -0.059859324
0.11525046 0.013521201 -0.06187642 -0.045504842 0.003506108 0.011241922 -0.04504756 -0.043314666
0.04386207 0.08507658 -0.0069974023 0.018411743 -0.050608043 -0.0018239563 -0.01491523 -0.043705575
-0.06692592 0.037902396 -0.010687853 -0.046890486 0.06453656 -0.016761541 0.05518728 0.07212754
-0.007669825 0.02097434 0.026232913 -0.08989263 0.070346095 -0.02648172 0.040472303 0.08884526
-0.067220695 -0.10974026 0.04985851 -0.060081214 0.009882765 0.080506034 0.026875284 0.07649733
0.03920097 -0.058456324 -0.021838173 0.026644863 -0.106965944 0.020969812 0.07860305 0.026057549
-0.08029996 -0.05419683 0.007237757 0.08760783 0.07779925 0.08436644 0.030250808 0.022091022
-0.039577264 -0.037684187 -0.09148972 -0.090925075 0.0073109954 -0.015514582 -0.026508907 -0.021773387
0.052837115 0.031217048 0.028659893 -0.024228994 0.022532068 0.0001969464 0.041226283 0.03455957
-0.000357651 0.08360678 0.021449337 -0.06697419 0.044048674 -0.042979326 -0.040625628 -0.066410504

lstm.bias_ih_l0 f4 [512]
00000000: 6d68 3fbd e5cd 2b3d e1ac cf3d ed7e b9bc
00000010: 8c71 c83d c165 e73d 0d2a 9abd d5f4 87bc
00000020: 63ff 34bd e583 d13d 2854 0fbd 8b73 8ebd
00000030: ca66 a13d b72d 90bd 1758 bd3d a965 51bd
00000040: f6b2 62bd f947 ec3c 36e5 93bc 08a4 ad3c
00000050: 69d4 31ba ac39 a23d f172 cf3b 97d8 ae3d
00000060: 9030 5abd e000 56bb a219 363d 5acd 683d
00000070: 3c5a 92bc becb af3d b164 59bd 7c01 6abd
00000080: 3317 7a3d 6a34 493d 724a 19bd 64b1 d63b
00000090: 5ba2 e3bc be59 87bd d585 89bc f839 43ba
000000a0: 6670 2dbc b36d 7b3d 3c97 1fbd b917 b43d
000000b0: a657 a8bd 3f36 e4bb be05 a0bd 53b1 143d
000000c0: 41b7 a93d 706b b63d e5d0 51bd 0298 8c3c
000000d0: e8a0 693d 623c ef3c fa29 02bd 22a6 543d
000000e0: f2bc 2bbd 7a69 4b3c b331 1b3d f180 2fbd
000000f0: e6a8 7a3d 969c 393c d0e7 b73d 76bf 80bd
00000100: 997b d23d fc0c 283c 7cb6 a6ba d0e3 a1bc
00000110: 00e4 603c 28a5 bebc d9f0 02bd 8c76 c83d
00000120: b63c 5a3d 1d31 a83d 9ff3 9ebd b341 a93d
00000130: e2b9 b03c edc5 163d e0a8 86bc 0152 723d
00000140: 1c83 983d 1aed 59bc 3d90 c23d 924c 153d
00000150: 1070 3fbd 366d 493d bdab 533d 443d c8bb
00000160: 2c5d 4c3d 611f 9dbd 34cf a23d 392d 1cbc
00000170: bcd0 e53c daa4 b03c e019 e93b 1225 b1bc
00000180: 37f4 84bd 2c0c 7b3d fe07 44bc d189 4cbd
00000190: 7f03 953d 8eb0 4b3d 717a 8d3b 6e22 983d
000001a0: cc81 323b 969a 3cbc e9d5 a73d 476f 68bd
000001b0: 0e00 39bc e261 343d 8a1e a7bc 650e ecbb
000001c0: 27e2 23bd d2f6 14bd bec4 a1bc 1f03 a13d
000001d0: 493e b93d a023 a13d 4b8c 873d e050 6cbd
000001e0: 5619 853d 069e ccbc 22f2 48bd 48d8 bb3d
000001f0: a74b 31bd 0309 97bb 452c 75bd fe16 8d3c
00000200: 5ce8 95bd 6bd4 693d 7e4a ad3d e4cc 153c
00000210: 6c00 763d e190 b33d 2acd 463d a62a 15bd
00000220: 9a80 2cbd 6e83 dbbc 1499 033e c431 9cbd
00000230: f92d 56bd 5ee2 3dbc ccab f03d 0aba 303d
00000240: 6c4a 4b3d 7e0d bfbb 4d8d bb3d 926e 8ebd
00000250: e5b6 0e3a 9fed c93c 1da3 3b3d 520f 0abd
00000260: dc90 453d c87d 89bd 2713 a03d 4264 e23b
00000270: 9bef 46bc 80fe c03d 42ad 8f3d 5ab4 fb3c
00000280: 6910 8f3d 2d2c 6dbd 0690 7bbd f696 c33c
00000290: 077d e63c ad49 9e3d 2c43 cf3d 749e 67bd
000002a0: 75e1 f7bc abe5 48bd 42f2 953d acc1 7c3d
000002b0: 1fca 513d b415 ac3d e1e3 4c3d 9138 3dbd
000002c0: bfaf 953d dea9 8bbb aaff aebd 3152 c43c
000002d0: 1832 2bbd 3f49 38bd 2a00 0cbd 90bf 13bd
000002e0: 51c0 db3b e81b a93d 3226 463d dd73 933c
000002f0: 22ac 533c 0233 963c b496 99bd 106d e23b
00000300: 0634 ca3d e267 a0bb c48f 45bd c95b 093c
00000310: 1628 1f3c 1f80 76bd f18f 96bd e656 983d
00000320: 9e4e 003c b7d3 7cbd 1440 79bd aee0 b7bc
00000330: 9ce7 a9bb 52d4 7d3c 8601 49bc 8b31 f73c
00000340: 92b1 9c3c 5f01 903d b167 eabc 2c4e 72bd
00000350: b674 8e3c d11d ab3d 39d4 78bd 6dec c73c
00000360: fbaf 66bc 2924 953d b9fb f0bc 0012 853c
00000370: 68e3 383d 62de ccbc e431 4b3d d2f5 d23d
00000380: e780 153d 2bd8 873c bdde 8fbd dde1 223d
00000390: 2836 45bc 7c32 2d3d 081a 613d 7428 d53a
000003a0: e65e 7fbc 2746 a53c b30a 073c 2790 43bd
000003b0: d5e7 923d 3f46 dc3d a349 653d 651c 4c3b
000003c0: 0a84 e53d 698b b03d 0c46 00bd 7199 aebc
000003d0: 7dc0 09bc c518 74bd 5591 5e3c d7b3 9c3c
000003e0: a841 813c 4492 143d d517 263c 6f1e 3f3d
000003f0: 012e 563d a44a 8e3c e518 163d f400 863d
-0.046730448 0.041944403 0.10140396 -0.02264353 0.09787282 0.11298705 -0.07527552 -0.016596237
-0.04418887 0.10230235 -0.034992367 -0.06955632 0.078809336 -0.070399694 0.092453174 -0.05112234
-0.05534645 0.028842913 -0.018053632 0.02119638 -0.0006783666 0.07921156 0.0063308408 0.08537405
-0.05326897 -0.003265433 0.04445804 0.056836464 -0.017865293 0.085837826 -0.053074542 -0.05713032
0.06105728 0.04912225 -0.037424512 0.0065519083 -0.027787378 -0.06608914 -0.016787449 -0.00074472977
-0.01058588 0.061383914 -0.038962588 0.08793587 -0.082198426 -0.0069644745 -0.07813595 0.036301922
0.08286906 0.08907211 -0.051224608 0.017162327 0.057038218 0.029203597 -0.031778313 0.05191625
-0.04192824 0.012415284 0.037889194 -0.042847577 0.06119623 0.011328837 0.089797616 -0.06286518
0.10277481 0.010257002 -0.001271918 -0.01976195 0.013726234 -0.023272112 -0.03196797 0.09788236
0.053280555 0.082124926 -0.07761311 0.08264484 0.02157301 0.03680985 -0.016437948 0.059160236
0.07446882 -0.013301158 0.095001675 0.036449976 -0.04673773 0.049176417 0.051677454 -0.006110819
0.049893543 -0.07672001 0.07949677 -0.009532266 0.028053634 0.021562982 0.0071136802 -0.021624122
-0.06491893 0.061290905 -0.011964796 -0.04993612 0.072760575 0.049728923 0.0043175747 0.07428442
0.002723801 -0.011511466 0.08195097 -0.056746747 -0.011291517 0.04403866 -0.020400304 -0.0072038644
-0.040010598 -0.0363682 -0.019747134 0.078619234 0.09045083 0.07868123 0.06618556 -0.057694316
0.06498973 -0.024977695 -0.04905904 0.09172112 -0.04328504 -0.0046092286 -0.05985667 0.017222878
-0.0731971 0.057087343 0.08461474 0.009143088 0.060058996 0.08767868 0.048535503 -0.036417626
-0.04211483 -0.026796069 0.12851363 -0.076266795 -0.052289937 -0.011589615 0.11751518 0.04314617
0.04963152 -0.005830466 0.0915781 -0.06954683 0.00054441235 0.02464944 0.045809854 -0.033706017
0.04823385 -0.06713444 0.07816153 0.0069089243 -0.012142087 0.09423542 0.07015468 0.030725647
0.06985552 -0.057903457 -0.06141665 0.023875695 0.02813579 0.07728896 0.10120234 -0.056547597
-0.030258873 -0.049047153 0.07321598 0.061708137 0.05121815 0.08402577 0.05002201 -0.046196524
0.073089115 -0.004262193 -0.08544858 0.023964973 -0.04179582 -0.044991728 -0.034179844 -0.03607136
0.0067062755 0.08257276 0.04837627 0.017999584 0.012919458 0.01833487 -0.074994475 0.006909974
0.09873204 -0.0048951963 -0.04823281 0.0083837 0.009714147 -0.06018078 -0.073516734 0.074384496
0.007831244 -0.061725345 -0.060852125 -0.022446003 -0.0051850807 0.015492516 -0.01226843 0.030174991
0.01912764 0.070315115 -0.028613897 -0.05915658 0.017389636 0.083552964 -0.060749266 0.024404729
-0.014080043 0.072822876 -0.029416906 0.016243935 0.045138747 -0.025008384 0.049608126 0.10300793
0.036499884 0.01658257 -0.07024906 0.03976618 -0.012036838 0.042284474 0.054956466 0.0016262666
-0.01558659 0.020175053 0.008242297 -0.047744896 0.07173125 0.10755586 0.05597843 0.0031144854
0.11206825 0.086203404 -0.031316802 -0.021313401 -0.008407709 -0.059593935 0.013584455 0.019128723
0.015778378 0.036272302 0.010137518 0.046659883 0.052289966 0.017369576 0.036644835 0.065431505

lstm.bias_hh_l0 f4 [512]
00000000: 9461 b13d 7954 c83d 71df b83d b500 c1bc
00000010: 8673 ba3d a10c d53d f475 643d e525 6cbd
00000020: 6638 83ba b5f4 c03d 1df9 823d b166 ba3d
00000030: 770d 18bd a489 34bd 23fd cc3d 9f6e 2cbc
00000040: cd69 843d ad9e 55bd 2299 35bd 321a 2b3c
00000050: fc96 293d 9c6f b33d 5f09 853d 75cf eb3c
00000060: d145 c23d 0b17 40bd 741e b8bc bba7 b13d
00000070: d73e 3e3d 5c65 a63d af06 a13d fb7f 483d
00000080: 8f3d 9c3c 8264 293d c86c 24bd ef45 a63d
00000090: bcd2 30bd a2a7 013d f2af 2f3b 03b0 cf3c
000000a0: 868e 703d 74f9 db3c 6d9b 8c3d a933 873d
000000b0: 3727 afbd eb6e 403d ff92 b33d 942e 853d
000000c0: c19f ae3d 5511 21bd 870c 303d 673b 35bd
000000d0: 00e5 493d dc48 c33d e4a3 b7bb 41f8 813c
000000e0: 7a98 94bd 42f0 4e3d ba72 65bc ea66 b53c
000000f0: 8347 27bc 8062 2a3d e887 84bd 7de6 a83c
00000100: 37ca 7c3c ddd3 54bd c7bf 83bd b728 5e3c
00000110: 9a25 87bd 967d 74bc 70e7 1e3d 97fd 3fbb
00000120: 683c ccbc 34ea 15bd d8ca 84bc 0d13 833c
00000130: da2d 03bd 6ed8 063d 066a 10bd bd5a 63bd
00000140: 3ca1 483b 2fd2 1dbd 4f7b cd3d 8d46 a03d
00000150: 4a1d f93c a8ac b13d 5b0d 94bd 244d 89bc
00000160: 1ede 15bd ae92 80bc 4861 7fbd 76fd 3cbd
00000170: ec8a 90bd bf4c 69bd 88f5 c43d 89fa ad38
00000180: 59e6 e8bc f28f c43b 1421 afbd ee8e 1a3d
00000190: bd02 ae3d 748e 413b 2e13 81bd 790c 4bbd
000001a0: 6784 8dba e26f db3d da3b c23c c613 c23d
000001b0: 7fd4 cb3c 7d3e 36bd 2ab2 b23d cda8 1b3d
000001c0: 4606 063c 76bd 35bd 4c88 c7bc 6bc5 57bb
000001d0: dbc4 853c 7e76 3d3c 4f0e 84bd 4cc6 0c3d
000001e0: e02b 73bd 4a67 673d bb77 933c 937f 9ebc
000001f0: 822a f53b 7310 493d 09a6 c8ba dc6a 053d
00000200: d3d4 083d 423e 3ebc aba3 6fbc 4258 813c
00000210: 1486 1cbd b1da 6f3c e74e c03b 29d9 85bd
00000220: 053d 8cbd 24c9 403d 2b49 933d e968 c43c
00000230: 6c9f a73c dc49 13bd 941b 383d c17a 01bd
00000240: caa0 5b3d f302 5ebc 187a e7bc 7a83 7cbd
00000250: 9443 753d 56f1 65bd 8c2c cfbc 31b4 f9bc
00000260: e901 e33d 1f8c fc3c 5af6 803d ac87 063d
00000270: 7252 5dbd 8109 343d 9621 863b 4667 4cbd
00000280: 1d2d ce3d 1b2a 523d a639 913d 1447 c13d
00000290: 8977 a0bc 3337 da3d 8678 cf3d 87c0 b93d
000002a0: b79d 94bd 81a4 65bd 99b2 06bd 62f3 f73c
000002b0: 4f48 853d 3a08 793d 9b7c 86bc d5a2 733d
000002c0: 7b19 c53d 50c1 203d 137f 6abd 2415 a5bd
000002d0: c1c8 8aba d604 cbbb 58d8 ac3d 17e4 bd3c
000002e0: 3d1e 85bd bfc9 bebc f971 65bd a7a5 4dbc
000002f0: 404d 67bd bf95 58bd f0e6 9dbd 35d0 a0bd
00000300: 2eb5 2f3d 9886 483c 8d79 dbbc cb71 49bb
00000310: bf5c 703b 4040 243c 61ce 8bbd ca16 3abd
00000320: de2d 88bd 2f74 973c 1452 18bd 724a 37bc
00000330: 359c 8a3d a835 f03c 57b5 ae3d 5642 9c3d
00000340: 1d4c a93d ea12 163b 6aed 2a3c 0be2 84bd
00000350: 7f66 ce3c 7793 8f3d e638 453d becc 1dbd
00000360: a33c 81b9 41f4 34bc 1ca2 953d fc14 4e3d
00000370: 7cd3 a83c 5de5 2cbd 29c0 173c d6a3 b83d
00000380: 4866 093d 179a 5bbd 44f4 81bd 0568 d73c
00000390: c1ff 64bd ae95 ad3d 714b 3ebc bbaf 36bd
000003a0: b408 13bc b0d6 cfbc 048b a3bd f3ec 733c
000003b0: b7e0 113d 5e21 a53d 49a0 ed3c 0fba 84bd
000003c0: 0f08 e2bc bfa2 5abd 80d3 553d 9751 ad3a
000003d0: af37 5dbd 1f9b 25bc 2ebe cd3c 8b42 b93d
000003e0: 8db3 2fbd 5cae 9e3d ab58 483b c793 8cbd
000003f0: 7bbc b73d 338d c0bd 04c5 7ebd deec 063d
0.0866119 0.09781737 0.09026993 -0.023559907 0.091040656 0.104027994 0.05577655 -0.057653327
-0.0010011315 0.09421674 0.06395171 0.09101618 -0.037122216 -0.044076577 0.100092195 -0.010524421
0.064654924 -0.05215328 -0.044335492 0.010443257 0.041403756 0.08761522 0.06495928 0.028785447
0.09485973 -0.046896975 -0.022475459 0.0867457 0.046446647 0.081248015 0.07862603 0.048950177
0.019072322 0.041355617 -0.040142804 0.081188075 -0.043169722 0.031654008 0.0026807752 0.025352484
0.05872967 0.026852347 0.068655826 0.0660165 -0.085524015 0.04698078 0.08768272 0.06503025
0.085265644 -0.03932317 0.042980697 -0.044246104 0.049290657 0.09535381 -0.005604254 0.015865447
-0.07255645 0.050522096 -0.014004404 0.0221438 -0.010209921 0.041597843 -0.064712346 0.020617718
0.015429071 -0.05195986 -0.06433063 0.013559512 -0.06598969 -0.01492252 0.038794935 -0.0029295438
-0.024931148 -0.036600307 -0.016210005 0.016000295 -0.03202615 0.032921247 -0.03525736 -0.055506457
0.0030613681 -0.038530525 0.10033285 0.078259565 0.030409474 0.0867551 -0.0722911 -0.016760416
-0.03658878 -0.015694942 -0.062348634 -0.046140157 -0.07057747 -0.056957956 0.09617144 8.295949e-05
-0.02843015 0.005998605 -0.08551231 0.037733965 0.08496616 0.0029534372 -0.06302486 -0.04957244
-0.0010796905 0.10714699 0.02371018 0.09476428 0.0248816 -0.044493187 0.08725388 0.038002778
0.008180207 -0.044370137 -0.024356984 -0.0032924067 0.01632922 0.011563895 -0.06448042 0.034368798
-0.059368014 0.05649499 0.018001428 -0.019347942 0.007481874 0.049087953 -0.0015308271 0.032572612
0.03340609 -0.011611523 -0.014626424 0.015789155 -0.038213804 0.014639542 0.005868781 -0.06535561
-0.06847576 0.047066823 0.0719169 0.023975806 0.02046176 -0.03595911 0.044948176 -0.031611208
0.053620137 -0.013550508 -0.028256461 -0.061648823 0.0598789 -0.05613836 -0.025289796 -0.03048143
0.11084349 0.030828534 0.06296988 0.03284423 -0.054033704 0.043954376 0.004093359 -0.049903177
0.100671984 0.051309686 0.07091074 0.09437385 -0.019588249 0.1065506 0.1013041 0.09069925
-0.07256644 -0.056065086 -0.032885168 0.030267421 0.065079324 0.06079886 -0.016416838 0.05948146
0.09624001 0.039246857 -0.057250094 -0.08060673 -0.0010588394 -0.006195645 0.08439702 0.02318005
-0.06499908 -0.02328956 -0.056016896 -0.012551702 -0.056470156 -0.052877184 -0.077100635 -0.07852212
0.042897396 0.012239121 -0.026791358 -0.0030737992 0.0036676375 0.010025084 -0.06826473 -0.04543189
-0.066493735 0.018488018 -0.03718765 -0.011187183 0.067680754 0.02932246 0.085306816 0.0762984
0.082664706 0.0022899457 0.0104325805 -0.06488427 0.025195358 0.070105486 0.048149966 -0.038525335
-0.00024649975 -0.011044563 0.073063105 0.05031298 0.020608656 -0.042210925 0.009262123 0.09015624
0.03354481 -0.05361375 -0.06345418 0.026294718 -0.05590797 0.08475815 -0.011614666 -0.044601183
-0.008974243 -0.025370926 -0.079854995 0.014888036 0.035614695 0.08063005 0.029007094 -0.064808
-0.027591733 -0.053377863 0.052203655 0.0013223168 -0.054008182 -0.0101077845 0.025115099 0.09045895
-0.042895842 0.077481 0.0030570428 -0.06864124 0.08971497 -0.094019316 -0.062199607 0.032940738

lstm.weight_ih_l1 f4 [512, 128]
00000000: 2f2b 65bd 5285 4b3d 06f5 9dbd 3d4b 98bd
00000010: 7768 5e3d f770 59bd 3a8e 583d 5ac6 0abd
00000020: 6399 863d c6aa 9b3d f7db 87bd 6a1a 35bd
00000030: 8075 3abd e561 2dbd 6100 a03c cb9f fcbc
00000040: b037 e8bc 77dc 0a3c 6dc8 08bc f5a6 51bd
00000050: 9003 983d 0f14 7f3d 4068 90bc da8c 46bd
00000060: 02aa 543c 08ea 143d 57c2 1dbd e773 53bd
00000070: e880 b43d 31c7 283d f888 94bd ca04 bfbd
00000080: a8a2 983d 2a76 063d e4a1 a2bc 70fb 893d
00000090: a228 303d 3b93 2e3b d04f be3d f466 bcbc
000000a0: 37e0 36bd 64c8 8a3d e2e5 2d3d 0fd0 623d
000000b0: 6202 e33b 565c 1cbd 55f5 85bc c201 953d
000000c0: 4877 abbd 070f 863d 083c 90bc 1203 943c
000000d0: 2413 813d 6705 333d e6eb 65bd 06e6 b73d
000000e0: c4c8 223b ae32 883d 11d5 f63c 5878 ad3d
000000f0: cea9 473d 7d6f 703d c57e 133c a0fc 9ebb
00000100: fb0b 98bd c4a7 81bc 6bff 9fbd 1a8d 82bc
00000110: f496 bdbc fcc7 983c 258c 83bc 852c ba38
00000120: 33ff a3bd d279 13bd 2b7d fe3c 1516 aabd
00000130: 3cc0 babd b1d9 493d 80e3 80bd 860c 7bbd
00000140: 2513 803c 0458 16bd c71a 1fbd b27d c93d
00000150: bcce 983d 3b8b a6bd 1bf0 1cbd ba76 87bd
00000160: 99b4 79bd fd95 ba3b c568 813d 7335 c43c
00000170: eee8 92bb 45e7 ab3d 7216 a9bd 352d a4bd
00000180: 3696 a9bb 6a3b b53d 54da 8dbd d0eb 163c
00000190: e6b4 8dbd fe57 d03d dff6 b3bd 40fe 73bd
000001a0: d949 d93a 6a67 e1bc 1871 9b3d 9908 abbc
000001b0: 5a0e 9ebb cdc0 f83c d558 a13d 87d8 843c
000001c0: c7ed 0dbd c2e5 a5bd 470f b8bd 7aeb 603c
000001d0: b00f 9b3d 8542 013d b867 a6bc 1523 e4bc
000001e0: 56d3 c9bc 22a7 9b3c 735e 343d 25d8 ba3d
000001f0: 8658 673d 8ea1 96bc 2d46 a23d a268 a7bd
00000200: ce54 45bc 4c79 e6bc 15e1 a13b 6214 343d
00000210: b717 39bd 42eb 71bd f69d 1bbd c2b1 5b3d
00000220: d36b c5bd 606f 023d f7f4 133d e65e 59bd
00000230: 6f97 373d 0c49 adbd 9f9d 903c 6d38 81bd
00000240: f59f 703b b915 02bd a1cc 89bb 09b9 8abd
00000250: 9c42 c7bc 7a16 69bd 9863 cabc 2c1f bb3d
00000260: 7da7 68bc 501f 93bd c109 67bd 2195 103d
00000270: e410 2abc 7620 b83c a068 e73c b782 3f3d
00000280: 42dc 65bd 1829 c8bd 942b 9ebd 3091 56bd
00000290: 29b5 463d f70a 85bc 868e 833c e32d 8a3d
000002a0: 439b 823d 8db6 763d 2f08 a43d a277 c3bd
000002b0: 1911 92bd 8be5 9b3d a525 b0bd 87d0 bdbc
000002c0: dc63 8f3d abf2 d73c 4e8a 1d3d 955c af3c
000002d0: 4d03 313d c167 71bd 3271 f03b fba5 8abd
000002e0: eab1 b5bd 1258 d3b8 2ed0 e3bb b8d9 88bd
000002f0: 1d04 163d 346f 8f3d fbde 243d 3003 653c
00000300: 6dd9 82bd 67ab 2b3d 95d7 273c 44af 85bd
00000310: 7f72 513d e4dc 793d a960 4abd 1aa7 b4bc
00000320: 74e9 c13d ebbc b83d c99e 82bd 10f6 c13d
00000330: 32b4 59bd bd1c 893c 9f19 723d 7909 c43d
00000340: eaa5 813d b517 c33d 5968 fd3c 49c6 1c3c
00000350: 88e9 b93c ec7a 603c 8e96 303d 765f c33d
00000360: 0f86 6fbd c333 74bc 77c8 efb9 3c58 bd3d
00000370: 9074 ce3c 2db8 283d 4eed dc3d e56c 7d3d
00000380: 506c 943c 0b5f abbd a1c9 96bc e53e 6ebd
00000390: 067d c53d f540 94bd 9925 26bd 8f1e 61ba
000003a0: a83f a43d 4150 dbba 46ab c2bd 907b 13bd
000003b0: d62f 86bd 24e9 23bc c68a 953d b3ac f43c
000003c0: 51b0 173d 3108 bdbd 6a00 77bc 234a a0bd
000003d0: 7a78 cdbb 55be 22bd 1f07 9fbd aa79 ee3c
000003e0: 0f63 da3a bdb0 86bc 3267 3e3d 463e 3d3d
000003f0: dbe7 9d3d 483a 6f3b 0258 02bd 8106 a23c
-0.055949386 0.04968769 -0.0771275 -0.074362256 0.054298844 -0.053086247 0.052870013 -0.03388057
0.06572225 0.07600932 -0.06633752 -0.044214644 -0.045522213 -0.042329688 0.01953143 -0.030837914
-0.028346866 0.0084754145 -0.0083485665 -0.051184613 0.074225545 0.06227499 -0.017627835 -0.04847417
0.012979986 0.036356002 -0.038515415 -0.051624205 0.088136494 0.04120559 -0.07252687 -0.09327085
0.07452899 0.032827534 -0.019852586 0.06737411 0.0430075 0.002663805 0.09292567 -0.02299831
-0.04464742 0.06776503 0.04245556 0.0553742 0.0069277743 -0.038173996 -0.016352335 0.07275726
-0.083723605 0.06545835 -0.01760675 0.01806787 0.06302479 0.043706324 -0.056133173 0.0897942
0.0024838904 0.066502914 0.030130895 0.084702194 0.048745923 0.058700074 0.009002392 -0.0048518926
-0.0742416 -0.015827067 -0.07812389 -0.015936423 -0.02314327 0.018650047 -0.016058037 8.8774636e-05
-0.0800766 -0.03600485 0.031065544 -0.08304993 -0.09118697 0.049279872 -0.06293392 -0.06129124
0.015634129 -0.036705032 -0.038843896 0.098384276 0.074613065 -0.08132025 -0.03831492 -0.06614442
-0.060963247 0.0056941495 0.06318811 0.023951268 -0.004483334 0.083937205 -0.08256234 -0.08016435
-0.0051753772 0.08849223 -0.069264084 0.0092114955 -0.06919269 0.10173033 -0.08787321 -0.059568644
0.0016577794 -0.027515132 0.0758993 -0.020878123 -0.004823488 0.030365372 0.078782715 0.01621653
-0.03465059 -0.081004634 -0.08987289 0.013728017 0.075713515 0.03155758 -0.020313129 -0.02784876
-0.024636906 0.019000594 0.044035386 0.091232575 0.056480907 -0.018387582 0.07923541 -0.08174254
-0.012044145 -0.02813401 0.004940162 0.04396475 -0.04518863 -0.05906225 -0.03799244 0.05363632
-0.096397065 0.031844497 0.03612229 -0.053069018 0.044822153 -0.08461198 0.017653285 -0.063095905
0.0036716436 -0.031758998 -0.004205302 -0.06773574 -0.024323754 -0.0569062 -0.024705693 0.09136805
-0.014200089 -0.07183707 -0.056405786 0.03529847 -0.010380004 0.022476416 0.028248131 0.04675552
-0.056118257 -0.09773463 -0.077231556 -0.052384555 0.04851261 -0.01624058 0.016059171 0.067470334
0.0637727 0.060232688 0.080093734 -0.095443025 -0.07132167 0.07612141 -0.0860093 -0.023170723
0.070014685 0.02636083 0.038461976 0.021406451 0.04321604 -0.058936838 0.0073377127 -0.067699395
-0.08871825 -0.000100776684 -0.006952307 -0.066821516 0.036625016 0.07003632 0.040251713 0.013977811
-0.06389127 0.04191151 0.01024427 -0.0652757 0.051134583 0.061001673 -0.04940859 -0.022052336
0.09468356 0.09020408 -0.06377942 0.09470761 -0.053150363 0.016737336 0.059106465 0.09572119
0.06330474 0.09526006 0.030933546 0.009568759 0.022694364 0.013701182 0.04311233 0.09539692
-0.058477458 -0.014904919 -0.0004573499 0.09245345 0.025202066 0.04119127 0.1078745 0.061871428
0.018118054 -0.083677374 -0.018406691 -0.05816545 0.09642987 -0.07238952 -0.0405632 -0.00085876224
0.08019954 -0.0016732292 -0.09505324 -0.03600651 -0.06552093 -0.0100043155 0.073018596 0.029867506
0.037033383 -0.09230078 -0.015075782 -0.078266405 -0.0062704654 -0.039732296 -0.0776503 0.029110748
0.0016661602 -0.016441697 0.046485133 0.046201967 0.077102385 0.0036503244 -0.031822212 0.019778492

lstm.weight_hh_l1 f4 [512, 128]
00000000: 61ff 65bd 6f67 413d 06fc 783d 654f e4bc
00000010: 0dad cf3c 5473 78bd 3b71 4ebd 8cd0 4c3c
00000020: 8bc6 423d ddeb 40bd a03d b3bd ed34 2bbc
00000030: a9f9 22bd 1848 47bd a528 4cbd 00e7 dabb
00000040: 3049 a2bd 5124 67bb bddd 34bd 1e9d 963c
00000050: b4d4 643d 1ed1 88bd ca9f 633d 59cb 60bd
00000060: cd0a 93ba 8384 8f3c ba6a f2bc a109 7e3d
00000070: bb32 0a3d 6e5a 903d 5a94 acbd a683 603d
00000080: 72d8 c6bd 6282 d3bc 2ab7 443c 1142 8d3d
00000090: 7c67 81bc ae7e f4bc 701a 8d3c 46fa a3bd
000000a0: 5523 793d 698d 8dbd 2ecc 523d 236c b6bd
000000b0: e597 383d 8b9c aabd 5563 293d a5d7 01bc
000000c0: bcaf 723d 1051 71bd 803f a0bc 17cf 4d3d
000000d0: cd9d 97bd 92b0 9a3c a95e 33bd 38f1 c43b
000000e0: 092a a0bb 2091 b5bc a8d0 d83c b19a 203d
000000f0: 3ba0 30bb fa33 abbd 8e5c 983d b257 81bd
00000100: d953 8ebc b228 dcbc f2ff 9dbc fc57 1abc
00000110: 6506 373d e37f b23d 40c4 4d3d e1f4 62bd
00000120: 7ab1 29bd 318a ea3c 244a babb b744 6c3d
00000130: 6bfb 833d 3569 033c 60ec 3c3d 0097 45bd
00000140: 516e f53c 07aa a43d 6c0f 803d 0403 9f3d
00000150: c1f0 6a3d 5b61 853d e15c 7f3d 0ffe 8f3c
00000160: ae1d 52bd c277 2d3c 00d5 09bd 05b4 3abd
00000170: 0a88 723d 7b09 6b3d 5834 5abd c51e 76bc
00000180: 9906 4d3c b71e b5bd 4d87 1e3d 71ae a23d
00000190: c84a 1f3d e85f 84bc 4613 86bd 25a8 88bc
000001a0: 0df1 9ebd 2594 75bd 6a0d bd3d 3320 83bc
000001b0: 7c71 e13b a798 bbbc 3fe0 703d 56f2 95bd
000001c0: a1a4 90bd 2d73 a83d 3fd1 76bd c46a a3bd
000001d0: 0b80 05bd 2b02 133c f74b 7e3d 4726 f1bc
000001e0: 96b8 71bd 4de7 9a3c 2274 c93c 0f6f 053b
000001f0: 318f 4d3d 1819 203c 615d c5bc 4eb6 39bc
00000200: 002c 6a3d 0ebf 9e3c 1470 95bd 8fab c8bd
00000210: 8b2f c23c 2719 6b3d 94b1 033c 21c4 19bc
00000220: 8108 313d f605 63bc fcd7 b23d 1baa 323d
00000230: 71a4 923d e40a 323c 854e 8e3d 9a1d 883d
00000240: 3bd8 693d b786 9fbd 661f 3fbd 5f5f 4d3c
00000250: 1ada 2fbd 3261 93bc 5af1 81bd 2730 7cbd
00000260: 3773 a63d d50c 173d 0f64 963d b050 bb3b
00000270: b68a 863c 9e5a 84bd ff81 4dbd b5e1 abbc
00000280: c06b c13c 7e1d b8bd 9c6c bf3d 7b6d 863d
00000290: 2e79 01bd 851e 813d 367b 843d d161 73bd
000002a0: 4d30 a6bd c79d 003d 17c7 13bd d72c aeba
000002b0: 3462 223c 0e74 81bc c487 66bd 5beb 833d
000002c0: 348b a5bc f9ed a83d 7a8b 053d 0d3d 093c
000002d0: 8fdc 8fbd 3e6b 0fbc 1f3c 053d ecd5 78bd
000002e0: 57a6 77bc 7cf6 943d 67b0 06bd ee04 cbbc
000002f0: 6c9d ddba eb1c 833d 42c5 613c a459 8abd
00000300: 9ab9 8b3c 47b4 64bd 9f1b aebd d84d 913d
00000310: 2582 7b3d d20b 603d 7a37 983c f70c fcbc
00000320: 2643 afb8 8c81 a23b 5118 5abd cfe5 5abc
00000330: 0097 9e3b 7264 e8bc 5b5c b8bd 0a51 0f3d
00000340: e0b1 6e3d a8ce adbd 12f9 ef3c 29d3 d2bc
00000350: 6292 4ebc b70e 723d 8ca5 8ebd b5c4 a8bc
00000360: 48c6 bd3d 48f5 27bd 1838 07bd 2303 95bd
00000370: 6f3e 9b3d e0ef f63c a941 b0bd f75a 24bd
00000380: 3ac8 233d 0419 66bd ce96 6b3b 6002 8e3d
00000390: e268 a9bc 4448 0e3d 1fcc 6cbd 643f 49bd
000003a0: 47ce 783c bbaa a3bd f1a2 90bd 0b4f 90bd
000003b0: 65ab 71bd 62ca 423d f09c 87bd a8dc c03c
000003c0: ad26 203d 4900 a53d 3724 e83c 6487 643d
000003d0: 133b 87ba a446 77bb b801 183d fcc8 dd3c
000003e0: a46f 9dbc 2f82 a23b e8fb 2b3d d4e6 9a3d
000003f0: 0e2f 4c3c 302e adbd 220f 353d 6d72 3cbd
-0.05615175 0.047217783 0.060787223 -0.02786989 0.025351072 -0.06065686 -0.050400954 0.012500893
0.047552627 -0.047099937 -0.087519884 -0.01044963 -0.039788876 -0.04865274 -0.04984345 -0.0066803694
-0.07924116 -0.003526945 -0.04415678 0.018385466 0.055866912 -0.06680511 0.05557231 -0.054881427
-0.0011218429 0.017519241 -0.029591907 0.0620209 0.033739787 0.07048498 -0.08426733 0.05481305
-0.097092524 -0.025819007 0.01200656 0.06897367 -0.015796416 -0.029845562 0.01722452 -0.0800672
0.06082471 -0.069117375 0.051464252 -0.08907344 0.045066733 -0.083306395 0.041354496 -0.007924949
0.059249625 -0.058915198 -0.01956153 0.050246324 -0.07403145 0.018883023 -0.043791447 0.006010201
-0.0048878235 -0.022163928 0.026466683 0.039210025 -0.0026950974 -0.08359523 0.074395284 -0.06315555
-0.017373966 -0.026874874 -0.019287083 -0.009420391 0.044683833 0.08715799 0.050235987 -0.055409316
-0.04142902 0.028630348 -0.005685108 0.05768272 0.064444385 0.008020689 0.046123862 -0.048239708
0.02995983 0.08040243 0.062529415 0.07764247 0.057358507 0.0651271 0.062344436 0.0175772
-0.051297836 0.0105876345 -0.0336504 -0.045581836 0.05921177 0.05738209 -0.053272575 -0.015021984
0.01251378 -0.08843749 0.03870325 0.07943428 0.038889676 -0.016159013 -0.06546645 -0.01668174
-0.077608205 -0.059955735 0.09231074 -0.016006565 0.0068799835 -0.022899939 0.058807608 -0.073216125
-0.070626505 0.08225093 -0.060258146 -0.07979348 -0.032592814 0.008972685 0.062084164 -0.029437197
-0.059013925 0.018909121 0.02459151 0.0020360386 0.050185386 0.009771608 -0.024092378 -0.011334969
0.057170868 0.019378211 -0.07296768 -0.09798347 0.02370431 0.057397034 0.008037943 -0.00938514
0.043221 -0.013856402 0.08732602 0.043619256 0.07160271 0.010866854 0.0694857 0.06646271
0.05709098 -0.07789367 -0.046660803 0.012534945 -0.042932607 -0.017990682 -0.06344862 -0.06156936
0.08127444 0.036877472 0.073433034 0.005716406 0.016423564 -0.06462596 -0.050172802 -0.020981649
0.02361095 -0.0899 0.093468875 0.065638505 -0.031609707 0.06304649 0.06468813 -0.059419457
-0.081146814 0.03140047 -0.03607854 -0.001328851 0.009911109 -0.01580241 -0.05628182 0.06441375
-0.020207979 0.08248515 0.03260372 0.008376372 -0.0702449 -0.008753596 0.03252804 -0.060750887
-0.015115342 0.07273576 -0.032883074 -0.024782624 -0.0016907877 0.06402 0.01377994 -0.06755379
0.017056275 -0.05583599 -0.08501362 0.07094926 0.061403412 0.054698773 0.01858114 -0.0307679
-8.357158e-05 0.004959291 -0.053245846 -0.013360455 0.004839778 -0.028368209 -0.090019904 0.034989394
0.058275104 -0.08486682 0.02929357 -0.025735455 -0.012608143 0.059096064 -0.06965169 -0.02060161
0.09266335 -0.041005403 -0.03301248 -0.07275989 0.07580268 0.030143678 -0.08606274 -0.040125813
0.039985873 -0.0561762 0.003594804 0.06934047 -0.020679895 0.034736887 -0.057811853 -0.04913272
0.015185899 -0.07991549 -0.070623286 -0.07046326 -0.059001345 0.04755629 -0.0662173 0.023542717
0.039099384 0.08056695 0.028337581 0.05579318 -0.0010317288 -0.0037731314 0.037111014 0.027073376
-0.019218273 0.0049593667 0.041988283 0.07563558 0.012462391 -0.08456075 0.044203885 -0.046007562

lstm.bias_ih_l1 f4 [512]
00000000: 7245 f03c aac1 053d baf1 573c 0da5 933d
00000010: 64e2 443d d7ec 083b be40 dcbc 179e debb
00000020: 7cf7 323d dac6 03bd a46a 9fbd 4b0b 77bd
00000030: 38a3 153d da0e 4b3d 10dd 76bd a38b d4bc
00000040: 74e2 69bd e219 8dbd aac0 c93c 56e0 123c
00000050: 0162 8e3d f9ad 983d 2cc3 2ebd 4204 bf3c
00000060: 2deb 2bbd 3c28 cf3c 3da1 77bc a61a 04bc
00000070: 674a 0a3d f070 4c3c dd35 533d 2346 af3d
00000080: bc47 11bd 535c 77bd 237d 963d ccd2 b6bd
00000090: 20ef 70bd b146 1c3c 35b3 983d 3606 d23c
000000a0: 7ae5 5f3d 6cd8 86bd 6517 ae3d 6749 683d
000000b0: 6def 853d 9983 d0bc 7ff8 063d 4871 88bd
000000c0: d994 893d 0049 eebc a50c ca3d ee2a ceb9
000000d0: 395b f5bc cf2d 423d 3a98 00bd 769c 63bd
000000e0: e76c d63c 216e 2e3c 393d 613d faa0 0a3d
000000f0: 12da febc 5dc1 79bd a338 c73d c508 3bbc
00000100: 8a34 df3b 170d b0bb 6c1c 86bd 83c9 553b
00000110: d7cf 4d3a 1118 a43d bc27 57bd eb56 0abd
00000120: b780 65bd 4693 62bc 0a35 6bbc c50b abbd
00000130: 00d7 4a3c 6837 a4bd 4c16 c6bc ddd4 b13d
00000140: 2a93 a03d e465 86bd d953 6b3d 0246 6fbc
00000150: de72 b73d c8d7 693d 585e ae3c 8357 b23d
00000160: 5619 91bd fb64 71bd 07cb 853d 9bd4 0f3d
00000170: a70e 5fbc af03 72bc 44bf cf3c 7e69 24ba
00000180: 63ca 2d3d 172c 843d 116c 70bc 0804 f1bc
00000190: 0ad4 09bd 546d 0f3d 4e4c 1f3d 3cbe 7ebd
000001a0: a358 b53c 9932 203d 85fe a7bd 4394 533c
000001b0: 09bc da3c 4ab1 c03c 3f2c a63d dd39 b2bd
000001c0: 9ca9 303d 01d5 823d cf43 3cbd 355b a0bd
000001d0: 7bcf 14bd 178b adbd 548d 513d d2f9 a0bb
000001e0: de33 243d a6fd b8bc 3a85 2e3c 2b1a 9f3d
000001f0: 83fb e8bc 8daf c2bb b0ec 453d 3b6e 99bd
00000200: 7558 4c3d 25ab 243d 156d 50bd 7557 883d
00000210: ef7b b03d 7588 27bc 55e7 82bd c1f9 d03c
00000220: 01bf 7b3d 40da 92bd c098 873d 0147 443c
00000230: ba7a 8c3d 399f 68bd 77ab 803d 93e8 623d
00000240: 63ae 5fbd 21bb 26bd 3353 f73c da12 90bc
00000250: 4f68 783d 534d b53d f664 e53c 9488 1bbd
00000260: 8221 993d 7bbd 573d 7291 23ba 168b b63d
00000270: 430a 18bc 673f 433d 5f98 8c3d bedb 21bd
00000280: eb9d 6fbc a784 ae3d 95c6 943c c33b 403d
00000290: 4403 1abc c384 65bd 2dd1 043d 788c 4fbd
000002a0: 1032 31bd 47e3 ab3d ff58 7639 e720 4bbc
000002b0: 6927 393c 411c a43d b00b ae3c b086 98bd
000002c0: 2912 60bd 3fe4 023d 64cc 2dbd 58a7 a53d
000002d0: 7d4d 8d3d 458a 223d 7c14 b5bc 5ae8 a03d
000002e0: c33f a3bd c5a6 b3bd 9b1d ac3c de3c 153d
000002f0: ba5d 943d af7b 5cbd 5514 ad3d e470 9bbd
00000300: 8160 b73c 6fce 7a3d aba5 80bd b053 24bc
00000310: 5cc8 f83c df59 84bd dcef 81ba d405 3c3d
00000320: 8cea 923d 05ee 813d 87e2 95bd fbf1 40bc
00000330: b724 2fbd 6180 b63d a40d 993d 1ea0 c13d
00000340: cd07 793d 3dd3 98bd 1480 4f3d d9b2 853d
00000350: 6d86 813d ecd8 a93c f8b0 efbc dd45 1e3b
00000360: 0c5d 89bd c6c7 973d ba1e 503c c090 b3bd
00000370: 32c1 693d f57d 9dbd fda8 f2bc f09f 8abd
00000380: d145 79bd e99d 4abc 634f 7abd 984d adbd
00000390: 3580 d23c c1dd a83d 08bf 7f3c 6c5f 78bd
000003a0: bcb3 573d 0451 50bd 71e8 8fbb 216f 563d
000003b0: c296 a2bd b0dd b83c 9e49 18bd e6df a9bd
000003c0: 33e3 75bd edae 95bc f4cd 563c 29c4 503d
000003d0: 315a cebb 114b 533c 3dea 463d dffe 6d3d
000003e0: b68b f4ba f398 2fbd 4b1b 8b3d c9d2 813d
000003f0: a638 e3bc 872b 823a 2d6a 54bd 18b1 6bbd
0.02932999 0.032655396 0.013180191 0.07209215 0.048067465 0.002089312 -0.02688634 -0.006793748
0.04369305 -0.03217206 -0.07784012 -0.060313504 0.03653261 0.04957471 -0.060269415 -0.02594549
-0.05710073 -0.068897024 0.024628002 0.008964619 0.069522865 0.07455058 -0.0426666 0.02331746
-0.041972328 0.02528774 -0.015114126 -0.008062994 0.03376236 0.012478098 0.05156504 0.085582994
-0.0354688 -0.06039078 0.07348087 -0.08926925 -0.058821797 0.0095383385 0.07456056 0.025637727
0.054662205 -0.06584248 0.08500556 0.056710627 0.065398075 -0.025453376 0.032951828 -0.06662232
0.067178436 -0.029087543 0.09865693 -0.00039323367 -0.029950725 0.047406968 -0.031395175 -0.055569135
0.026174976 0.010646374 0.054990027 0.033844925 -0.031109843 -0.06097542 0.097275995 -0.011415665
0.006811683 -0.005372654 -0.0654839 0.003262133 0.00078511 0.08012403 -0.052528128 -0.033774298
-0.056030955 -0.013829058 -0.014355907 -0.08351854 0.012380362 -0.080183804 -0.024180554 0.086831786
0.07840569 -0.06562403 0.05745301 -0.0146040935 0.08957456 0.05709055 0.021285221 0.08708098
-0.070849106 -0.058934193 0.06532865 0.035114866 -0.013614333 -0.014771386 0.025359757 -0.0006271823
0.04242934 0.06453722 -0.014674203 -0.029420868 -0.03364948 0.035016373 0.03889113 -0.06219314
0.022136992 0.039110754 -0.082028426 0.012913766 0.02670099 0.023522038 0.08113908 -0.08702443
0.043130502 0.063882835 -0.045963105 -0.07829896 -0.03633068 -0.08473795 0.05116017 -0.0049125934
0.040088527 -0.022581887 0.010651881 0.07768663 -0.028440243 -0.0059413374 0.048321426 -0.07491728
0.049889047 0.04020228 -0.05088528 0.06657306 0.086173885 -0.010225405 -0.06391779 0.025509717
0.061461452 -0.07170534 0.066209316 0.011979819 0.06859346 -0.05679247 0.06282704 0.05539758
-0.054609668 -0.040705804 0.03019104 -0.017587114 0.06064635 0.08852639 0.028002243 -0.037972048
0.07477094 0.052670937 -0.00062396296 0.08913247 -0.00927979 0.047667887 0.06865 -0.039516203
-0.014625053 0.08521395 0.018161098 0.046931993 -0.009400193 -0.056034815 0.032426048 -0.05067107
-0.043260634 0.08392959 0.00023493542 -0.012397981 0.0113009 0.080132015 0.021245807 -0.074475646
-0.05470482 0.031955954 -0.04243125 0.08088559 0.06899545 0.039682645 -0.022104494 0.078568175
-0.07971146 -0.08772043 0.02101021 0.036435 0.072444394 -0.05382889 0.08451144 -0.075898916
0.022384884 0.061232027 -0.06281599 -0.010029718 0.030368976 -0.06462454 -0.0009913403 0.045903996
0.071736425 0.06344227 -0.07318597 -0.011776443 -0.042759623 0.08911205 0.07473305 0.09454368
0.060798455 -0.074621655 0.050659254 0.06528253 0.06324468 0.02073332 -0.02925919 0.0024150528
-0.067072004 0.07411151 0.012702638 -0.08767843 0.05706901 -0.0769004 -0.029621596 -0.06768787
-0.060857598 -0.01236675 -0.061110865 -0.084620655 0.0256959 0.08245421 0.01560951 -0.060637876
0.052661642 -0.050858513 -0.004391723 0.052352075 -0.07938911 0.022566646 -0.03717958 -0.08294658
-0.060031127 -0.018271888 0.0131106265 0.050968323 -0.0062973727 0.012896315 0.04856323 0.058104392
-0.001865736 -0.042870473 0.06792315 0.06339032 -0.027736973 0.0009931185 -0.05185907 -0.057541937
