models/lstm_attn_v1.pt (torch, 965578 bytes, 14 tensors)

lstm.weight_ih_l0 f4 [512, 32]
000000 88 5b 33 ba 6b cf a0 3d 3b 71 a5 3d 7e e6 7e bd
       -0.00068419473 0.07852062 0.080782376 -0.062231533
000010 f1 64 a3 bd 60 30 75 bc a8 f0 7a bb 65 28 9b 3d
       -0.079782374 -0.014965147 -0.0038290415 0.07576064
000020 96 26 57 bd d8 cb c7 bb 48 5a 72 bc d5 d0 9a bd
       -0.052527033 -0.006097298 -0.014792033 -0.07559363
000030 84 99 96 bc fc bb d2 bc 59 ac 38 bd e0 d4 a6 3c
       -0.018383749 -0.025724404 -0.04508624 0.020365179
000040 46 eb 32 3d b0 37 00 bc 28 d7 ec bc 66 55 32 3d
       0.043681405 -0.007825777 -0.028911188 0.043538474
000050 7e 26 a3 bd fb eb 20 bd 32 24 3d 3d 58 a5 92 3b
       -0.07966326 -0.03928755 0.046177097 0.004475277
000060 0a d5 05 3d b6 2b d5 bc 98 b2 ae bd ec 62 68 bd
       0.032673873 -0.02602182 -0.08530158 -0.056734964
000070 5b 40 5a bd 70 fd ef 3c f4 03 cd bc d7 d6 77 bd
       -0.05328403 0.029295653 -0.025026299 -0.06050762
000080 40 9b 83 bc 04 29 9b bd 01 a7 91 3d a8 fd 97 bc
       -0.01606524 -0.075761825 0.071119316 -0.01855357
000090 aa fd 2c 3d 98 12 98 bc f2 c6 60 3d 40 b8 4c 3c
       0.0422341 -0.018563554 0.05487723 0.0124951005
0000a0 88 8d 21 39 da c6 f7 bc dc d9 cb 3c 76 ee 25 3d
       0.00015406881 -0.030246187 0.024884157 0.040510617
0000b0 06 75 77 3d ca 9d 6e 3d 4e 90 2f 3d 98 3d 19 3c
       0.060414337 0.058255948 0.04286223 0.009353064
0000c0 4f a5 27 bd 31 79 8d bd f1 29 ae 3d 5e 25 3f 3d
       -0.040929135 -0.06907881 0.085040934 0.046666496
0000d0 00 77 b2 3c 82 e1 e1 bc 08 6c d4 bb a0 b8 42 bc
       0.02178526 -0.02757335 -0.006482605 -0.011884838
0000e0 ff dd 1d bd 88 23 b0 bc 8c 84 0a 3d 2a e3 3d 3d
       -0.03854179 -0.021501318 0.033817813 0.04635922
0000f0 1c 01 8c 3c 28 e4 34 bb ae c5 49 3d 88 1f 9f 3b
       0.017090373 -0.0027601812 0.049260788 0.0048560537
000100 67 aa 89 bd 12 01 29 3d c0 93 c4 bc ac 92 2b bd
       -0.06721955 0.041260786 -0.023996234 -0.041887924
000110 06 ce 20 3d 34 b2 8c bc 88 a7 1e 3b 0e 28 09 bd
       0.03925898 -0.017174818 0.0024208743 -0.033485465
000120 f7 ff b1 bd f8 b6 70 bd b1 62 a8 3d 97 71 99 3d
       -0.086913995 -0.058768243 0.08221949 0.07492369
000130 52 73 8d bd 4b d6 8b 3d 22 d8 60 bd f5 b0 9d bd
       -0.06906761 0.068279825 -0.05489362 -0.076997675
000140 1e 8f 8a bd c8 82 34 bc bc 28 f2 3c 28 83 89 3c
       -0.06765579 -0.011017509 0.02956044 0.016786173
000150 40 0f a8 3c f2 4a 77 bd ea 56 47 3d 54 f1 48 bd
       0.020515084 -0.060374208 0.048666872 -0.049058273
000160 0c 10 cc bc bc c5 a6 3c 98 d6 c2 3c 88 94 3d 3a
       -0.024909995 0.020357959 0.023783967 0.0007231911
000170 9f 56 0c bd 6d 57 9e 3d 63 43 ac 3d a0 ad 3d 3c
       -0.034262296 0.07731519 0.084112905 0.01157704
000180 a2 bc 87 bd 14 43 f2 3c 1c 02 aa bd 18 dd ee 3c
       -0.06627776 0.029573001 -0.083011836 0.02915816
000190 84 56 2d bd de 24 7c bd 28 6a 34 bb b9 9e 1b bd
       -0.042318836 -0.061558597 -0.0027529094 -0.037993167
0001a0 f2 a7 3a 3d 58 9d 8b 3c e3 9c a3 3d 6b 7a 62 bd
       0.04557032 0.0170428 0.07988908 -0.055292528
0001b0 d0 14 21 bc 68 7a e4 3b bf 1f 8c 3d ea 93 2b 3d
       -0.009831622 0.0069726 0.068419926 0.04188911
0001c0 34 78 1c bd db 7f 8b 3d 68 12 1b bb 38 9a af bb
       -0.038200572 0.06811496 -0.0023662094 -0.0053589605
0001d0 d6 44 4a 3d d8 b5 19 3c d0 fc 2b 3c 82 88 4c 3d
       0.049382053 0.009381734 0.010497287 0.04993487
0001e0 83 81 a9 3d d4 fe 96 3c 48 d2 22 3b b8 23 16 bc
       0.082766555 0.018432058 0.0024844576 -0.009163789
0001f0 3e ae 09 bd 25 0c 93 3d 01 f7 7b bd d7 ee 31 bd
       -0.033613436 0.07180051 -0.06151486 -0.043440666
000200 bc 21 11 3d f8 2f b6 bb 68 ef 41 bb 0a 2a ab bd
       0.035432562 -0.0055599175 -0.002959216 -0.08357628
000210 b6 86 74 3d 57 9e 9e 3d ee 10 4f 3d 5c 33 a8 bd
       0.059698783 0.07745045 0.050553255 -0.08212921
000220 1a 0b 8c bd c6 39 35 3d 32 9d 91 bd d8 4a 3d bc
       -0.06838055 0.04424455 -0.07110061 -0.011553489
000230 80 27 ab bd 5f fa a9 3d c9 28 b2 3d 65 b0 91 3d
       -0.083571434 0.082997076 0.086991854 0.07113723
000240 76 3b 38 3d ee 5c 3f 3d ce 7c 2d 3d 24 29 da bc
       0.04497858 0.046719484 0.04235535 -0.026630946
000250 76 83 30 3d 0d 79 05 bd ea eb 24 3d 92 22 4e 3d
       0.04309412 -0.032586146 0.040264048 0.050325938
000260 6a 84 9d bd 0c d2 ca 3c c0 b4 f5 3c c9 15 a1 3d
       -0.076912716 0.024758361 0.029993415 0.07865483
000270 04 20 94 bd 18 10 ca bb 18 44 e6 bb b0 34 38 3c
       -0.07232669 -0.0061664693 -0.0070271604 0.01124303
000280 ac de a0 3c 5a 03 e0 bc 19 bb 38 bd b9 cd a2 3d
       0.019637428 -0.027345348 -0.045100305 0.07949395
000290 f3 0c a3 3d 22 cf a8 bd ca 6e 3a 3d 2c c7 80 bc
       0.07961454 -0.082426324 0.045515813 -0.015719973
0002a0 f8 5e 76 bd 92 57 0e 3d 5a 3d 18 3d f4 dd 8d bd
       -0.060149163 0.034751482 0.037167884 -0.069271
0002b0 60 9e 68 3c c0 e0 e3 3c 24 12 32 bd 80 8d 53 bd
       0.014197916 0.02781713 -0.04347433 -0.051648617
0002c0 d4 fa 09 bd 1b f3 91 3d 1e 7c 46 3d f5 2b 13 bd
       -0.033686474 0.07126447 0.04845821 -0.035930593
0002d0 70 2a 30 3c 48 32 4c bb 16 46 7b bd 88 3e e6 3a
       0.010752305 -0.00311579 -0.061346136 0.0017566243
0002e0 cf 13 8d 3d 17 29 b3 bd 67 50 9c 3d 20 64 2e 3c
       0.06888544 -0.08748072 0.07632523 0.010643989
0002f0 8a 97 ad bd 1a 39 8f bd 32 0a d8 bc 1e 67 a0 bd
       -0.084761694 -0.06993313 -0.026372049 -0.07832168
000300 5c 67 fd 3c 5c e7 82 bc 1e bc 5e 3d 0e f0 72 bd
       0.030933075 -0.015979461 0.05437862 -0.059310965
000310 3d 9f b4 bd 10 73 57 bc 5b bb b2 bd aa 4f b4 bd
       -0.08819435 -0.013149992 -0.087271415 -0.08804257
000320 08 1a 82 bb 62 29 1d 3d de 59 00 3d 0e 51 2a 3d
       -0.0039703883 0.038369544 0.031335704 0.041581206
000330 74 41 9e bc d0 8c b2 bd 1d f9 1f bd 22 bc 98 bd
       -0.01931832 -0.08718264 -0.039055932 -0.074577585
000340 c8 1c 2a bc 68 b7 3f 3b b0 75 63 3c 8b 49 27 bd
       -0.010382839 0.0029253606 0.013883039 -0.04084162
000350 e6 cf 0c 3d 60 2e b4 bd f1 94 85 3d cb 0b 94 3d
       0.034377955 -0.08797908 0.06522549 0.07228812
000360 a3 7f 90 3d 34 e6 f5 3c f0 e7 9f bc e3 ae 94 3d
       0.07055595 0.030016996 -0.019519776 0.072599195
000370 e8 27 bd bc 30 2a 11 3c a6 5f 60 3d 68 cf 99 bd
       -0.023090318 0.008860156 0.054778717 -0.07510263
000380 d5 02 b2 3d b8 ba c3 3b 10 e9 b4 3c 60 23 2f bc
       0.086919464 0.0059731863 0.02208379 -0.010689586
000390 e5 d6 a0 bd 9e 84 72 3d e8 4b 3c 3b 22 81 97 bd
       -0.07853488 0.059208505 0.0028731767 -0.07397677
0003a0 48 b3 92 ba e4 a3 db bc 5b 73 43 bd d8 52 88 bb
       -0.0011192346 -0.026811548 -0.047717433 -0.0041602664
0003b0 32 73 70 bd 88 0c de bb b8 0d 4b bc 6e 6a 59 3d
       -0.05870361 -0.006776396 -0.0123934075 0.053080015
0003c0 1b 11 4d bd a0 00 0f 3d 7e 7d 5f 3d 00 94 b9 3c
       -0.05006514 0.034912705 0.054563038 0.02265358
0003d0 46 d6 49 3d c0 6a 9e bd 59 5d ac bd c0 2e 6a bd
       0.049276613 -0.07735205 -0.08416242 -0.05717349
0003e0 81 58 94 3d 6a 58 98 bd af 98 2b bd a0 33 52 3c
       0.07243443 -0.07438739 -0.041893657 0.012829691
0003f0 85 db 94 bd d5 9c 1f bd ca 22 f5 bc 26 f6 45 bd
       -0.072684325 -0.038967926 -0.029923815 -0.04833045

lstm.weight_hh_l0 f4 [512, 128]
000000 39 2e 15 3c 16 72 32 bd a5 2d 71 bc 4b f7 ad 3d
       0.009105259 -0.043565832 -0.014720355 0.08494433
000010 a0 84 28 3d 55 df 14 3c 71 19 ae bd cb db 25 bd
       0.041142106 0.00908645 -0.08500946 -0.040492814
000020 5b 95 b7 bd 16 14 a9 bd 21 27 17 3d 83 6f 47 3d
       -0.08964034 -0.08255784 0.03690255 0.04869033
000030 6c ae ac bd 05 bb de bc 82 f0 a4 3c a0 09 99 3d
       -0.08431706 -0.027188787 0.020134214 0.07472539
000040 aa 7a 01 bd 2a a7 05 3c 49 ad 68 3d 45 35 68 3d
       -0.031611122 0.008157531 0.056805883 0.056691427
000050 bc 55 d6 bc c5 22 6b bc bc 58 55 3d 36 2e 2a 3d
       -0.026163928 -0.014351551 0.052086577 0.041547976
000060 62 32 26 bd 77 1a 86 3d e9 57 a9 3d 08 b2 11 bb
       -0.040575393 0.065480165 0.08268721 -0.002223136
000070 ec f6 14 bd 3e 28 bc bc c2 1d 98 3d bf 9b a8 3d
       -0.036368296 -0.022968408 0.07427551 0.08232831
000080 82 95 3b bd 6e f8 b1 bd 4f 23 b9 3c 67 80 42 3d
       -0.04579688 -0.08689962 0.022599844 0.047485735
000090 d4 04 a5 3d 77 a9 05 bd df 02 99 3d a4 79 c2 3c
       0.080575615 -0.032632317 0.07471251 0.023739643
0000a0 aa ea 11 bc 3c 2c 51 bd 6d c8 60 bd 03 b2 6e 3c
       -0.008906046 -0.051067576 -0.05487864 0.0145688085
0000b0 7a 4a 76 3d 5a 3f 69 bd 44 de 57 3c 40 1b df bb
       0.06012962 -0.056945182 0.013175551 -0.0068086684
0000c0 e2 03 0b 3d db 93 12 bd 67 5e a6 bd 80 70 6a b7
       0.03393925 -0.035785537 -0.081234746 -1.397368e-05
0000d0 c1 2d 90 3d 0b 91 06 3d 8c 3f a1 3d 1c 1c 65 bc
       0.07039977 0.032853168 0.07873449 -0.013983753
0000e0 a1 40 af 3d 03 6c 21 3d 5b ab 8f 3d d7 17 77 3d
       0.08557249 0.03940965 0.07015105 0.06032547
0000f0 3d 04 01 bd 59 07 78 bd 8d 66 80 3d 1a 36 b0 3c
       -0.031498183 -0.060553882 0.0626956 0.021510173
000100 d5 78 83 3d 57 f4 63 3d 00 b0 9e 3d 4d 13 54 3d
       0.06419531 0.055652943 0.07748413 0.05177622
000110 26 0c 67 3c fa 1e b2 bb 4a 9c 66 3c e8 18 23 3d
       0.0141020175 -0.0054358216 0.014075348 0.039818674
000120 bb 3c 99 bd db cb a2 3c 22 b1 57 3d eb 8b 27 3d
       -0.074822865 0.019872596 0.05265916 0.04090492
000130 1a cf 51 bd 76 2a 65 3d fb cc 15 bd ef b3 67 3d
       -0.051222898 0.055948697 -0.036572438 0.056568082
000140 7d 21 c0 bc ee 55 8b bd 13 92 99 3d 25 e5 8d 3d
       -0.023453468 -0.06803499 0.074985646 0.069284715
000150 43 dc 4b 39 a3 ea 4b bd 24 bb 4a 3d bc bc e1 bc
       0.00019441643 -0.049784314 0.049494877 -0.027555816
000160 c3 58 7d 3d df 05 d6 3c cc 3d e3 3b 03 60 82 bd
       0.061852228 0.026125846 0.006934857 -0.06365969
000170 d8 16 9a 3b 2f c8 b6 bd 04 96 29 3d 03 c4 a3 3c
       0.00470243 -0.08924901 0.04140283 0.019990927
000180 8d d8 b1 3d b1 e5 a3 bd 76 a2 8c bd 49 bb 73 3c
       0.08683882 -0.080027945 -0.068669245 0.014876195
000190 db 7a a1 bd 48 8d 79 bc cf d5 a6 bd 90 3d 94 3b
       -0.07884761 -0.015231438 -0.081462495 0.0045239404
0001a0 84 8a 63 3c e2 71 2b bd b6 d9 e9 bc 5b 07 ae bd
       0.013888005 -0.041856654 -0.028546195 -0.08497497
0001b0 f4 ec 98 bd 31 69 f1 3c 94 cc 99 bb 33 f1 43 bd
       -0.0746707 0.029469104 -0.004693577 -0.047837447
0001c0 ba 6c 5a bc 09 18 8b 3d d5 9e 5c bd 5f 3b a4 3d
       -0.0133315865 0.06791694 -0.05386241 0.08019137
0001d0 04 12 7f bb e0 02 65 bd ea 93 85 bd a8 a2 4f 3c
       -0.003892065 -0.055910945 -0.06522353 0.012673058
0001e0 88 53 47 bc 23 02 15 bd dc be 88 3d 08 34 8f bc
       -0.0121659115 -0.03637899 0.066770285 -0.017480865
0001f0 da 13 ac 3d cc 9a 6d bd 1c 44 a7 3d da ab c7 bc
       0.08402224 -0.058008954 0.08167288 -0.024373937
000200 61 8b 2f bd c8 69 34 3d b6 5a dc 3c b0 84 88 bd
       -0.04285753 0.044046193 0.026898723 -0.06665933
000210 78 26 09 bd d3 f4 ff 3c aa ee 53 bc d7 c5 97 3d
       -0.033483952 0.031244671 -0.01293532 0.07410782
000220 84 b5 89 bc 38 9e b7 bd 2f 2f fc 3c bf f2 37 3d
       -0.016810186 -0.08965725 0.030784218 0.044909235
000230 c8 a5 69 3c d0 e9 3d 3d 62 88 2b 3d 60 bb 63 bc
       0.014260717 0.04636556 0.04187811 -0.013899654
000240 00 b6 4c 3d da 99 8b bd eb 56 0c bc f1 33 a8 bd
       0.049978256 -0.06816454 -0.008565645 -0.08213032
000250 35 e1 f9 3c a2 96 14 bd 29 7b 4d 3d 17 39 b9 bd
       0.030502895 -0.036276467 0.050166283 -0.09044092
000260 4f f0 23 bd e7 82 b0 bd 73 15 44 bd f2 e6 4f 3c
       -0.040024098 -0.08618718 -0.047872018 0.012689339
000270 63 cf 13 bd 4d 48 ee 3c ce 3b ad bc 8c 52 8b bd
       -0.03608645 0.02908721 -0.021146681 -0.06802854
000280 cb 84 31 3d 6e 4a 3b bd 97 e3 8a 3d db e8 18 3d
       0.043339532 -0.04572528 0.067816906 0.037331443
000290 e4 a9 f6 3b 88 ad 74 3d dd 55 15 bd da 61 45 bc
       0.0075275768 0.059735805 -0.03645884 -0.012047255
0002a0 dd bc 23 3d ed 78 50 3d 9c ca a7 3d 4c d8 a8 bd
       0.039975036 0.050896574 0.081929415 -0.0824438
0002b0 ca 87 67 3d 72 5a 3b bd 67 56 ab 3b 03 fc 3d 3d
       0.056525983 -0.045740552 0.005228806 0.046382915
0002c0 62 39 55 bc c3 85 a2 bd aa d4 9a 3d 06 ca 4c 3d
       -0.013014169 -0.07935669 0.07560094 0.049997352
0002d0 82 6d c7 3c dc da 7b 3d 6b 62 b7 3c 82 04 93 bd
       0.02434421 0.061488017 0.022385797 -0.07178594
0002e0 8f 4d 40 bd 25 84 cd bc dd 9f f9 bc 4b e4 0f bc
       -0.046948966 -0.025087425 -0.030471737 -0.008782457
0002f0 9a f5 7f bc f2 b6 a1 3c 46 11 9e bd 43 8d 94 bd
       -0.015622521 0.019740555 -0.077181384 -0.07253506
000300 38 77 82 bd f6 a1 86 3c 08 66 2a bd bc 7c a5 bd
       -0.063703954 0.01643465 -0.04160121 -0.08080432
000310 b0 97 8e bd df 17 bb 3c 23 55 83 3d f5 43 93 3d
       -0.06962526 0.022838531 0.06412723 0.07190696
000320 e8 4b 17 3d 82 47 39 3d 90 e2 92 bc f7 a5 a5 3c
       0.036937624 0.04523421 -0.017930299 0.02022074
000330 63 eb 82 bb 80 36 9a bb 4e 31 5b 3d fc 26 b5 3d
       -0.0039953454 -0.004706204 0.053513817 0.08845326
000340 c0 9c db bc 35 a1 52 bd a6 6d 3c b9 fe 9b 81 3d
       -0.026808143 -0.05142327 -0.00017969924 0.06328581
000350 d0 4d 6c 3b f3 b2 20 3d 29 77 b9 3c 0f d2 c6 bb
       0.0036057122 0.03923316 0.022639828 -0.0060675214
000360 d4 b5 ae 3c 2f 65 50 3d 39 83 ad bc 00 da 4d 3d
       0.021326937 0.050877746 -0.021180736 0.05025673
000370 57 4a de bc da 03 b7 bc 3c 5a d4 bc 9c 39 a0 bd
       -0.027135057 -0.022340704 -0.025921933 -0.07823488
000380 cc 5a 18 3d 3f 75 6d 3b d7 4a a6 bd a8 46 28 bb
       0.037195966 0.0036233214 -0.08119743 -0.002567688
000390 52 04 21 bd 11 08 8d 3d b7 6d aa 3d 1f 7b a5 bd
       -0.03931076 0.06886304 0.08321708 -0.08080124
0003a0 ed a0 89 3d d5 1d ab bd 4b 95 15 bc e5 4a b1 3b
       0.06720147 -0.083552994 -0.0091298325 0.0054105395
0003b0 20 fd a7 bd 9e d3 f2 bc 00 d0 dc bc 07 f4 de bc
       -0.08202577 -0.029641923 -0.02695465 -0.02721597
0003c0 d4 ac 7e 3d 1e 5e 17 bc 22 96 2a bd 5f c5 89 bd
       0.06217654 -0.009238748 -0.041647084 -0.06727099
0003d0 bb 87 00 3d f9 c7 a4 3d ff 5b aa 3d eb 5c 93 3d
       0.031379443 0.08045954 0.08318328 0.07195457
0003e0 a0 32 de bb 2c 5c 2a 3c 21 a2 36 bb 46 dd af 3d
       -0.0067809373 0.010397952 -0.0027867632 0.085871264
0003f0 bc 75 a2 bd 42 e7 a4 3d 4b e6 26 bc 68 a0 7f bd
       -0.07932612 0.080519214 -0.010186742 -0.062408835

lstm.bias_ih_l0 f4 [512]
000000 61 83 51 bd 55 cc 80 3b 7a 31 c7 3c 00 4c 92 3c
       -0.051150683 0.0039306083 0.024315584 0.017858505
000010 eb 09 18 3c b0 d5 81 bd 8e f3 1c bd c3 5d 51 bc
       0.009279708 -0.06339586 -0.03831821 -0.012778702
000020 4e 33 31 bd c9 15 94 3d 59 89 aa 3b ef ac 62 bc
       -0.04326182 0.07230718 0.0052043614 -0.013835176
000030 ce 73 89 bd 1c 57 37 bd 75 35 b5 bb 7e 79 6f 3d
       -0.06711541 -0.04476081 -0.005530054 0.058465473
000040 2c 1e f1 39 46 a6 8f 3d d5 78 58 bc 58 9e 35 bc
       0.00045989582 0.07014136 -0.013212402 -0.011085115
000050 60 63 6e 3d 8f d5 b7 3a 9e c2 22 3d 65 0c dc ba
       0.05820024 0.0014025437 0.039736383 -0.0016788362
000060 59 09 af bd 0c d5 a5 bd df 01 3a 3d 57 c9 a3 3d
       -0.08546705 -0.08097276 0.04541194 0.07997387
000070 2d 7b 3c 3b 94 73 ad 3d 24 50 18 3c 7b 8f 6f 3d
       0.0028759942 0.084693104 0.009296451 0.058486443
000080 35 83 0d bd 5b 30 5b bc 50 61 b2 3c 0a 8c 84 bd
       -0.034548957 -0.013378228 0.021774918 -0.06472023
000090 0f eb 43 3d d3 fd b7 3c d6 45 98 bd fa 88 b8 bd
       0.04783159 0.0224599 -0.07435195 -0.09010501
0000a0 01 4f 8b 3d 18 9c b2 bc 26 8e b4 3c b9 84 06 bd
       0.06802178 -0.021802947 0.022040438 -0.032841418
0000b0 40 86 82 bc 57 67 29 bd b5 c1 f8 bc b2 a7 d4 3c
       -0.015933156 -0.04135832 -0.030365804 0.02595887
0000c0 96 6b a5 3c 73 95 3e bd 34 55 7e bd 5b 7e aa bc
       0.020192903 -0.046529245 -0.062092975 -0.020812204
0000d0 24 fc 82 bc 4a c1 3e bd 2b 89 ad bc 87 b9 ec bc
       -0.01598937 -0.046571054 -0.02118357 -0.02889706
0000e0 f4 41 ae 3d ef 1c 92 bd 84 34 85 bc e7 ee b9 3d
       0.08508673 -0.07134425 -0.016260393 0.0907877
0000f0 c1 b2 b1 bd bd 73 56 bc a6 f0 a6 bd c0 42 88 bc
       -0.08676673 -0.013089118 -0.08151369 -0.016633391
000100 bd 34 2e 3d 7d c9 a4 3c e4 b2 c3 bd 8e b4 92 bd
       0.042530764 0.020115608 -0.09555605 -0.07163344
000110 49 d2 65 bc a1 2a 35 3c 76 9e 02 bd 19 d7 91 3d
       -0.014027187 0.011057527 -0.0318894 0.07121105
000120 72 b4 16 bd 03 01 6b 3d e3 5a 8e 3d 5a c5 9b bd
       -0.03679318 0.05737401 0.06950929 -0.07606001
000130 8f 3e ac 3d c0 d1 af bd f4 33 ce bc 57 1d 4b 3d
       0.084103696 -0.085849285 -0.025171258 0.049588528
000140 9b a3 1d 3d 10 bf 44 bd c1 ee 5c bd ae 68 30 bd
       0.038486104 -0.048033774 -0.05393863 -0.04306858
000150 f0 6d 1c 3c d6 61 37 3a 6f 48 b4 bd a8 86 24 bd
       0.0095476955 0.00069954747 -0.08802878 -0.04016748
000160 1f cf c3 3c 45 ec 2a bd f2 ba 4a bd 9d 07 2a bd
       0.023902474 -0.04172923 -0.04949469 -0.041511167
000170 b7 69 0e bd 4e dd 74 bc 7a 60 15 bc 82 6f a8 bb
       -0.034768786 -0.014945341 -0.00911724 -0.005140246
000180 00 b9 31 3b fb 93 29 bd ce c1 75 bd 0b 96 ed bb
       0.0027118325 -0.04140089 -0.05999928 -0.0072505525
000190 86 0e 67 bd 0c 26 a7 3d 62 9a 76 3c ee 30 58 3d
       -0.056410335 0.08161554 0.015051456 0.052781038
0001a0 97 75 47 bd ab c1 8e 3d b4 6e 12 bd d9 42 20 bd
       -0.048696127 0.06970533 -0.035750106 -0.03912625
0001b0 3d ff 35 bd d8 6a af 3d 7d 48 49 bc 28 08 ab bc
       -0.044432867 0.08565301 -0.012285349 -0.020877913
0001c0 2a f9 d5 3c 5f f3 a5 bd a6 09 d5 bc 3a 51 1a 3d
       0.026119787 -0.0810306 -0.026005577 0.03767512
0001d0 cc 41 be bc fe 44 c6 3b a1 b8 b4 bd b1 bf 9b 3c
       -0.023224734 0.006050705 -0.08824278 0.019012304
0001e0 18 f6 c1 3c ce 35 a2 3d 4e ef 71 3d e3 bd af 3c
       0.023676917 0.07920419 0.05906611 0.02145285
0001f0 09 ab bb 3d 73 24 af 3d c2 ba a0 3c a3 f7 88 bd
       0.09163482 0.08551874 0.019620303 -0.06687858
000200 70 fc dd 3a f2 c5 db bc 97 7f 3b 3d 8b 85 f7 3c
       0.0016936194 -0.026827786 0.045775976 0.030215045
000210 fa ff 6d 3d 9e 2b 66 3d 06 07 5a bc 0d 70 71 bd
       0.058105446 0.05619394 -0.013307339 -0.05894475
000220 31 14 55 3d ce 08 c8 bd 4f a0 fd 3c 7d 6f 16 3d
       0.05202121 -0.09767304 0.03096023 0.036727417
000230 ae f8 6f bc 3c 5d a3 3d 68 86 45 3d 67 28 a5 bb
       -0.014646692 0.079767674 0.048223883 -0.0050402167
000240 de 9c 57 bc 26 56 9d bd 64 e5 56 3d 99 d2 b5 3d
       -0.013159959 -0.07682447 0.052464858 0.08878059
000250 68 dc 87 bd 02 3a ed bc b3 8a 94 bd 4a d2 a2 bd
       -0.06633836 -0.028958324 -0.07253017 -0.07950266
000260 58 0d a1 bd 2a fb e4 bc c3 e3 3d bd c7 e2 76 3c
       -0.07863873 -0.027951796 -0.04635979 0.015068716
000270 b4 a1 b8 3c a5 95 af bd 8a ac 86 bd 49 31 7c bd
       0.022538044 -0.08573464 -0.06575878 -0.06157044
000280 67 90 19 3d 95 a6 86 3d 74 09 99 3d cb 66 2c bd
       0.03749123 0.06574742 0.07472506 -0.04209022
000290 5f 29 f6 bc 94 a7 9a bd b1 87 06 bc 5b e2 b8 bd
       -0.030049024 -0.07551494 -0.008211062 -0.09027549
0002a0 d8 b9 15 bd 05 4c b5 3c 02 65 d7 3c 9e e4 b9 bb
       -0.036554188 0.022130975 0.026293281 -0.0056730052
0002b0 50 6f a1 bd 50 8e 8d bd 77 de 7a bd d3 34 9d bd
       -0.07882559 -0.069119096 -0.061247315 -0.07676091
0002c0 7d f7 dc 3c 9c bf 8d 3c ab e4 01 bd bc bd 31 bd
       0.02697348 0.01730328 -0.031712215 -0.043393835
0002d0 ff a7 44 3d b6 10 75 3d 71 b4 66 bd 9c 10 07 bd
       0.048011776 0.05983039 -0.056324426 -0.032974824
0002e0 f3 52 18 bd 17 2c ee 3c 29 f9 20 bc 29 75 a1 3d
       -0.03718848 0.029073758 -0.009825029 0.07883675
0002f0 35 26 a0 3d c9 2b c5 bc fe 95 0c 3d fc ad 8b bd
       0.078197874 -0.02406873 0.03432273 -0.06820294
000300 2e 4f 41 bd a4 88 0d bd 4f 34 8d bc 1c 0d 9d 3d
       -0.047194652 -0.03455414 -0.017236857 0.07668516
000310 0f 0c 80 3c c4 c6 8f 3d 64 a3 50 3d cb e5 9a bd
       0.01563075 0.070203334 0.05093707 -0.07563361
000320 4f d4 ac bc 79 64 4f bc 46 1a 91 3d 72 20 a7 bd
       -0.02109733 -0.012658232 0.070850894 -0.08160485
000330 d4 3d 46 bd 3b d8 9e 3d a2 51 cb 3c 5f ee 81 bd
       -0.048398808 0.077560864 0.024819199 -0.06344294
000340 07 ca 3b 3d ac 1a 36 3d 6b 60 17 bc 0b 5d 2b 3c
       0.045846965 0.04445903 -0.009239296 0.010459195
000350 c0 f3 20 3d 05 3d 6e bb 69 a9 7e bd d7 4c 81 3d
       0.039294958 -0.0036352288 -0.06217328 0.06313484
000360 10 20 2b bd e4 d0 b9 bd 70 55 8e bd 56 39 17 3c
       -0.041778624 -0.09073046 -0.0694989 0.009229979
000370 ed 77 ed 3c b6 54 96 bc 60 3c 9f 3a 79 33 b6 bb
       0.02898785 -0.01835094 0.001214873 -0.0055603352
000380 8b e1 3a 3d ff f7 8c 3d 96 94 31 3d ba 49 52 3d
       0.04562525 0.06883239 0.043354593 0.051339842
000390 6d bb bd bd db 69 45 3d 34 8d 94 3d 0d 19 aa 3d
       -0.09264264 0.048196655 0.07253495 0.08305559
0003a0 e6 4b d3 3c de 79 29 bc 90 b7 09 3d e8 fa 31 bd
       0.025793027 -0.010343997 0.033622324 -0.043452173
0003b0 ee 17 7f 3d de 88 ad 3c 86 d1 de bc 95 5c a7 bd
       0.06227868 0.021183427 -0.027199518 -0.081719555
0003c0 3f 8c 73 bd b8 32 08 bc 14 6c 98 bd 2f e9 45 bb
       -0.05945992 -0.008312874 -0.07442489 -0.0030198803
0003d0 73 f7 06 bd a2 19 b4 bd 35 d4 a9 3c ae aa c4 bc
       -0.03295083 -0.087939516 0.020731071 -0.024007168
0003e0 bd 5f 1f bd 38 fc 88 bd ff be ef bc ed 97 a2 bd
       -0.038909663 -0.06688732 -0.029265879 -0.07939134
0003f0 c0 f1 39 bc 06 f8 8f 3d f3 29 aa bd 73 e6 71 3d
       -0.011349142 0.070297286 -0.083087824 0.059057664

lstm.bias_hh_l0 f4 [512]
000000 59 48 d9 3c 0d 7d 0f bd 7c 7c 40 bd f2 88 76 3d
       0.026523756 -0.035031367 -0.046993718 0.060189195
000010 27 ef 60 bb de ce 27 3b 42 37 a3 bc 37 9a 2d bc
       -0.0034322233 0.002560548 -0.01992381 -0.01059585
000020 73 46 8d bd 20 7d 70 3d 5d eb 3b 3d d7 29 ad bd
       -0.06898203 0.05871308 0.045878757 -0.08455246
000030 cc f1 22 3d 2c 24 c0 3b cb f7 92 bc 05 a3 51 3c
       0.039781377 0.005863687 -0.017940423 0.012795215
000040 5b 77 a5 bc 42 83 9b 3d d6 96 c2 3c 5f 7c b4 3c
       -0.020198515 0.07593395 0.023753565 0.022031961
000050 93 25 a2 3d 2d bd d9 3c 35 d9 7f bd db 16 e7 3c
       0.07917323 0.026579464 -0.062463004 0.02820914
000060 15 27 97 bc 18 f0 c8 3c 1b ea 5b 3d cd 62 26 bb
       -0.018451253 0.024528548 0.053690057 -0.002538848
000070 c8 59 89 bc 04 ee 3a bd a2 c6 92 3d 86 3b 8f bc
       -0.016766444 -0.045637146 0.071667925 -0.017484438
000080 e2 2f 33 3c 28 87 05 bd 36 a6 63 3c 22 a6 b4 3d
       0.010936709 -0.0325996 0.013894608 0.0882075
000090 21 0a a8 bd cf 44 25 3c 8a cd 19 3d 63 ad 74 bc
       -0.08205057 0.010087206 0.037549533 -0.014933917
0000a0 06 d2 8c bd 3b 8c 67 3c eb f0 5d 3c d7 ad a2 bc
       -0.06875996 0.014132555 0.013546209 -0.019858284
0000b0 2d e3 21 3d cf 48 84 3d 38 ba 81 3c 43 d9 8f 3d
       0.039523292 0.064592 0.015835866 0.07023861
0000c0 65 a3 27 3d 57 35 02 bd 18 26 14 3d 6d 4f bb bc
       0.04092731 -0.03178915 0.03616914 -0.022865022
0000d0 29 d3 87 bd ba 8e 12 bd a0 5c 9f bd 4a fe a8 3d
       -0.066320725 -0.035780646 -0.07781339 0.08251627
0000e0 a2 60 40 bd 61 56 97 bc 62 9b 0b 3c c4 4c e1 bb
       -0.046967156 -0.018473806 0.008520933 -0.0068756063
0000f0 27 02 b0 bd 01 80 a4 3d 18 90 7f 3b e4 5e f8 3c
       -0.085941605 0.08032227 0.0038995799 0.030318685
000100 c4 89 b0 3d 16 db 3e 3d 50 24 91 bd 9b 4b 11 3d
       0.08620027 0.046595655 -0.07087004 0.035472494
000110 c3 54 01 3c c5 d0 35 bd c4 35 90 bd 70 bd 82 3d
       0.007893744 -0.04438855 -0.07041505 0.063837886
000120 6a dd 92 3d 33 c7 22 bd 51 29 77 bc 85 ec c8 bc
       0.07171138 -0.039740752 -0.015085534 -0.024526844
000130 a2 ad b4 3c dc bf c6 3c d2 99 03 bd c3 f5 9c bd
       0.02205545 0.024261408 -0.032129116 -0.07664063
000140 57 ed a1 3d 5f ff a3 3d cf 2f 92 bc 87 22 5b bd
       0.07906597 0.080076925 -0.017845063 -0.053499725
000150 c9 b3 c2 3c e9 3e 1d 3d 9c 6d 8b 3d 10 a9 a7 3d
       0.023767369 0.038390074 0.06808016 0.08186543
000160 03 26 30 3d b9 50 6b 3d 89 13 a1 3d 1c c2 15 3c
       0.043005 0.05745003 0.07865054 0.009140518
000170 89 46 a1 3c f9 12 7d bd 50 88 f9 bc 1f df 70 3b
       0.019686954 -0.06178567 -0.030460507 0.0036754084
000180 93 99 79 3d 59 f3 8b bc 81 82 55 3d dd 34 ac 3c
       0.060937475 -0.01708381 0.05212641 0.0210213
000190 78 5d 32 3d 1f ae a5 3c 36 78 b1 bd 4c 33 9e 3d
       0.04354617 0.020224629 -0.086655065 0.07724628
0001a0 77 bf 17 bc 5f b1 98 bd 93 3d 9f 3d d1 89 09 bc
       -0.009261957 -0.07455706 0.07775416 -0.008394674
0001b0 a0 c9 9a bd 79 71 03 3d 18 1a 63 3d ca 66 e8 3c
       -0.07557988 0.032090638 0.055444807 0.028369326
0001c0 e0 5c 76 bd 7f 60 c2 3c 35 1e 59 3d b8 55 93 bd
       -0.060147166 0.023727654 0.053007323 -0.07194084
0001d0 7b ee b2 bd 7f fe f4 bb 29 fc 07 3d e4 48 94 3d
       -0.08736893 -0.0074766274 0.033199463 0.07240465
0001e0 44 ae 84 bd 8f 69 5a 3c 4e 41 0e bd db 85 b0 bd
       -0.06478551 0.013330831 -0.03473025 -0.08619281
0001f0 27 f5 89 bd 51 4a 5f bd 65 ab 13 3d 9f a3 3f 3d
       -0.06736212 -0.054514233 0.036052126 0.0467869
000200 63 b4 88 3d 94 fc bf bd 18 fa 41 bd 60 3f 53 bd
       0.06675031 -0.09374347 -0.04735765 -0.05157411
000210 e7 36 7f bd 89 6c bd bd c8 bd 92 bd f5 04 63 3d
       -0.06230822 -0.09249217 -0.07165104 0.05542465
000220 bd 92 5f 3d 86 a9 8c bd 9e e1 b1 3d b3 8b 2c 3d
       0.0545833 -0.068682715 0.08685611 0.042125415
000230 a2 58 78 3d 85 7d 5d 3c f6 ba 6f bd 77 ec c1 bb
       0.0606314 0.013518696 -0.05852791 -0.0059180814
000240 51 b1 8d 3d e7 da e4 bc 05 5e be bd 68 fe 9c bc
       0.06918586 -0.027936412 -0.092952766 -0.01916428
000250 42 65 be bc a4 62 ea 3c f3 b9 aa 3c 51 de 3b 3d
       -0.023241643 0.028611489 0.02084062 0.045866314
000260 d9 61 56 bc db f1 0f 3d 79 76 91 3d e8 da 8b bd
       -0.013084852 0.03514276 0.07102675 -0.068288624
000270 9f 2d a8 3d 6b 8f df bc 15 00 a7 bb 4b 88 84 3d
       0.082118265 -0.027290067 -0.0050964453 0.06471308
000280 39 bf 93 bd 17 12 5e bd 99 70 91 bd 20 82 8a 3d
       -0.07214207 -0.05421647 -0.071015544 0.067631006
000290 11 17 af bd ce b1 9e bc f0 ba a5 bc 12 15 17 3c
       -0.085493214 -0.019371893 -0.02023074 0.009221332
0002a0 2c b2 80 3c 09 68 9b 3c 0d 06 07 3d ea 91 26 bc
       0.015709959 0.018970506 0.032964755 -0.010166625
0002b0 ff 50 2e bd 23 c8 56 3c a2 e8 d1 bc 96 e9 80 3d
       -0.042557713 0.01310924 -0.025623623 0.06294553
0002c0 9b 7b 03 bd 2f c9 06 3d 8c eb 6e 3d 6e 1d 69 3d
       -0.0321003 0.032906707 0.058330104 0.056912832
0002d0 ae ba 70 bd 27 4e ae bc 7d 20 7b 3c 52 93 27 3d
       -0.05877178 -0.0212775 0.01532757 0.04091198
0002e0 29 14 b2 bd 76 61 a7 3d a3 66 60 3c b9 f0 dd 3a
       -0.086952515 0.08172886 0.0136963455 0.0016932703
0002f0 99 93 4c 3c 31 92 09 bd 7d 12 25 bd d5 1a b7 3d
       0.012486362 -0.033586685 -0.040300835 0.08940665
000300 20 94 76 3d 55 0f c5 bc 8f b5 95 bb f6 0e 1b bd
       0.060199857 -0.024055162 -0.0045687626 -0.037856065
000310 00 24 bb 3c e3 e1 b6 bd 02 f2 91 bd b2 54 8e 3d
       0.022844315 -0.08929803 -0.071262375 0.06949748
000320 6f ab 3e 3d 66 29 cd bb 7b 61 9c bc ed b6 ae bd
       0.04655021 -0.0062610386 -0.019089451 -0.08530984
000330 86 b9 3d 3d 18 ff a3 bd c2 98 01 bd ab d6 b6 3d
       0.046319507 -0.0800764 -0.03163982 0.089276634
000340 fb 66 36 3c 0a 18 84 3c 1c 70 9d 3c 6d e5 9d bd
       0.011132951 0.016124744 0.019218497 -0.07709775
000350 71 41 a0 3d 74 79 a9 3d 79 8f bc bd 91 b7 99 3d
       0.07824982 0.082751185 -0.09207053 0.07505716
000360 63 e6 99 bd fd 42 21 bd 41 8e b7 bd ad 4c 69 3d
       -0.07514646 -0.039370526 -0.0896268 0.05695789
000370 79 d5 9b 3c f4 47 3a bc 20 19 77 bd e2 13 a1 bd
       0.01902269 -0.011369694 -0.060326695 -0.078651205
000380 67 64 6c 3d ed 57 e7 3c da 00 48 3c 37 87 9c bd
       0.05771294 0.028240168 0.012207234 -0.07642978
000390 88 46 4e 3d 64 7f 9d ba cb 29 db bc 49 b2 92 3d
       0.050360233 -0.0012016115 -0.026753327 0.071629114
0003a0 fe 5d aa 3d 9a 59 bb bc fc 32 92 bd 0c 3a b5 3d
       0.08318709 -0.022869874 -0.07138631 0.08848962
0003b0 e1 7d 9b 3d cb f6 19 bd c6 53 23 bd b0 42 e7 bc
       0.07592369 -0.037588876 -0.039874814 -0.028230041
0003c0 4b 08 d6 3c 2a f1 b2 bc e8 5d bd 3c fe 5d 08 bd
       0.026127001 -0.021843512 0.023116067 -0.033292763
0003d0 bf d3 0e bd 77 1d 62 3d ae 59 72 3d 70 c3 ae 3c
       -0.034869906 0.05520388 0.059167556 0.021333426
0003e0 35 00 55 bd b6 b2 97 bd b4 02 30 3d 3b 79 15 3d
       -0.05200215 -0.07407133 0.042971328 0.036492568
0003f0 79 d6 33 bd 8e c8 a3 3d 3b c4 73 bd 53 dc 2d 3d
       -0.04390571 0.07997237 -0.05951331 0.042446446

lstm.weight_ih_l1 f4 [512, 128]
000000 1e 6d 79 3d 37 cd 56 bc 38 d3 93 bc 1b 74 86 bd
       0.060895078 -0.0131104505 -0.018045053 -0.06565114
000010 f8 09 22 bd 24 f8 15 bd ee bf 3c 3d 84 33 3a 3d
       -0.03956029 -0.0366136 0.046081476 0.045459285
000020 44 82 54 bd 72 3d 90 bd a1 12 91 3d e3 3b fa 3c
       -0.051882043 -0.0704297 0.07083631 0.030546134
000030 9a ce 15 3d fe be 11 3d 7e 56 b5 3d d5 0b 8c 3d
       0.036573984 0.035582535 0.08854388 0.06838194
000040 a5 a2 75 bd 21 2b d6 bc c5 e9 63 3c a9 61 85 bd
       -0.059969563 -0.026143612 0.0139107155 -0.06512768
000050 4e 5e a4 3d 18 19 99 3d 5c 39 57 3b 5c fe 57 bd
       0.080258 0.074754894 0.0032840585 -0.05273281
000060 f5 1f a0 3d 91 ee 1e bd 5d 82 86 bc b0 7d aa bc
       0.07818595 -0.038801733 -0.016419584 -0.020811886
000070 27 16 03 3d ab 0d cc bb 23 a7 d6 3c 45 90 07 3d
       0.032003548 -0.0062272153 0.026202744 0.03309657
000080 ce ce 92 3c d8 8e aa bd 58 1b 65 b7 11 d2 a4 bb
       0.017920878 -0.083280265 -1.365583e-05 -0.0050299247
000090 b8 92 8e 3c 32 2e 7d bc 63 3e 93 bd 9c 52 98 3d
       0.017403945 -0.015452908 -0.07189634 0.074376315
0000a0 59 4b 06 3d 9f a5 1f bd 37 a6 8c bc f6 ac 98 bd
       0.0327867 -0.038976308 -0.017169101 -0.07454865
0000b0 54 df 96 bc 71 03 93 3d 3d e0 7e bd 9f 98 4f 3d
       -0.018417038 0.07178391 -0.06222557 0.05068266
0000c0 a1 36 01 bb 67 ce 9e bc 33 a7 a8 bc c0 df 32 3d
       -0.00197164 -0.01938553 -0.02058754 0.043670416
0000d0 b0 6a a8 3d bc 41 11 bc 9c 06 fa bc 80 f8 15 bc
       0.08223474 -0.00886577 -0.03052073 -0.009153485
0000e0 5a 97 d5 3c 27 00 ad 3d da 14 82 3d 7e 4b da 3c
       0.026073147 0.08447295 0.06351633 0.026647326
0000f0 59 e3 41 bd 46 71 9f bc 06 7a 34 3c 33 7d 63 bd
       -0.047335956 -0.019463193 0.011015421 -0.05553932
000100 c4 9f 61 3d 2e 9a 85 bd f2 ce a4 3d 9a 2c 86 bc
       0.055084005 -0.06523548 0.08047284 -0.01637869
000110 e2 5e 9f bb be 24 2a bd df 1f a7 3d 94 05 a2 bc
       -0.004863606 -0.041538946 0.08160376 -0.01977805
000120 e0 c2 ef bc 90 ec 82 bd 4d af c0 bc 8d 61 17 3a
       -0.029267728 -0.06392777 -0.02352109 0.0005774729
000130 4f 5d c0 bc 3e 16 93 bc fb 2e 05 bd 6f f4 ad 3c
       -0.023481993 -0.017954942 -0.032515507 0.02123472
000140 f5 13 99 3d a6 6e 35 bd df 0e 5f 3d 39 29 3b bd
       0.074745096 -0.044294976 0.05445754 -0.04569361
000150 05 1d b1 3d bc 50 af 3d 63 e5 86 3d 4f 34 e2 bc
       0.08648113 0.08560321 0.06586721 -0.027612833
000160 59 f1 b1 3c 41 62 14 3d 50 ca 52 bd ac d6 9b bc
       0.021721529 0.036226515 -0.05146247 -0.019023262
000170 bb 3d 5b 3d f7 a1 14 bd 62 8c 88 38 47 8e c3 bb
       0.053525668 -0.036287274 6.511134e-05 -0.0059678885
000180 a6 4a a2 bd 2d 85 a7 bd 97 50 94 bd dd d1 98 bd
       -0.07924394 -0.08179698 -0.07241934 -0.07461903
000190 41 13 ba bd 24 8f 89 bd b0 d5 9f 3d 1e 1b 73 3d
       -0.09085704 -0.06716755 0.078044295 0.059352033
0001a0 46 c0 87 3d 5d ed a5 3d be a2 a0 3d 0d 5a 13 bd
       0.0662847 0.08101914 0.078435406 -0.03597455
0001b0 ce 39 0d 3c 4a 21 2c bd 3d 83 60 bc 6e 38 e3 3c
       0.008619739 -0.042023934 -0.013703165 0.027736869
0001c0 70 69 89 bd 37 f4 cc bc 4c a6 ee bc 0f 04 b3 3c
       -0.06709564 -0.025018794 -0.02913203 0.021852521
0001d0 dd f9 1f 3d aa c5 d1 3c e7 5d 06 bc f6 28 69 bd
       0.039056648 0.025606949 -0.008201099 -0.05692383
0001e0 a0 9b 5d 3d 9a f0 c0 3c 67 c9 96 bd e5 a5 6c 3d
       0.054103494 0.023552228 -0.07362633 0.057775397
0001f0 a5 13 a0 3d e9 44 86 3b a3 87 05 3c b0 2b 83 3d
       0.07816247 0.00409757 0.008150014 0.06404817
000200 e0 63 90 3d 45 c6 36 3b f4 44 64 bd c9 db c1 bc
       0.070503 0.0027889174 -0.05572982 -0.023664372
000210 59 73 95 bc 54 29 1a 3d 93 6e 61 3d 18 38 5a 3d
       -0.018243479 0.03763707 0.055037092 0.05327615
000220 ca 19 76 bd f1 35 d9 3c a5 37 39 3d 7d 2b 70 3d
       -0.060083188 0.02651498 0.045219082 0.058635224
000230 ac ea 5e 3d 65 a2 3f 3d 68 97 60 bd 02 3e 90 bd
       0.05442302 0.04678573 -0.054831892 -0.07043077
000240 8d 84 42 3d 8d 1c 98 bd 76 5e 7e bb e8 96 13 bd
       0.04748969 -0.07427321 -0.0038813627 -0.036032587
000250 88 a5 a4 3c a7 e4 02 bc 7a 09 0e bc 6d b3 84 bd
       0.020098463 -0.007989085 -0.008669252 -0.06479535
000260 72 f8 20 3c 71 56 26 3d 21 7d 48 bc ab 21 d6 bc
       0.009824859 0.04060978 -0.012236864 -0.026139101
000270 7b 49 23 bd 27 75 bf bc f9 7a 95 3d 11 cf 3c bd
       -0.039865 -0.023371292 0.07298846 -0.04609591
000280 96 dd a7 bd a6 56 9f 3c 01 0b 85 3d 05 6a 9b 3d
       -0.08196561 0.019450497 0.064962395 0.07588581
000290 2b 2b 55 bd 79 0b 61 3d 97 e4 18 bd 43 e2 62 3d
       -0.05204312 0.05494258 -0.037327375 0.05539156
0002a0 63 d5 aa 3d a9 09 07 bd 94 35 e5 3c 37 28 6b 3d
       0.083414815 -0.032968197 0.02797965 0.0574114
0002b0 f9 94 0b bd ed 42 11 bd 5d 6f 5c 3d 61 0a 83 3d
       -0.03407762 -0.035464216 0.05381714 0.06398464
0002c0 22 1a 8f 3c 54 8a 7f 3c f9 b5 4d 3d 2d 71 73 bd
       0.017468516 0.015596945 0.05022237 -0.059434105
0002d0 fe a3 72 bd a1 41 91 3a 5b 65 8f bc 5e 54 6b 3d
       -0.059238426 0.0011082181 -0.017504385 0.057453506
0002e0 d3 ef c3 bc b5 84 4a bd 9f 13 7b bd 68 4b 97 3d
       -0.023918068 -0.049442966 -0.06129801 0.073874295
0002f0 ca 07 4c 3d c0 30 67 3d c4 a6 aa bd 89 5b 9c bd
       0.049812116 0.056442976 -0.08332589 -0.076346464
000300 99 f5 cd bc f4 8a 59 bd 73 6e 31 3d e7 a9 38 3c
       -0.025141524 -0.05311103 0.043318223 0.011270977
000310 e1 40 27 bd c5 87 2a 3d 3e d4 fc 3c 43 a0 af bd
       -0.040833358 0.041633386 0.030862924 -0.08575489
000320 c9 15 97 bd 81 81 88 bd e0 ba 02 bc 44 cc 96 bd
       -0.07377202 -0.06665326 -0.007979125 -0.07363179
000330 0a 57 b8 bd fc b1 8f 3d 55 e2 5d 3a 8e ee c4 3c
       -0.090009764 0.0701637 0.0008464207 0.024039533
000340 85 b9 3f bd ec 41 83 bd c6 e4 1a 3d 9b 33 15 3d
       -0.046807785 -0.06409058 0.03781583 0.036426168
000350 40 fb e8 3c 5d 32 7c bd ab 49 94 3d f5 1f bb bd
       0.028440118 -0.061571468 0.072406135 -0.09136955
000360 38 d6 98 3d 2f 6c 7f bd 94 b4 9e bb 6d 23 0b bd
       0.07462734 -0.06235903 -0.004843304 -0.03396933
000370 51 d9 9f 3a d7 a4 ad 3c 93 11 55 3d 70 c7 6c 3d
       0.0012195503 0.021196766 0.052018713 0.057807386
000380 36 67 a5 3c 6f c5 5a 3d ff 33 30 3d 9c a4 8e bd
       0.020190816 0.053410944 0.043018337 -0.069649905
000390 43 8d 97 3b e8 a4 9d 3c cd d8 2f bd 8f 5e 95 bd
       0.004624994 0.019243672 -0.042931367 -0.07293426
0003a0 54 9e 23 bc fa d0 ae bd cd 18 40 bd 28 d0 f9 3c
       -0.009986479 -0.08535953 -0.046898652 0.030494764
0003b0 5c a1 ca 3c 87 c2 94 3c 3a 76 17 bd b9 ed 8f bc
       0.024735145 0.018159164 -0.036977984 -0.01756941
0003c0 8c 20 8f bd 48 53 f0 bc 80 be 87 bd cf 47 18 3d
       -0.0698863 -0.029336587 -0.06628132 0.037177857
0003d0 aa 55 8c 3d 48 fa 94 bd de d0 71 bd 9e de 59 3d
       0.068522766 -0.072743 -0.059037082 0.05319082
0003e0 0c 28 a7 bd 98 a2 5e 3d d0 0c 5a 3d 08 0f 2d 3d
       -0.08161935 0.05435428 0.053234875 0.042250663
0003f0 af 9d 3e 3d 97 6c 96 bd 65 b2 75 bd 7b d1 60 bd
       0.046537098 -0.073449306 -0.059984583 -0.054887276

lstm.weight_hh_l1 f4 [512, 128]
000000 74 1f 8f 3d ba 01 9a 3d 59 ae 44 3d 23 f6 87 bd
       0.06988421 0.075198606 0.048017833 -0.06638744
000010 6b d0 8e 3d 91 dd a0 3d 3c 0b 82 3d 5e 77 6c bd
       0.06973346 0.078547604 0.06349799 -0.057731025
000020 cd 13 50 3d bd 02 4e bd f8 0a 04 3d b1 c7 fb bc
       0.050800133 -0.05029558 0.032237023 -0.030734869
000030 39 db 91 bd a4 59 9c bc 64 0d b2 bd 62 9e 05 bc
       -0.071218915 -0.019085713 -0.0869396 -0.008155437
000040 9e d7 54 bc e9 41 ae bd dd 5f ac bd 19 60 ac bd
       -0.01299086 -0.08508665 -0.08416722 -0.08416767
000050 b5 ef dc 3c c6 a1 03 bd 84 97 5c bd 19 1c 47 3b
       0.02696977 -0.0321367 -0.053855434 0.0030381738
000060 44 60 0a 3a f8 a0 6c bd a1 36 8f bd cb 4a 87 3d
       0.0005278627 -0.0577707 -0.069928415 0.066060625
000070 e4 92 24 bd 70 6c d4 3c 47 0a a5 3d c5 b3 b0 bd
       -0.04017915 0.025930613 0.08058601 -0.08628038
000080 c8 f5 48 3d 57 06 82 3d 31 9c a6 bd 4c 37 8d bd
       0.04906252 0.063488655 -0.0813526 -0.06895313
000090 ea 7b fd 3c ad 3a 9c 3d 3c 61 6f 3a 11 49 1a bc
       0.030942876 0.07628379 0.00091316155 -0.009416834
0000a0 f4 66 73 3d b7 25 89 bd 41 f7 b1 3c bd e2 d1 bd
       0.059424356 -0.06696647 0.021724345 -0.10248325
0000b0 a5 e4 a8 bd 28 88 a1 bc 1e d8 a7 bd 4e 20 b3 3d
       -0.082467355 -0.019718245 -0.08195518 0.08746396
0000c0 85 aa 3b bd 06 57 c9 bc ab 35 9c 3d f5 f2 16 3c
       -0.045816917 -0.024577629 0.07627424 0.009213199
0000d0 44 08 a1 3d f8 b0 59 bc ac 27 8b 3c b5 db bf 3c
       0.07862905 -0.013286822 0.01698669 0.023420194
0000e0 fe 54 86 3a 27 49 64 bd c8 6d 1e bb 91 d6 7b bd
       0.0010248718 -0.055733826 -0.0024174321 -0.061483923
0000f0 f6 77 68 bd de 33 18 bd 71 df 9d bd 6b a3 90 b8
       -0.05675503 -0.03715884 -0.07708634 -6.896894e-05
000100 9b 06 ff 3c 2e 8a 73 3d c5 45 58 bd 50 99 29 3c
       0.03113108 0.05945795 -0.052800912 0.010351494
000110 63 ca 20 3d c3 33 c2 bc 81 b3 b0 bd a9 93 82 3d
       0.03925551 -0.023706323 -0.08627988 0.0637582
000120 be 8f a1 3d 3a 2d c0 3c 6b 04 6d 3d 60 a9 48 bd
       0.07888745 0.023459066 0.05786554 -0.048989654
000130 44 32 04 bd 7b 79 86 bd 3c 58 13 3d 6e 76 05 bd
       -0.0322745 -0.06566139 0.03597282 -0.032583646
000140 40 48 a4 3d 15 1b 70 bb 5d 3e 77 bc 9c c5 01 3d
       0.08021593 -0.0036637236 -0.015090552 0.031682596
000150 06 fe 2c 3d c3 2f 04 3d d4 39 8a bb 59 11 ad bd
       0.042234443 0.03227211 -0.0042183194 -0.084505744
000160 1d f8 36 bd 83 13 4d 3d 35 96 22 bd ff 46 27 bd
       -0.044670213 0.050067436 -0.03969403 -0.04083919
000170 b3 a9 26 3d 4c a4 c6 bc ff ac 0c bc 5e ec 46 3d
       0.04068918 -0.024248265 -0.008586167 0.04856526
000180 60 b9 38 3c 74 e5 01 bc 53 2d 8a bc c5 b1 a9 3d
       0.011274666 -0.007928241 -0.016867315 0.0828586
000190 69 26 99 bd ce 8b 6a bd a9 56 90 3d d5 b3 86 3c
       -0.07478029 -0.057262234 0.07047779 0.016443172
0001a0 5b 2b 6c bd d0 44 19 bd 40 99 78 bd f4 b6 1b bd
       -0.057658534 -0.03741914 -0.060693026 -0.038016275
0001b0 cf ab 2f 3d ed 30 7b 3c ad 8e 06 3d d3 cb 61 3d
       0.04288846 0.015331489 0.03285091 0.055126023
0001c0 04 09 a1 3d 13 f1 e3 3c 12 03 44 3c 4d 95 27 bd
       0.07863048 0.027824914 0.011963623 -0.04091387
0001d0 0f b5 a4 3d dc 1e 8f 3c d9 7e 49 bc 06 5e 25 bc
       0.08042347 0.01747077 -0.012298309 -0.010093218
0001e0 25 09 b3 bd 6d 8c 1e bd c2 6d 8e bc f3 5e 18 3d
       -0.087419786 -0.03870814 -0.017386321 0.037199926
0001f0 c1 30 d7 bc dc ec 07 bd 14 fe 87 bd dd 7a 34 3d
       -0.026268365 -0.03318487 -0.066402584 0.044062484
000200 72 6c 7c bd 13 52 3f bd 6b 66 dc bb 57 d3 5b bd
       -0.06162686 -0.04670913 -0.0067260764 -0.053668346
000210 60 ed b4 bb aa 7c ac 3d ae 19 96 bd b0 0b 7e 3d
       -0.0055214614 0.08422215 -0.07329117 0.062022865
000220 71 dd 9c 3d 38 7a 0e bd 37 d8 86 bb 00 5a dc bc
       0.07659424 -0.034784526 -0.0041151303 -0.026898384
000230 39 32 fb bc 38 5b 18 bc 42 c6 5a 3c af 5d 68 3d
       -0.030663596 -0.009299092 0.013352932 0.05672997
000240 54 a9 c6 bc 8a 66 c5 bb ee e0 59 3d 8e 6d 44 bd
       -0.024250664 -0.0060241865 0.053193025 -0.047956042
000250 03 82 c9 3c a7 56 a1 3d 9b da c0 bc e6 6e 19 3d
       0.024598127 0.07877856 -0.02354174 0.037459277
000260 dc db cc 3b b2 f7 49 bd a3 fe ac 3d cd 90 3a bc
       0.006251795 -0.049308486 0.084470056 -0.011387062
000270 09 82 f6 3c 50 76 3f 3d 44 3b 28 3d 25 84 73 3d
       0.030091302 0.04674369 0.041072145 0.059452195
000280 29 cf 13 3d b1 cf 96 3d cb d1 94 3c ac dc 10 bd
       0.036086235 0.07363833 0.018166443 -0.0353667
000290 3b d2 08 3d b9 77 a1 3d b2 50 71 3d 54 50 17 3c
       0.033403616 0.078841634 0.058914848 0.00923546
0002a0 d6 7c 88 bc 8b 54 16 3d 24 fe b5 3d 1f 72 77 3d
       -0.016661089 0.03670172 0.08886364 0.06041157
0002b0 fd ae 3f 3d 60 0f 7a bd ea 09 80 3d 1e a7 f7 3c
       0.04679774 -0.06104982 0.06251891 0.030231055
0002c0 c3 e4 87 bd f1 ca 87 bd ae 1e 05 bd ed 0c 49 bd
       -0.0663543 -0.06630505 -0.03249996 -0.049084593
0002d0 1a 31 35 bd 97 56 9e bd a6 72 77 3c 68 df a9 3c
       -0.04423628 -0.077313595 0.015103018 0.020736411
0002e0 e2 fb 97 3d 0a 01 80 3d c9 59 13 bb cb ad 20 bc
       0.0742109 0.06250198 -0.0022483936 -0.0098070605
0002f0 61 f1 8b bd 37 9c e0 3c 7e 6b b5 bc 85 0e 55 3d
       -0.06833149 0.027418239 -0.022145983 0.0520158
000300 34 3b 0d bd f6 79 87 bd 8a f6 06 3c 5e 66 d8 3b
       -0.03448029 -0.06615059 0.00823749 0.006604
000310 38 fa 8d 3d ea 1f 91 bc 5c bb 24 bd 70 90 b5 3d
       0.06932491 -0.017715413 -0.040217742 0.0886544
000320 e1 0a 59 bc 02 bc 61 3d dc 9f 84 bd f3 0e 5a 3d
       -0.013247223 0.05511094 -0.06475803 0.053236913
000330 52 87 50 bd 41 62 20 bd 3f 15 1e bd 20 a0 6f bd
       -0.0509103 -0.039156202 -0.03859448 -0.058502316
000340 35 6e 7d 3d cc 67 33 bd 27 18 d8 bc 34 c0 e4 bb
       0.06187268 -0.04380016 -0.026378704 -0.00698092
000350 a6 f3 92 3d 65 e2 b3 3d 9a b9 34 3d a8 16 04 3c
       0.071753785 0.08783416 0.044122316 0.008062042
000360 44 79 96 3c b0 13 52 3c 11 13 20 3d 9a 01 56 3d
       0.01836837 0.012822077 0.039080683 0.05224762
000370 d5 3b 69 bd ac 03 f9 3c 46 de 4e bd 25 07 2b bd
       -0.056941826 0.030397259 -0.050504945 -0.04175486
000380 78 40 a5 3d 4e da 88 bc 10 c3 64 bd fb 94 8f bd
       0.08068937 -0.016705658 -0.05585009 -0.07010838
000390 68 c4 a8 3d 52 77 02 bd 4f e5 a8 bd 5e ca e9 39
       0.082405865 -0.031852074 -0.08246862 0.00044591998
0003a0 a3 a4 ed 39 30 54 0c 3c 15 dd 37 bd 97 69 8d 3d
       0.00045326827 0.008564994 -0.044888575 0.06904905
0003b0 4b 9a 82 3d 0a 43 20 bd af 17 a9 3d 29 d7 77 3d
       0.06377085 -0.039126433 0.082564704 0.060507927
0003c0 80 62 83 bd e5 06 8d bd 71 5a aa bd 76 0e b0 3b
       -0.06415272 -0.06886081 -0.083180316 0.0053728176
0003d0 9c 6b 2d 3d b6 09 7b bd 50 e7 ac bd 7f 91 aa 3d
       0.042338952 -0.061288558 -0.08442557 0.083285324
0003e0 81 37 a4 bd cf 8b d3 3c 14 eb 0b bd db 69 b1 bc
       -0.08018399 0.025823502 -0.034159735 -0.021656921
0003f0 9f 4d 90 3d 6e 01 74 3d 2c 01 1a bd 94 12 4d 3d
       0.07046055 0.059571676 -0.037598774 0.050066546

lstm.bias_ih_l1 f4 [512]
000000 a6 07 ae 3d 80 1e ec bc 41 1d 27 3d 64 25 a0 3d
       0.084975526 -0.028823137 0.040799383 0.07819632
000010 5d 1b 27 bd ba f4 3c 3d d2 32 4f 3d 86 c6 49 bd
       -0.04079758 0.046131827 0.050585575 -0.049261592
000020 7e 30 95 3d 43 8a 0e 3d 93 2a a4 3d 4f 21 8d 3d
       0.0728464 0.034799825 0.08015933 0.06891119
000030 bd 63 08 3c e5 91 e1 bc d6 0b 09 bd 74 d1 05 3d
       0.008324561 -0.027535388 -0.033458553 0.032670453
000040 82 40 c0 39 9a 46 57 bd c9 27 b0 bd d2 0d 9c bd
       0.00036669156 -0.052557565 -0.086013384 -0.076198235
000050 09 f4 8b bd ab 5b f1 3c dc 72 29 3d 8a e5 54 3c
       -0.068336554 0.029462656 0.041369304 0.0129941795
000060 7e 8e 7e bc d0 d9 69 bb 17 4b 8e 3d dd b5 c0 bd
       -0.0155369025 -0.0035682805 0.06947916 -0.09409688
000070 09 52 86 3b 4f 3f 7b bd 5f 77 b5 bd 6b e7 90 3d
       0.004099135 -0.061339673 -0.08860659 0.070753895
000080 14 07 33 3c d8 52 a3 3c 75 77 9b bd 14 c4 53 bd
       0.0109269805 0.019936964 -0.07591144 -0.051700667
000090 47 a4 79 bd 4b 03 0d bd c6 04 84 3d 7a 5c 45 bd
       -0.060947683 -0.03442697 0.06446223 -0.048183896
0000a0 7c 09 c5 bc 36 89 b4 bb f9 9d a4 3d 41 b8 21 bd
       -0.024052374 -0.005509521 0.080379434 -0.03948236
0000b0 84 fe 65 3d e4 0a b5 bd bb 86 3b bd de 89 58 3d
       0.05615093 -0.08839968 -0.045782786 0.052865855
0000c0 e3 44 7e 3d b2 4b 87 bc 1b 23 82 bc 3c 2b 39 bd
       0.062077414 -0.016515587 -0.01588588 -0.045207247
0000d0 68 98 43 3d 62 a8 8f 3d 22 42 60 bc e9 5b 86 bc
       0.047752768 0.07014538 -0.013687642 -0.016401248
0000e0 83 2d a6 3d 7b df f1 bc ce 2b 8d bb 84 c1 23 3b
       0.081141494 -0.02952551 -0.0043082004 0.002498717
0000f0 06 09 8b bb e5 56 14 bd d4 aa 78 3d 37 26 19 bd
       -0.004243019 -0.03621568 0.06070979 -0.03738996
000100 47 5f 09 bd 46 5d 80 bd ba 62 96 3d b0 6b 9b bc
       -0.03353813 -0.062677905 0.07343049 -0.018972248
000110 64 93 80 3c f7 3e 80 bc 40 18 6d 3d 80 77 9d 3d
       0.015695281 -0.015655024 0.057884455 0.076888084
000120 d7 6d 42 3c ca ae 65 3c 2c 71 71 3d dd c4 3a bd
       0.011867008 0.014018724 0.05894582 -0.0455979
000130 1d 41 43 bc 4d 55 80 3d 7a f3 33 bd 2e f2 6b bd
       -0.01191738 0.0626627 -0.04393337 -0.057604007
000140 e3 60 d1 bb 2b 9b 2d bd 50 44 8c bc 4e ad 2b bd
       -0.0063897236 -0.042384308 -0.017122418 -0.041913323
000150 b4 74 95 bd b6 d6 00 3b 17 6a 97 bd 4e 18 e0 bb
       -0.0729765 0.0019659228 -0.07393282 -0.006838835
000160 e7 80 6c bd a0 63 ea 3c 2b d8 27 3d 83 0b 96 bd
       -0.05774012 0.028611958 0.04097764 -0.073264144
000170 b4 6d a5 bc 1c 38 68 3d 25 f0 13 3d 67 57 5f bc
       -0.020193912 0.056694135 0.03611769 -0.013631678
000180 04 90 33 3d ba 0a 9c bd ef 63 95 3d fb c4 81 bd
       0.043838516 -0.076192334 0.072944514 -0.06336399
000190 6b 45 94 bd e4 6b 97 ba 1e 08 e5 bc aa 56 b2 3c
       -0.07239803 -0.001155254 -0.027957972 0.02176984
0001a0 38 42 78 3c b9 a8 a5 3c bf 58 b4 bd 46 43 67 3d
       0.0151525065 0.020222055 -0.088059895 0.05646064
0001b0 05 d0 7c 3d 54 6d 3c bd 1f b0 cd 3b a9 d6 48 3d
       0.06172182 -0.0460027 0.006277099 0.04903284
0001c0 15 07 bd 3d 07 6e 6e bd 3f 5e 0d 3d 89 c3 78 bc
       0.092298664 -0.0582104 0.03451371 -0.015183338
0001d0 7d 70 84 bc 22 a9 30 3d cc 99 9c 3d ef c4 6e bd
       -0.01616692 0.043130048 0.07646522 -0.05829328
0001e0 4e f2 a4 bd 45 f7 7b 3d 16 c4 b4 bd a5 fe d3 bc
       -0.080540285 0.06151511 -0.08826463 -0.02587826
0001f0 21 b5 22 3d 9e 93 a9 bd e7 2b cb ba 92 0b 2f 3d
       0.03972352 -0.08280109 -0.0015500755 0.042735644
000200 a8 fd d3 3c bf 7c 20 bd 4b 3b 14 bd b7 eb 46 bc
       0.025877789 -0.039181467 -0.03618936 -0.01214116
000210 1d 61 b4 bd 89 15 36 bc e6 8a ad 3d e3 9f f7 bc
       -0.088075854 -0.011113533 0.084737584 -0.030227607
000220 b9 46 50 3d 22 b1 8f bd e9 e5 5b bd 5b 8c b9 3d
       0.050848696 -0.07016207 -0.053686056 0.09059974
000230 74 54 ec 3c 3f 7c b2 3d a1 66 86 bd df 56 0e bd
       0.028848864 0.08715104 -0.06562544 -0.034750815
000240 36 97 5e 3c a9 12 06 3d 33 c2 bd bc f5 ca aa bd
       0.013585856 0.03273264 -0.02316389 -0.08339492
000250 54 f3 ea 3c 40 f6 b1 ba 4c c9 14 3d 27 4a 0c bd
       0.028680481 -0.0013577417 0.036324784 -0.034250405
000260 5e 82 8f b9 f1 1a 90 bd 0d 89 78 3c 59 e9 7a 3d
       -0.00027372217 -0.07036389 0.015169394 0.061257694
000270 57 fe 44 3d 71 64 c6 bc b2 12 e3 3c 3d c1 ef bc
       0.04809412 -0.024217816 0.027718876 -0.029266948
000280 98 b2 81 bc 54 43 63 bc 20 fe 32 bd de 79 30 bc
       -0.01583223 -0.013871033 -0.043699384 -0.010771243
000290 af 48 a9 3d 5e 7c 1f bd 66 2b cd bc 8f 26 25 bd
       0.082658164 -0.038936965 -0.025045108 -0.040319975
0002a0 20 d6 8f 3d e4 69 5c 3d 2d 0f 91 3c 84 8b 95 3d
       0.07023263 0.053811923 0.017707432 0.07302001
0002b0 02 4b 40 3d 54 e7 ab 3d 12 45 c5 3a f5 2d 2b bd
       0.046946533 0.08393732 0.0015050492 -0.041791875
0002c0 7e 69 11 bd bb 5f 87 bc 54 22 a7 bc be 57 83 bb
       -0.035500996 -0.01652514 -0.020402111 -0.0040082624
0002d0 84 b4 f2 bc ab 2c 27 3d dd 75 90 3d 71 0a 8b bd
       -0.029627092 0.040814083 0.07053731 -0.06789101
0002e0 f2 09 7d 3c b2 26 aa 3d 34 84 85 bd 88 eb 39 bd
       0.015444266 0.08308162 -0.06519356 -0.045390636
0002f0 33 76 9c 3d fb e1 89 3d 62 4f da 3c 28 8f b0 3d
       0.07639732 0.067325555 0.02664918 0.08621055
000300 ad 1c f1 3b 39 c9 a8 3d 51 76 14 bd 57 a3 ba 3d
       0.0073581547 0.08241505 -0.036245648 0.09113186
000310 c6 02 3e bc 80 fd 25 bd 24 70 89 bd 3e f0 8d bd
       -0.011597341 -0.04052496 -0.06710842 -0.06930588
000320 b2 91 18 3d 58 2a 97 bd 9f 41 f1 3b 83 cd d2 bc
       0.03724832 -0.07381123 0.007362559 -0.025732761
000330 01 a3 87 3d 4d 59 df 3c cf 87 db bc 68 6e a7 3d
       0.066228874 0.027264262 -0.026798157 0.08175355
000340 33 4b d6 3c 02 83 e8 bc 5e 41 b6 3d dc c6 e9 3c
       0.026158905 -0.028382782 0.088991866 0.028537206
000350 1a 1a 85 3c d5 98 52 3c f6 93 87 bc 58 fe ca 3c
       0.016247798 0.012853821 -0.016550045 0.024779484
000360 5f fc 7f bc d0 37 99 bc de 37 7b 3d d0 aa 23 3d
       -0.015624135 -0.018703371 0.061332576 0.03995782
000370 11 96 6c 3d ec b0 8c 39 49 63 94 bd 6f 0a 06 3d
       0.057760302 0.00026834698 -0.072455 0.032724794
000380 27 17 f7 bc 60 41 16 3d 0a 88 0c 3d 2a 41 20 3d
       -0.030162407 0.03668344 0.034309424 0.039124645
000390 3b ed 62 3d 11 c9 88 bd f6 12 bb bc fd a5 25 bc
       0.05540202 -0.066789754 -0.02283619 -0.0101103755
0003a0 fe e3 58 bd d8 33 97 bd a1 a4 04 3d 35 2d ee bc
       -0.052951805 -0.07382935 0.032383565 -0.02907429
0003b0 18 57 47 bd 7e 31 6c 3d f8 7d 25 bd 9e 38 9b bd
       -0.048667043 0.057664387 -0.040403336 -0.07579158
0003c0 27 ac 0b bb 66 16 02 bc 10 7a a7 3d 78 75 57 3d
       -0.0021312328 -0.0079399105 0.081775784 0.05260226
0003d0 18 4a a9 bd 5e 74 36 bd ae ce f3 3b a7 08 ae bc
       -0.082660854 -0.04454457 0.0074404096 -0.02124436
0003e0 7e 37 ee bc 0f 73 98 3d c8 16 94 bd f2 ed 9a bd
       -0.029079195 0.07443821 -0.07230908 -0.07564916
0003f0 fb 24 0d bd d6 15 95 3d e3 f5 9b 3d be d5 0c 3c
       -0.034459095 0.072795555 0.076152585 0.008595882
