models/lstm_attn_v1_3class_h5_events.pt (torch, 966686 bytes, 17 tensors)

lstm.weight_ih_l0 f4 [512, 32]
0	0x3d52f386	0.051501773
1	0x3dc53faf	0.09631287
2	0x3d942cd6	0.07235114
3	0xbe4f0139	-0.2021531
4	0x3e1254fa	0.14290228
5	0xbe45f3a0	-0.19331217
6	0xbe06e4b6	-0.13173184
7	0x3d5b632c	0.053561375
8	0x3c39dd70	0.011344299
9	0x3d29f8ee	0.041497163
10	0x3de989c8	0.11403233
11	0x3c8d7f88	0.017272726
12	0xbd97ca23	-0.074116014
13	0x3b035ad1	0.0020043144
14	0x3d9febf1	0.07808674
15	0xbd5828ea	-0.052773394
16	0xbcec0bfa	-0.028814305
17	0x3d9e8335	0.077398695
18	0xbd508084	-0.050903812
19	0x3db19225	0.08670453
20	0xbc1e2744	-0.009652916
21	0x3d3fcc0a	0.046825446
22	0x3d05bdec	0.032651827
23	0xbd9c849a	-0.07642479
24	0x3d1dc132	0.038514324
25	0xbd446235	-0.04794522
26	0x3c065754	0.008199532
27	0x3d7ff345	0.06248786
28	0x3c91b0a8	0.017784432
29	0x3cc6e538	0.024279222
30	0x3cb19478	0.02167724
31	0xbd8b84ac	-0.068124145
32	0xbe1bd533	-0.15218048
33	0xbda027c3	-0.07820084
34	0xbd9e1eb7	-0.07720702
35	0xbde3206e	-0.1109017
36	0xbe644e04	-0.22295386
37	0xbd2c59a3	-0.04207767
38	0xbcc356e3	-0.023845142
39	0xbe374367	-0.17896806
40	0xbe53a3a1	-0.20667888
41	0x3d6d90d1	0.057999436
42	0xbc45e60e	-0.012078775
43	0xbe4e011b	-0.20117609
44	0x3da7ec05	0.08199314
45	0x3d2cb203	0.042161953
46	0x3d67e466	0.056614302
47	0xbda768ec	-0.08174309
48	0x3d31e9ba	0.04343579
49	0x3d4960ea	0.04916469
50	0xbd3aeca2	-0.045635827
51	0xbc5bd934	-0.0134184845
52	0xbd680013	-0.056640696
53	0xbd03ed00	-0.032208443
54	0x3d82ddb9	0.063899465
55	0xbd8a83f8	-0.06763452
56	0xbd964076	-0.07336514
57	0x3d6181ce	0.055055432
58	0xbd869026	-0.06570463
59	0xbda03a8e	-0.078236684
60	0xbc3af61c	-0.011411216
61	0x3d39f2ba	0.045397498
62	0x3bf7a88c	0.007557934
63	0xbd88d323	-0.06680896
64	0xb96529e6	-0.0002185475
65	0xbc2659e0	-0.010153264
66	0x3d2191fa	0.039445855
67	0xbe6125f0	-0.21987128
68	0xbe0dd5ee	-0.13851139
69	0x3e1fb0ea	0.15594831
70	0x3dae7fa2	0.08520438
71	0x3cd1a6aa	0.025592167
72	0x3ca14d10	0.019690067
73	0xbdaf260b	-0.08552178
74	0x3c253f48	0.010085888
75	0x3b3416af	0.002747934
76	0xbdd44571	-0.103648074
77	0xbdd985e8	-0.10621244
78	0xbd93be56	-0.07214038
79	0x3c2d678c	0.0105837695
80	0x3d806305	0.062688865
81	0x3d39915e	0.04530465
82	0xbd09b4a7	-0.03361955
83	0xbc842314	-0.016130008
84	0x3d0cd44a	0.034382142
85	0xbd372114	-0.04470928
86	0xbd849468	-0.06473619
87	0xbcddcee2	-0.027076188
88	0x3c61bfcc	0.013778638
89	0x3d9c8d51	0.076441415
90	0x3d0e8112	0.03479106
91	0x3d51873a	0.051154353
92	0x3d13044a	0.035892762
93	0xbd9b80d3	-0.07592931
94	0x3d91b4bb	0.0711455
95	0xbb8b6cec	-0.004254928
96	0x3d7f2774	0.062293485
97	0xbd0fb354	-0.03508313
98	0x3e07a9ed	0.13248415
99	0xbe762532	-0.24037626
100	0xbea26404	-0.3171693
101	0x3ea7962d	0.32731763
102	0x3ec51add	0.38497058
103	0x3ce9595b	0.02848499
104	0xbba5763f	-0.0050494964
105	0xbd14360d	-0.03618436
106	0xbc388716	-0.011262676
107	0x3dc78980	0.09743023
108	0x3e5ed0e9	0.2175938
109	0x3d896d4c	0.067103
110	0x3c9dc99c	0.019261174
111	0xbc744214	-0.014908332
112	0x3d469c2a	0.048488773
113	0x3cbdbd94	0.023161687
114	0xbb7be0dc	-0.0038433587
115	0x3d5bc7da	0.05365739
116	0x3cc6c9ec	0.024266206
117	0x3d81f297	0.063450985
118	0xbd0b8ac2	-0.034067877
119	0xbd0213ec	-0.03175728
120	0x3cb31524	0.021860667
121	0x3d498492	0.049198695
122	0xbd365aa8	-0.04452005
123	0x3bf8e2cc	0.0075953957
124	0x3d68dfc2	0.056854017
125	0xbd4b74ef	-0.049672063
126	0x3a2c9f3c	0.0006585007
127	0x3d41d8ba	0.047325827
128	0x3e2d2ee6	0.16912422
129	0x3e6858fe	0.22690198
130	0xbd6bed53	-0.057599377
131	0x3e274e59	0.16338481
132	0xbd0f5280	-0.034990788
133	0x3e666b3b	0.22501843
134	0x3e9077ed	0.28216496
135	0x3d9f0415	0.077644505
136	0x3cdac234	0.026703931
137	0x3e017ab4	0.12644464
138	0x3e1f1ddb	0.15538733
139	0x3dc75c01	0.09734345
140	0x3e32172a	0.17391649
141	0x3dcb7e32	0.09936179
142	0x3d0d5118	0.034501165
143	0xbccfb184	-0.0253532
144	0xbdae090d	-0.0849782
145	0xbd4cbab3	-0.049982738
146	0xbbb5877c	-0.0055398326
147	0x3da448cd	0.08021698
148	0xbc38f194	-0.011288065
149	0x3dac2ad5	0.08406607
150	0xbdb23450	-0.08701384
151	0x3d8f17bd	0.069869496
152	0xbd80aa85	-0.06282524
153	0x3c27cc84	0.010241631
154	0x3c8ae144	0.016953118
155	0xbc6d2164	-0.014473293
156	0x3d2082c6	0.039187215
157	0xbc47a0c4	-0.012184326
158	0xbcb727e0	-0.022357881
159	0xbd1897cb	-0.037254136
160	0x3d78a77e	0.060706608
161	0xbd84307b	-0.064545594
162	0xbd8677f7	-0.0656585
163	0xbe471dd2	-0.1944497
164	0x3c2a54a3	0.0103961555
165	0xbd0d1cc5	-0.034451265
166	0x3d4fc899	0.050728414
167	0xbc64f81c	-0.0139751695
168	0xbd89fb53	-0.067373894
169	0xbdae761e	-0.08518623
170	0xbd4b2f52	-0.049605675
171	0x3b4fe5c0	0.0031722635
172	0x3d82f78a	0.063948706
173	0x3e0eb915	0.1393779
174	0x3cd9df3c	0.026595704
175	0xbdb36985	-0.08760361
176	0x3d8a1a27	0.067432694
177	0x3daf5d5f	0.08562731
178	0xbcb498fc	-0.022045605
179	0x3c37d9b4	0.011221338
180	0xbd4c3415	-0.049854357
181	0xbd2a4955	-0.04157384
182	0x3cb16dbc	0.02165877
183	0x3d51ecde	0.051251285
184	0x3da9af2b	0.08285364
185	0x3daf95d7	0.085735016
186	0x3ba11d5c	0.00491683
187	0x3cc664e4	0.02421803
188	0x3d95a20b	0.07306298
189	0xbd48f0d9	-0.049057815
190	0xba9dbc7c	-0.0012034322
191	0xbdab6e1e	-0.083706126
192	0xbdb86736	-0.09004061
193	0x3b9ec7d7	0.0048456
194	0xbe4df5ad	-0.20113249
195	0x3bf51bf6	0.00748014
196	0x3e9c595b	0.30536923
197	0x3e1425e8	0.14467585
198	0x3e689192	0.2271178
199	0x3ccaf3a2	0.024774376
200	0xbe039891	-0.12851168
201	0x3e31ba66	0.17356262
202	0xbe5e10d3	-0.21686105
203	0xbde410d2	-0.11136021
204	0x3c28726a	0.010281185
205	0xbb0897ca	-0.0020842426
206	0x3d1c7bee	0.038204126
207	0xbd4aedd2	-0.04954321
208	0xbc0647fc	-0.008195873
209	0xbc1a20bc	-0.009407219
210	0xbd75428a	-0.05987791
211	0xbd4fd48f	-0.05073982
212	0xbda8a2c5	-0.08234171
213	0xbdb3dabd	-0.087819554
214	0xbd7ffb7d	-0.062495697
215	0x3ceba6c0	0.028766036
216	0x3b1a98bc	0.0023589572
217	0x3d35111e	0.044205777
218	0xbd88e021	-0.06683374
219	0xbc98f21c	-0.018670134
220	0x3b1d631c	0.0024015373
221	0xbd73cd98	-0.05952224
222	0x3d34a99a	0.044107057
223	0xbc5eb57c	-0.013593074
224	0x3d69c94b	0.057076734
225	0x3cfe98a6	0.031078648
226	0xbdbd5988	-0.09245592
227	0x3e065154	0.13116962
228	0x3c82a2a8	0.015946701
229	0xbc9cc70d	-0.019137884
230	0x3d9cd3d8	0.076575935
231	0xbdc67767	-0.09690743
232	0xbddf2873	-0.10896387
233	0x3d9ae516	0.07563226
234	0xbd044a61	-0.032297496
235	0xbe0250dc	-0.12726158
236	0xbd7a5239	-0.06111357
237	0xbd602d9b	-0.054730993
238	0x3c53250c	0.012887251
239	0xbc07e7ec	-0.008295041
240	0xbdb37168	-0.08761865
241	0x3d60b7a6	0.05486264
242	0x3d6f2a1a	0.05838976
243	0xbce1bcda	-0.027555872
244	0x3d7afb76	0.061274968
245	0x3da922df	0.08258604
246	0x3da7c24d	0.08191357
247	0x3c0d2a4c	0.008616041
248	0x3d25f36e	0.040515356
249	0xbc4de974	-0.012567867
250	0x3ca48fec	0.020088159
251	0xbd0bc50f	-0.034123477
252	0xbdab9c28	-0.08379394
253	0xbd082783	-0.033240806
254	0x3d8998d7	0.06718605
255	0x3d9dfda5	0.077143945

lstm.weight_hh_l0 f4 [512, 128]
0	0x3e117ec1	0.14208509
1	0xbd06fea3	-0.032957684
2	0x3ddbad21	0.10726381
3	0x3b4ed788	0.0031561572
4	0xbdd8ccb0	-0.10585916
5	0xbe00ed38	-0.12590492
6	0x3d8d4edc	0.06899807
7	0xbe46f623	-0.19429831
8	0xbd3dd12a	-0.046342053
9	0x3dbf29e7	0.09334164
10	0x3ea0b652	0.313891
11	0x3de7bdcb	0.11315497
12	0xbdabf216	-0.083957836
13	0xb9206c1a	-0.0001529906
14	0x3e2336fd	0.15938945
15	0xbdc2abf4	-0.09505454
16	0x3ddce704	0.1078625
17	0xbd5ca91e	-0.05387222
18	0xbc91bc87	-0.017790092
19	0xbdfc0e8d	-0.12307463
20	0x3cf34f02	0.02970076
21	0x3c385ab9	0.011252099
22	0x3d43c6e2	0.04779709
23	0xbe072cf4	-0.13200742
24	0xbd177fc0	-0.036987066
25	0xbce40b1c	-0.027837329
26	0xbe0b0de8	-0.13579524
27	0x3dbaa05d	0.09112618
28	0x3c68d5d0	0.014211133
29	0xbe0be430	-0.13661265
30	0xbe841ab1	-0.25801614
31	0xbe22b449	-0.15889086
32	0xba0e11bd	-0.00054195133
33	0xbde48532	-0.111582175
34	0xbe6950a1	-0.22784664
35	0xbe2db33c	-0.16962904
36	0x3e3ac12f	0.18237756
37	0x3d77dabd	0.06051134
38	0xbddb2f94	-0.10702434
39	0x3d37245e	0.044712417
40	0x3d2d5e64	0.042326346
41	0xbcc082e0	-0.023499906
42	0x3cff1bc0	0.031141162
43	0x3d8f8c5c	0.07009193
44	0x3cbec634	0.02328787
45	0xbd990f9c	-0.074736804
46	0x3de19fc2	0.110167995
47	0x3d7964ad	0.060887028
48	0x3ce4c76b	0.027927121
49	0xbdabf588	-0.08396441
50	0xbba4c626	-0.005028504
51	0xbcf94641	-0.030429007
52	0x3dc69fd4	0.096984535
53	0x3decf071	0.11569298
54	0x3e392c00	0.18083191
55	0xbe38eeaf	-0.180598
56	0x3d2dc6cb	0.042425912
57	0x3e473b74	0.19456273
58	0xbd7e8ab8	-0.06214401
59	0x3d46bfd5	0.04852279
60	0xbd072145	-0.032990713
61	0xbe0b94e5	-0.13631018
62	0xbdd8e8a8	-0.10591251
63	0xbe57c9e6	-0.21073112
64	0xbcd069af	-0.025441019
65	0xbd6b29f6	-0.057413064
66	0x3d9c7ed3	0.07641377
67	0xbe2f16b9	-0.17098512
68	0xbc8e3b43	-0.017362243
69	0x3d68db34	0.056849673
70	0x3e254245	0.16138561
71	0xbcc56f3c	-0.024100892
72	0x3cc14e56	0.023596924
73	0x3e12c6cc	0.14333647
74	0x3e90dc9b	0.2829331
75	0x3e6daa20	0.23209429
76	0x3e2ac426	0.16676387
77	0xbe0a8c54	-0.13530093
78	0x3e12b3ba	0.14326373
79	0x3d07a7fe	0.033119194
80	0x3d2e91d6	0.04261955
81	0x3d4f1b48	0.050563127
82	0xba2762e8	-0.00063852826
83	0xbda24f9d	-0.07925341
84	0x3df82a95	0.12117497
85	0x3dfc2918	0.123125255
86	0xbd810390	-0.062995076
87	0xbe352d2a	-0.1769301
88	0x3e262844	0.16226298
89	0xbe71d36b	-0.23615806
90	0xbd768810	-0.060188353
91	0x3d91a8a2	0.07112242
92	0x3e157d33	0.14598541
93	0x3d8e860d	0.06959162
94	0xbe1d2777	-0.15347086
95	0x3dd9cd40	0.106348515
96	0x3d53c0f4	0.051697686
97	0x3e78f62d	0.24312659
98	0xbd162577	-0.036656823
99	0xbe5d6b31	-0.21622922
100	0xbdc31d44	-0.09527066
101	0xbd834bb2	-0.06410922
102	0xbd9a874d	-0.07545338
103	0x3da64c36	0.08120005
104	0x3d964ee3	0.07339265
105	0xbd966ba7	-0.07344752
106	0xbe5740c2	-0.21020797
107	0xbc7ea985	-0.015543346
108	0xbd5001e3	-0.05078305
109	0xbe0e30dc	-0.13885826
110	0xbd89ebd7	-0.06734436
111	0x3d3ea43b	0.04654334
112	0x3db06998	0.086138904
113	0xbd0d429c	-0.03448735
114	0xbe039011	-0.12847926
115	0x3e05f808	0.13082898
116	0x3e07629e	0.13221213
117	0x3e89fbd7	0.2694995
118	0x3d3f74e9	0.046742354
119	0x3c99de61	0.018782796
120	0x3dc1d9dd	0.09465382
121	0xbd382530	-0.04495734
122	0x3d8fe350	0.07025778
123	0x3dc971e9	0.0983618
124	0x3d837397	0.064185314
125	0xbcf5638c	-0.029954694
126	0xbdf002d4	-0.117192894
127	0x3e1e1299	0.15436782
128	0xbd61a49b	-0.05508862
129	0x3e02283d	0.12710662
130	0x3c8ab373	0.016931271
131	0xbe3c1cab	-0.18370311
132	0x3de98a29	0.11403305
133	0xbe1c8b2b	-0.15287463
134	0x3d03e17e	0.032197468
135	0x3dee10ba	0.11624284
136	0x3cd6c144	0.026215203
137	0x3de006e1	0.10938812
138	0x3cc12ff5	0.023582438
139	0x3e5f1b89	0.21787848
140	0x3d50fe25	0.05102362
141	0x3cd21e28	0.025649145
142	0x3d73e959	0.05954871
143	0x3e2c5008	0.16827404
144	0x3d4dd6f3	0.05025382
145	0xbe39b803	-0.18136601
146	0x3e09703a	0.13421717
147	0xbc443094	-0.011974473
148	0x3c72cb1e	0.014818935
149	0xbd1c9c69	-0.0382351
150	0xbe4f8adc	-0.20267814
151	0xbdcbfb5b	-0.099600516
152	0xbc87d8c3	-0.016582852
153	0x3d975bd6	0.07390563
154	0x3c76ff8d	0.0150755765
155	0xbdaac203	-0.08337786
156	0xbe0d300c	-0.1378786
157	0x3d717bf8	0.058956116
158	0xbe757606	-0.23970804
159	0xbd13a65c	-0.036047325
160	0xbe2c1175	-0.16803534
161	0x3e5e6037	0.2171639
162	0xbce10f67	-0.027473165
163	0x3ce286b6	0.027652126
164	0x3dc0b533	0.09409561
165	0xbe6b8998	-0.23001707
166	0xbe11615a	-0.14197293
167	0xbe020641	-0.12697698
168	0x3d2df248	0.042467386
169	0x3d47453d	0.048650015
170	0x3e195891	0.14975192
171	0xbd0219c0	-0.03176284
172	0x3e275157	0.16339622
173	0xbdbc914e	-0.09207402
174	0x3d101464	0.035175696
175	0xbd4a1964	-0.04934062
176	0xbb2f3763	-0.0026735894
177	0xbdd02158	-0.1016261
178	0x3d689970	0.056786954
179	0xbe0b00e0	-0.13574553
180	0x3d9a16ac	0.075238556
181	0xbdb54d7d	-0.0885267
182	0x3e1c6f14	0.15276748
183	0xbd0ae3d6	-0.033908688
184	0x3e660344	0.22462183
185	0x3d016a6f	0.031595644
186	0xbd5983ab	-0.053104084
187	0xbd37248c	-0.04471259
188	0x3d460dd6	0.04835304
189	0x3dc92191	0.098208554
190	0x3ddda36d	0.108221866
191	0xbc96de00	-0.018416405
192	0xbc34d3ea	-0.011036852
193	0x3dea0df5	0.11428443
194	0xbe699df0	-0.22814155
195	0x3d050132	0.032471843
196	0x3afe3647	0.0019394838
197	0xbcad02d6	-0.021119516
198	0xbd224374	-0.03961511
199	0x3d69a508	0.05704215
200	0xbdf44574	-0.1192731
201	0xbb277619	-0.002555257
202	0x3e03956c	0.12849969
203	0x3cb30a9f	0.02185565
204	0x3dfcbde4	0.12340906
205	0xbe0a3ecb	-0.13500516
206	0x3e357aa7	0.1772257
207	0xbdef30da	-0.116792396
208	0x3a44aaa5	0.00075022347
209	0xbcc03c46	-0.02346624
210	0x3daacbd2	0.08339657
211	0xbd8032aa	-0.062596634
212	0xbe13564e	-0.14388391
213	0x3dc95eba	0.09832521
214	0x3d289794	0.04116018
215	0x3d5a9bb0	0.05337113
216	0x3db77f40	0.08959818
217	0xbe5b0bc0	-0.21391201
218	0xbe8863b0	-0.26638556
219	0xbe009b4d	-0.12559243
220	0xbde5de8f	-0.1122409
221	0xbd8571e1	-0.06515861
222	0xbd46c55e	-0.048528068
223	0x3e502d16	0.20329699
224	0x3dbe08fe	0.09279059
225	0x3db2686e	0.08711325
226	0xbe2ecf62	-0.17071298
227	0xbe2fb079	-0.17157163
228	0x3d0e208f	0.03469902
229	0xbd203594	-0.039113596
230	0xbe115791	-0.1419356
231	0x3e1790d4	0.14801341
232	0xbc22cb59	-0.009936177
233	0x3e623bd8	0.22093141
234	0x3da04b01	0.07826806
235	0x3d0125ab	0.031530064
236	0x3de7b327	0.113134675
237	0x3e0e1178	0.13873851
238	0x3e58966c	0.21151131
239	0x3d82cbd7	0.063865356
240	0x3d9cfcfc	0.076654404
241	0x3d00dc33	0.03146
242	0x3ca05d11	0.019575628
243	0x3da3e388	0.080023825
244	0x3e0abb0a	0.13547912
245	0xbdce205d	-0.100647666
246	0xbcd5296f	-0.026020734
247	0x3d68ae43	0.056806814
248	0x3dc3ce73	0.095608614
249	0x3cc181f3	0.023621535
250	0x3ceb10f3	0.028694605
251	0x3c5f8226	0.01364187
252	0xbe0928a9	-0.13394417
253	0xbd52b8a7	-0.05144563
254	0x3d9227e7	0.07136517
255	0x3d1a0586	0.037602924

lstm.bias_ih_l0 f4 [512]
0	0x3e185df6	0.14879593
1	0xbd90bebc	-0.0706763
2	0xbda25b5d	-0.079275824
3	0xbda9ada0	-0.082850695
4	0xbd29e46b	-0.041477602
5	0xbcacbb1d	-0.021085316
6	0xbdbcd1a6	-0.09219675
7	0xbd9a46d5	-0.075330414
8	0xbdf39165	-0.11892966
9	0xbcbc52c0	-0.022988677
10	0xbbef6b05	-0.007306459
11	0xbdd3d9a7	-0.10344248
12	0xbcb1531f	-0.02164608
13	0xbd47d02c	-0.048782513
14	0xbc4f89ed	-0.012667161
15	0x3addd7fa	0.0016925328
16	0xbd706995	-0.05869444
17	0xbdec43bf	-0.11536359
18	0xbdac682f	-0.08418309
19	0xbce28f42	-0.027656201
20	0x3ca5d210	0.020241767
21	0xbc724335	-0.014786531
22	0xbc8f356d	-0.01748153
23	0xbc79d49e	-0.015248446
24	0xbce10a4a	-0.027470727
25	0xbc2a7db9	-0.010405951
26	0xbe51a30f	-0.20472358
27	0xbda44417	-0.080207996
28	0x3d63c4e2	0.055607684
29	0xbda7cd91	-0.081935056
30	0x3b4cba43	0.003123895
31	0x3dc436d8	0.09580773
32	0xbd65da15	-0.056116182
33	0x3cc93023	0.024559086
34	0xbdcacaf3	-0.09901991
35	0xbd2b5412	-0.041828223
36	0xbcb7d55b	-0.022440603
37	0xbce0b892	-0.02743176
38	0xbe133cec	-0.14378709
39	0xbdedbd24	-0.11608341
40	0x3c446d68	0.011988975
41	0x3d967f54	0.07348505
42	0xbdfa5436	-0.12223093
43	0xbe2ff369	-0.17182697
44	0xbcef2440	-0.02919209
45	0x3e1f9842	0.15585425
46	0xbdb4799c	-0.08812258
47	0x3d03beb8	0.032164305
48	0xbdcaf7d3	-0.0991055
49	0xbb6fe70c	-0.003660622
50	0xbd300ee8	-0.042982966
51	0xbda579ac	-0.08079848
52	0xbd855ad7	-0.06511467
53	0xbe30e236	-0.17273793
54	0xbe16933b	-0.14704601
55	0x3dc93a4b	0.098255716
56	0x3ac0c670	0.0014707576
57	0x3d41c07c	0.047302708
58	0x3d7bbf81	0.06146193
59	0xbd97583a	-0.07389875
60	0x3d87da21	0.06633402
61	0xbd935d4d	-0.0719553
62	0xbc4e7770	-0.012601718
63	0xbd546129	-0.05185047
64	0xbd4284e5	-0.04749002
65	0x3db4cbb2	0.08827914
66	0xbe083e79	-0.13305081
67	0x3deee169	0.11664087
68	0xbe11e245	-0.14246471
69	0xbd7ad60b	-0.061239284
70	0x3d482b69	0.048869524
71	0xbe2d786e	-0.16940472
72	0xbdbf3f85	-0.09338287
73	0x3d2a9065	0.04164161
74	0x3d3b2b5d	0.04569565
75	0x3cbd3e2f	0.02310094
76	0xbe03c76f	-0.12869047
77	0xbcdbae46	-0.026816498
78	0x3ad47c82	0.0016211423
79	0xbd512505	-0.051060695
80	0xbc232438	-0.009957366
81	0x3d416c64	0.04722251
82	0x3d173cc3	0.03692318
83	0x3e5ba959	0.2145132
84	0xbd9bc891	-0.076066144
85	0x3d0a9e92	0.03384263
86	0xbd70fa40	-0.058832407
87	0x3a8987aa	0.0010492702
88	0xbd9933e5	-0.07480601
89	0x3c73d79e	0.01488295
90	0x3ae7f2a2	0.0017696212
91	0x3d657512	0.05601985
92	0xbda471c5	-0.08029512
93	0xbd9ca39f	-0.07648396
94	0xbdc369db	-0.09541675
95	0x3d175e28	0.03695503
96	0xbe2a1ee9	-0.16613354
97	0xbcb172a6	-0.021661114
98	0xbc5ba4ae	-0.013405962
99	0xbc74d011	-0.014942185
100	0xbd842119	-0.064516254
101	0xbcca0935	-0.024662593
102	0xbc6b3a42	-0.014357151
103	0xbba91128	-0.005159516
104	0xbd67c538	-0.056584567
105	0xbce2b119	-0.027672337
106	0xbe1886ee	-0.14895222
107	0x3c89eb1d	0.016835744
108	0xbda7b188	-0.08188158
109	0x3c88cca1	0.016699137
110	0xbd3d6260	-0.046236396
111	0x3e05a241	0.13050176
112	0x3cd7de93	0.026351249
113	0xbd498ff2	-0.049209543
114	0x3d7d79e4	0.061883822
115	0xbdaa8e37	-0.083279066
116	0xbc9939d3	-0.01870433
117	0x3d0f2148	0.03494385
118	0xbbcf596f	-0.0063278
119	0x3d25a622	0.04044164
120	0xbd8034f8	-0.06260103
121	0xbdd51482	-0.10404302
122	0xbdb06192	-0.0861236
123	0x3d329b16	0.043604933
124	0xbdf37190	-0.11886895
125	0xbdb49dc3	-0.08819153
126	0x3ac4f989	0.001502798
127	0x3c18ea2e	0.009333177
128	0xbda64045	-0.08117727
129	0x3d3ae242	0.045625933
130	0xbd89e63d	-0.067333676
131	0xbc626bcc	-0.013819646
132	0xbdc5e992	-0.096636906
133	0xbddf3293	-0.10898318
134	0xbcf0603e	-0.029342767
135	0x3b6e0b3f	0.003632262
136	0xbd9a1101	-0.075227745
137	0x3c8cf4ee	0.017206635
138	0x3d0741c6	0.03302171
139	0xbd0f10e4	-0.034928218
140	0x3bd49dd7	0.0064885425
141	0xbd6c2a4f	-0.057657536
142	0xbd4bdb7a	-0.049769856
143	0x3c604237	0.013687662
144	0xbd7e079a	-0.06201897
145	0xbcf509a3	-0.029911822
146	0xbe18f5f7	-0.14937578
147	0x3c9c92a6	0.019112896
148	0x3d61f77c	0.05516766
149	0xbd9805c6	-0.07422976
150	0xbdf8d601	-0.12150193
151	0xbb4ea716	-0.0031532696
152	0xbd91e20b	-0.071231924
153	0x3e089c74	0.13340932
154	0x3d181de8	0.037137896
155	0x3c2fe259	0.010735118
156	0xbde7de29	-0.113216706
157	0xbc902770	-0.01759693
158	0xbde1cf5b	-0.11025878
159	0x3c74ae6e	0.014934165
160	0xbda671de	-0.08127187
161	0x3c42128b	0.011845241
162	0x3c9ab81a	0.018886615
163	0xbe13dd31	-0.14439847
164	0xbd13118a	-0.0359054
165	0xbdb27988	-0.087145865
166	0x3d7d784c	0.061882302
167	0xbc1f2ee5	-0.00971577
168	0x3d530b0d	0.05152421
169	0xbdff3c64	-0.124626905
170	0xbb43925c	-0.0029841876
171	0xbc1e4aa0	-0.009661347
172	0xbd7f04ca	-0.062260427
173	0xba0538ff	-0.00050820404
174	0xbd5f49fb	-0.054513913
175	0x3bbd316c	0.005773714
176	0xbdea5c94	-0.11443439
177	0xbda5701a	-0.08078022
178	0xbd76aa47	-0.060220983
179	0xbdc6ec9e	-0.097131
180	0x3e2a9133	0.16656952
181	0x3c6db530	0.0145085305
182	0x3d809a5a	0.0627944
183	0x3c880663	0.016604608
184	0xbd82f653	-0.06394639
185	0xbdb6e5f7	-0.08930581
186	0x3d40f42a	0.047107853
187	0xbb091b11	-0.0020920674
188	0x3cd4d38d	0.025979782
189	0xbe1e65a3	-0.15468459
190	0xbd8bd2b1	-0.068272956
191	0xbe3d8ae7	-0.18510018
192	0x3e0547e0	0.130157
193	0xbd5dec03	-0.054180156
194	0xbcd8396e	-0.026394572
195	0x3d65ecb3	0.056133937
196	0xbdaa2ecb	-0.08309706
197	0xbdb13906	-0.086534545
198	0x3d8e73aa	0.06955655
199	0x3c7b7a8a	0.01534904
200	0xbc5bc18e	-0.013412846
201	0x3ca0bf91	0.019622596
202	0xbd4e9887	-0.05043843
203	0xbd921c28	-0.07134277
204	0xbda3b1fd	-0.07992933
205	0x3d8c73ad	0.06858001
206	0xbd904e20	-0.07046151
207	0xbd2b5cb6	-0.041836463
208	0x3d9cf1dd	0.07663319
209	0xbda33e2d	-0.079708435
210	0x3dbbf1d7	0.09176987
211	0xbb2a15bc	-0.0025952896
212	0xbdb40f23	-0.087919496
213	0x3db9a568	0.09064752
214	0xbe016473	-0.12635975
215	0x3cc064a2	0.023485485
216	0x3cf3b7d8	0.02975075
217	0xbc520740	-0.012819111
218	0xbba92964	-0.005162405
219	0xbb1a7c57	-0.0023572647
220	0xbb214cb5	-0.0024612371
221	0xbe00aa09	-0.12564863
222	0x3c1276c2	0.008939447
223	0x3e0dd5fb	0.13851158
224	0x3d8e9525	0.06962041
225	0x3ca22a90	0.019795686
226	0xbda50ee2	-0.08059479
227	0xbde72c8f	-0.11287796
228	0xbe26c4b2	-0.16285971
229	0xbd551967	-0.05202618
230	0x3dbb46fb	0.09144398
231	0xbd1f50b1	-0.038895313
232	0xbbe921bc	-0.007114617
233	0xbdbb8814	-0.09156814
234	0xbd9f7db5	-0.077876486
235	0x3cceabb8	0.025228366
236	0xbdccbd3e	-0.099970326
237	0xbbccf0b0	-0.006254278
238	0x3d11e71b	0.03562079
239	0xbdee3e11	-0.11632932
240	0xbdb57d66	-0.088618085
241	0x3d27ee94	0.04099901
242	0xbd8e6e8b	-0.06954678
243	0xbe19ace3	-0.15007357
244	0xbd1701cb	-0.036866944
245	0xbd546406	-0.051853202
246	0xbdab3d55	-0.083613075
247	0x3a061d41	0.00051160535
248	0xbd50bca9	-0.05096117
249	0xbe20d288	-0.15705311
250	0xbdf37b29	-0.11888725
251	0xbe321396	-0.17390284
252	0xbdf92310	-0.12164891
253	0xbd79b205	-0.06096079
254	0xbd8a963c	-0.06766936
255	0xbc632568	-0.013863899

lstm.bias_hh_l0 f4 [512]
0	0x3cca6ea1	0.024710955
1	0xbc7ac79b	-0.015306379
2	0xbdca6add	-0.09883664
3	0xbcaf4fa7	-0.021400286
4	0xbdb2984a	-0.08720453
5	0xbe09ad93	-0.1344512
6	0xbd3fd213	-0.0468312
7	0xbe0982cc	-0.13428801
8	0x3c2ca1fe	0.010536669
9	0xbc82040a	-0.015871067
10	0xbc471ed8	-0.01215335
11	0xbd079243	-0.03309847
12	0xbcef69d9	-0.029225277
13	0xbca5337a	-0.020166148
14	0xbdf0857a	-0.11744209
15	0xbe10b15f	-0.14130162
16	0xbdde83d4	-0.10864988
17	0xbca9041e	-0.020631846
18	0xbd9a08a6	-0.07521181
19	0x3d894f61	0.067045934
20	0x3d253ec7	0.040343072
21	0xbd98f82d	-0.07469211
22	0xbd967b83	-0.07347777
23	0xbd02ddd3	-0.03194983
24	0x3c390c5a	0.011294449
25	0xbd9d572c	-0.07682642
26	0xbe472da3	-0.19451003
27	0xbd8d4a63	-0.06898954
28	0x3d4d8c45	0.0501826
29	0xbcfedbcd	-0.031110669
30	0xbd010e77	-0.031507935
31	0xbd0a99e0	-0.033838153
32	0xbd279726	-0.04091563
33	0xbdc34566	-0.09534721
34	0xbd4db779	-0.0502238
35	0xbd21b830	-0.039482296
36	0xbc21a88a	-0.009866843
37	0xbcfa4701	-0.030551435
38	0xbcb080eb	-0.021545848
39	0xbd84b9de	-0.06480764
40	0xbc9acab2	-0.01889548
41	0x3d46019e	0.048341386
42	0xbe4116a5	-0.18856294
43	0xbe16d953	-0.1473134
44	0x3d475bfa	0.0486717
45	0x3e7779fd	0.24167629
46	0xbe049ebf	-0.12951182
47	0x3da3f139	0.08004994
48	0xbe2684ff	-0.16261671
49	0xbd1ef7bd	-0.03881048
50	0xbde2577f	-0.11051845
51	0xbd88469e	-0.06654094
52	0xbe095bec	-0.13413972
53	0xbc97e0b2	-0.01853976
54	0xbc9a5e5d	-0.018843824
55	0xbcc06732	-0.023486707
56	0xbdd0ddca	-0.10198553
57	0xbdd260f4	-0.102723986
58	0xbb24939c	-0.0025112396
59	0x3d0b7af2	0.034052797
60	0xbd9be8ab	-0.07612737
61	0xbc348da1	-0.011020095
62	0xbd831a3a	-0.06401487
63	0xbdbd09cc	-0.09230384
64	0xbc9cf7da	-0.019161154
65	0x3ccb01b5	0.024781087
66	0xbde50c76	-0.11184017
67	0x3db15f4b	0.08660754
68	0xbd669945	-0.056298513
69	0xbdaf3d07	-0.08556562
70	0x3c6b5c52	0.014365273
71	0xbb7d8856	-0.0038686
72	0xbdcd9ecd	-0.100400545
73	0x3e30ac87	0.17253314
74	0xbd6a3c79	-0.057186577
75	0xbdbcbf25	-0.092161454
76	0xbe0b711b	-0.13617365
77	0xbc0341d8	-0.008011304
78	0xbda5f4a4	-0.08103302
79	0x3c771ea9	0.015082994
80	0x3ca7b664	0.020472713
81	0xbd8ddbe5	-0.06926707
82	0x3d2059e2	0.03914822
83	0x3e461bc3	0.19346528
84	0xbd18c7a0	-0.037299752
85	0xbb2393e6	-0.002495998
86	0xbdc424bb	-0.09577318
87	0xbcac585d	-0.021038229
88	0xbdeab067	-0.11459427
89	0x3d896580	0.06708813
90	0xbd95416f	-0.07287871
91	0x3d467526	0.048451565
92	0xbe489a82	-0.1959019
93	0xbdaec5dd	-0.08533833
94	0xbe181d34	-0.1485489
95	0xbc2d70bb	-0.010585959
96	0xbd33cf49	-0.043898854
97	0x3dd97141	0.106173046
98	0xbd0ee355	-0.03488477
99	0xbd594aaa	-0.05304972
100	0xbe194e2a	-0.14971223
101	0xbd3cd394	-0.046100214
102	0x3e04f6e6	0.1298481
103	0xbd652234	-0.05594082
104	0x3ce7c6c5	0.028293023
105	0x3dc6424a	0.096806124
106	0xbdbec51d	-0.0931494
107	0xbd96609a	-0.07342644
108	0xbd7bcaad	-0.061472584
109	0xbcca7623	-0.024714535
110	0xbe0ee53a	-0.1395463
111	0x3de4f82c	0.111801475
112	0x3d683c31	0.056698028
113	0xbcf18bf3	-0.029485678
114	0x3cebd3c3	0.0287875
115	0xbdeedbf1	-0.11663044
116	0x3cb6b3b9	0.022302495
117	0x3cf05835	0.029338935
118	0xbde2d9ad	-0.110766746
119	0x3d0e716f	0.034776147
120	0xbc4d6081	-0.012535215
121	0xbd8f43ec	-0.06995377
122	0xbde18e72	-0.110134974
123	0x3cd8a1f8	0.02644442
124	0xbd939b48	-0.07207352
125	0xbd8d41d5	-0.06897322
126	0xbd93229f	-0.07184338
127	0xbd727b1f	-0.05919945
128	0xbcf9974f	-0.030467657
129	0x3d24e02e	0.040252857
130	0xbc948755	-0.018130938
131	0x3b923bbb	0.004462687
132	0xbc809fb9	-0.015701162
133	0xbe21b478	-0.157915
134	0xbd4ec3ac	-0.050479576
135	0xbca99bf9	-0.020704256
136	0x3d097b9c	0.03356515
137	0xbcd33fa1	-0.025787177
138	0x3e24c803	0.16091923
139	0x3d5853bf	0.05281424
140	0xbdff32ae	-0.12460838
141	0xbd22726b	-0.0396599
142	0xbd81f75f	-0.063460104
143	0xbdbfe64f	-0.093701
144	0xbcee2026	-0.029068064
145	0xbcb996d7	-0.022654934
146	0xbe2d36ff	-0.1691551
147	0xbdccc7a6	-0.099990174
148	0xbcb09324	-0.021554537
149	0xbe3d392e	-0.18478844
150	0xbdf48977	-0.11940282
151	0x3a8f09ad	0.0010912918
152	0xbb96613b	-0.0045892275
153	0x3e061bfd	0.13096614
154	0xbd0a23f4	-0.033725694
155	0x3c862cde	0.016378816
156	0x3c11740e	0.008877767
157	0xbd6ddcdc	-0.058071956
158	0xbdb68745	-0.08912519
159	0x3c8f77b3	0.017513132
160	0xbe276b6b	-0.1634957
161	0xbd75d91f	-0.060021516
162	0xbd8eee61	-0.06979061
163	0xbe29e877	-0.16592585
164	0xbb8489d6	-0.0040447516
165	0xbdb8e686	-0.09028344
166	0x3db9e5de	0.09077047
167	0xbda71cee	-0.08159815
168	0xbd9ec91f	-0.077532046
169	0xbe20fe38	-0.15721977
170	0xbd5455c6	-0.051839612
171	0xbdfb83ff	-0.12281036
172	0x3c10529e	0.00880876
173	0xbd83de1b	-0.06438848
174	0x3dd24c86	0.10268502
175	0xbd99760f	-0.07493221
176	0xbc84e975	-0.016224602
177	0xbdb0130e	-0.085973844
178	0x3d6aa262	0.057283767
179	0xbdccf83a	-0.10008283
180	0x3e163535	0.14668734
181	0xbde03b66	-0.10948829
182	0x3c6f7408	0.014615066
183	0x3d432da2	0.04765094
184	0xbd2f53ee	-0.04280465
185	0x3d27b23e	0.04094147
186	0xbd14649e	-0.03622877
187	0xbd913315	-0.07089821
188	0xbded4a0d	-0.1158639
189	0xbda3611e	-0.07977508
190	0xbd7294c7	-0.059223916
191	0xbd1499b6	-0.036279403
192	0x3cd1f596	0.0256298
193	0xbd9e55f8	-0.07731241
194	0xbded4c79	-0.115868516
195	0xbd18646f	-0.037205156
196	0xbcc6aa30	-0.024251074
197	0xbe165d0c	-0.14683932
198	0x3d053e93	0.03253038
199	0x3da88d2e	0.08230053
200	0x3e0675a5	0.13130815
201	0xbd0b91fa	-0.03407476
202	0xbd959f52	-0.073057786
203	0xbdf0a0e7	-0.1174944
204	0xbd592b73	-0.053019952
205	0x3ddd177b	0.10795494
206	0xbd60344b	-0.05473737
207	0x3d5f0338	0.05444643
208	0x3c56149c	0.013066437
209	0xbe215797	-0.15756069
210	0x3db1bc69	0.086785145
211	0xbde622c4	-0.112371
212	0x3d6e5957	0.05819067
213	0xbcf93cf8	-0.03042458
214	0xbd861cbd	-0.0654845
215	0x3c8a0800	0.016849518
216	0xbd90cdf7	-0.07070535
217	0xbd996a8f	-0.074910276
218	0xbe1e224e	-0.15442774
219	0xbbccae6f	-0.00624638
220	0xbd2e6d08	-0.04258445
221	0xbe3f8cc9	-0.18706049
222	0xbda31945	-0.07963804
223	0x3904aba1	0.00012652438
224	0xbc49c29b	-0.012314464
225	0x3d0c4022	0.03424085
226	0xbc89f4f0	-0.016840428
227	0xbce684a7	-0.028139425
228	0xbe0bff22	-0.13671544
229	0xbe0f62cc	-0.14002532
230	0x3d1bee64	0.038069144
231	0xbc964058	-0.018341228
232	0xbcecf210	-0.028924018
233	0xbe31e37d	-0.17371936
234	0xbd831791	-0.06400979
235	0xbb982f9e	-0.0046443483
236	0x3c01747c	0.007901307
237	0xbc0c8544	-0.008576695
238	0xbd81b252	-0.0633284
239	0xbd1d14fe	-0.038350098
240	0x3b2356e4	0.0024923617
241	0x3d7f0822	0.062263615
242	0x3ccb4368	0.024812415
243	0xbd7ed5d7	-0.062215652
244	0xbcffdddc	-0.03123372
245	0xbce2584f	-0.02763
246	0xbd072b87	-0.033000495
247	0xbc1b0a99	-0.009462976
248	0xbba4291f	-0.005009785
249	0xbe6611dc	-0.2246775
250	0xbd2860a0	-0.041107774
251	0xbe199f40	-0.15002155
252	0xbdbe362a	-0.09287675
253	0xbe44390b	-0.19162385
254	0xbdd2018f	-0.102542035
255	0xbd689606	-0.0567837

lstm.weight_ih_l1 f4 [512, 128]
0	0xbbf5596a	-0.0074874656
1	0xbd13a574	-0.03604646
2	0x3de3b38d	0.11118231
3	0xbd101d8f	-0.03518444
4	0xbd1dfd69	-0.03857175
5	0xbe0eeea8	-0.13958228
6	0xbca4b4b3	-0.020105695
7	0x3d151d8b	0.036405127
8	0x3dff8c0b	0.12477883
9	0x3e33e538	0.17567909
10	0xbdb929be	-0.09041165
11	0x3da57397	0.08078688
12	0xbd897586	-0.06711869
13	0x3e01ca37	0.12674795
14	0xbd81c06a	-0.06335528
15	0x3e612b3c	0.21989149
16	0x3e067df1	0.1313398
17	0xbdbc5d38	-0.091974676
18	0x3dad0d18	0.08449763
19	0xbd8223c5	-0.06354479
20	0xbcebfc82	-0.028806929
21	0x3e30896b	0.17239921
22	0x3a316ef3	0.0006768547
23	0x3c962dfd	0.018332476
24	0xbdae0f05	-0.084989585
25	0xbdcc8360	-0.09985995
26	0xbd578a46	-0.052622102
27	0xbc4585b0	-0.012055799
28	0xbab66438	-0.0013915366
29	0xba95c12c	-0.0011425368
30	0x3e4f794a	0.20261112
31	0x3d88770d	0.06663332
32	0x3e0bc24d	0.13648339
33	0x3da4baff	0.08043479
34	0xbd366ec9	-0.044539247
35	0xbb09afcd	-0.0021009326
36	0xbe175653	-0.14779024
37	0x3d407901	0.0469904
38	0xbdb51034	-0.08840981
39	0x3d88ba33	0.0667614
40	0xbcd40222	-0.025879923
41	0xbccffb4d	-0.025388384
42	0xbd2b4d76	-0.04182192
43	0xbd17306d	-0.036911417
44	0x3cf4e191	0.029892715
45	0xbcc045c3	-0.023470765
46	0xbd43ed5f	-0.047833797
47	0x3aec5192	0.0018029681
48	0x3cf690e7	0.030098392
49	0xbc864220	-0.016388953
50	0x3c631957	0.013861022
51	0x3c8c6d54	0.017141975
52	0x3e175059	0.14776744
53	0x3dfe0e49	0.124050684
54	0x3d090a55	0.03345712
55	0xbd37114f	-0.04469424
56	0xbd88ce87	-0.06680017
57	0xbd946c56	-0.07247226
58	0x3d81cd77	0.063380174
59	0x3cd41634	0.025889494
60	0x3cb4d82d	0.022075737
61	0x3c5acaf0	0.013354048
62	0x3dc66b2f	0.096884124
63	0x3d2b9443	0.04188944
64	0x3b8298c6	0.003985497
65	0xbd4cb253	-0.04997475
66	0xbdedc2b2	-0.11609401
67	0xbd313053	-0.043258976
68	0x3dabeb9f	0.083945505
69	0xbe1381b0	-0.1440494
70	0xbc31358e	-0.010815991
71	0xbd9d6715	-0.07685677
72	0xbdc7d3d0	-0.09757197
73	0x3d2db106	0.04240515
74	0x3d9e473d	0.077284314
75	0x3d3f1e2f	0.046659645
76	0x3d01118e	0.031510882
77	0xbe3a5b48	-0.18198884
78	0xbc6778d3	-0.014127928
79	0xbc48f213	-0.012264746
80	0x3d9d6860	0.076859236
81	0xbd34f360	-0.044177413
82	0x3d9c3323	0.07626941
83	0x3e1a9f4a	0.15099826
84	0x3cd6f036	0.026237588
85	0xbc23e081	-0.010002256
86	0xbdba613a	-0.09100576
87	0xbaee893c	-0.0018198858
88	0xbbe60291	-0.007019349
89	0xbda74c06	-0.08168797
90	0x3d01f646	0.031729005
91	0xbd253e78	-0.040342778
92	0x3c8d4559	0.017244982
93	0xbd8453b9	-0.06461281
94	0xbc879998	-0.016552731
95	0x3cdca186	0.02693249
96	0x3ccad3cc	0.024759196
97	0xbd8fb893	-0.070176266
98	0x3e5401ae	0.20703766
99	0x3d7bb153	0.061448406
100	0xbe3910ab	-0.18072765
101	0xbc2221a6	-0.009895718
102	0xbd302a84	-0.043009296
103	0xbd1e40d3	-0.03863604
104	0x3db0e952	0.08638252
105	0xbd83faa5	-0.06444291
106	0x3c651965	0.013983105
107	0xbb3ce055	-0.0028820236
108	0xbda2e177	-0.0795316
109	0xbd1dbde4	-0.038511172
110	0xbc51dc88	-0.012808926
111	0xbd9051e5	-0.0704687
112	0x3d4e0a8a	0.05030302
113	0xbdb0fece	-0.0864235
114	0x3d0726ad	0.03299587
115	0xbd52727a	-0.051378705
116	0x3dcf50e6	0.10122852
117	0x3d030024	0.031982556
118	0xbbb7bf4a	-0.00560752
119	0xb9fd2eb7	-0.00048290726
120	0xbdce869e	-0.1008427
121	0xbcf80f3d	-0.030280704
122	0xbd838b1b	-0.06423017
123	0x3a242409	0.0006261473
124	0x3d8daa94	0.06917301
125	0xbbe20feb	-0.00689887
126	0x3ce41e06	0.027846348
127	0x3dce2e16	0.10067384
128	0x3c414b11	0.011797682
129	0x3d8527eb	0.065017544
130	0x3dfb6b43	0.12276318
131	0x3d47c14f	0.048768338
132	0x3dd67621	0.1047175
133	0x3b3d8cfc	0.0028923145
134	0x3db1b08e	0.08676253
135	0xbe1069c8	-0.14102852
136	0x3bce8251	0.006302156
137	0xbd191cc4	-0.03738095
138	0xbd1a02ed	-0.037600446
139	0xbc8917da	-0.016735006
140	0xbd1a9d8d	-0.03774791
141	0x3d9b6523	0.0758765
142	0x3d964145	0.07336668
143	0xbd20e8a0	-0.03928435
144	0x3d301b72	0.042994924
145	0x3cc9a858	0.024616405
146	0xbc06dd8a	-0.00823153
147	0xbd8ba187	-0.06817918
148	0x3e17020e	0.14746878
149	0xbd29f55f	-0.04149377
150	0x3d6ace12	0.05732543
151	0xbd8defaf	-0.06930482
152	0xbd0d1151	-0.034440342
153	0x3d9cb21d	0.0765116
154	0xbdf83dd8	-0.12121171
155	0x3d5ceb7d	0.053935517
156	0x3b764f5c	0.0037583923
157	0xbd7f58a1	-0.062340382
158	0xbd542015	-0.05178841
159	0x3ba16047	0.004924807
160	0xbdcf2f71	-0.101164706
161	0xbdd8d30f	-0.10587131
162	0xbda24132	-0.07922591
163	0xbe08b932	-0.13351896
164	0xbe28f368	-0.16499102
165	0xbddf1721	-0.10893083
166	0xbcb70b51	-0.022344263
167	0xbe044abd	-0.12919135
168	0xbd05ef4b	-0.03269891
169	0xbc844bb9	-0.016149389
170	0xbceb6de7	-0.028738929
171	0x3d2607b7	0.0405347
172	0x3e0079bc	0.12546438
173	0xbd0e7b55	-0.034785587
174	0xbc282d3d	-0.010264692
175	0xbd5ba5cf	-0.053624924
176	0xbcd2ee37	-0.025748355
177	0x3d8f962b	0.07011064
178	0x3d884f0b	0.06655701
179	0x3d2ca181	0.04214621
180	0x3e2753a8	0.16340506
181	0xbd8f723c	-0.0700421
182	0x3db297cb	0.087203585
183	0xbd82b7de	-0.06382726
184	0x3d2022e4	0.039095774
185	0x3d04e3d9	0.032443855
186	0x3e3676a7	0.178187
187	0xbdf42381	-0.11920834
188	0xbdeba3ed	-0.11505876
189	0x3ba347ce	0.004982925
190	0x3d80f88c	0.062974066
191	0xbc5c0682	-0.013429286
192	0xbdfe80d5	-0.124269165
193	0xbd84b26f	-0.06479346
194	0xbdd1b1d0	-0.10238993
195	0xbe13788e	-0.14401457
196	0xbda8a8a3	-0.0823529
197	0xbd0b4c16	-0.034008108
198	0x3dca58c5	0.09880213
199	0x3d9da7f9	0.07698054
200	0xbe04bf71	-0.12963654
201	0xbdbb0358	-0.09131497
202	0x3d9f684d	0.07783566
203	0x3d30361c	0.043020353
204	0x3e081556	0.13289389
205	0xbcda9488	-0.026682153
206	0xbd252b8e	-0.04032474
207	0x3d366d33	0.044537734
208	0x3c43db16	0.01195409
209	0x3bdd0772	0.0067452723
210	0x3d25339d	0.040332425
211	0x3ddd9991	0.10820306
212	0x3da5f997	0.08104246
213	0x3d86a268	0.06573945
214	0x3d150c01	0.0363884
215	0xbdd8980c	-0.10575876
216	0x3d9705b0	0.07374132
217	0xbdeadd66	-0.1146801
218	0xbe2aba3f	-0.1667261
219	0xbd8d7825	-0.069076814
220	0x3db78c3b	0.08962294
221	0xbc919ec2	-0.017775897
222	0x3dddf2a1	0.108372934
223	0x3d369c52	0.044582672
224	0xbcc13b0a	-0.023587722
225	0x3d29039a	0.0412632
226	0x3e1d25fa	0.15346518
227	0x3ddcc291	0.10779298
228	0x3d905faa	0.070494965
229	0xbca86f3d	-0.020560855
230	0xbd305e04	-0.04305841
231	0x3e1f19d0	0.1553719
232	0x3dea05cc	0.11426887
233	0xbd621ab6	-0.055201255
234	0xbc73318a	-0.014843354
235	0x3cf4975e	0.029857334
236	0x3d4a9bd9	0.049465034
237	0xbe289e19	-0.1646656
238	0xbe08d4eb	-0.13362472
239	0x3d9caaae	0.07649742
240	0xbd38749d	-0.045033086
241	0x3df8eef0	0.12154949
242	0xbc63a976	-0.013895383
243	0xbdb1c799	-0.08680648
244	0x3cdde0ac	0.027084671
245	0xbd95a057	-0.07305973
246	0xbda889dd	-0.0822942
247	0x3e254b07	0.16141902
248	0x3cad5843	0.02116025
249	0x3d4edcf6	0.050503694
250	0xbd2131af	-0.039354023
251	0x3d8427e6	0.064529225
252	0x3e1c4e9f	0.15264367
253	0xbc33c1b4	-0.010971475
254	0xbc91b8e3	-0.017788356
255	0xbe30ae09	-0.17253889

lstm.weight_hh_l1 f4 [512, 128]
0	0xbc3b4139	-0.0114291245
1	0x3c91c4ed	0.017794097
2	0x3df12107	0.117738776
3	0xbd8ecfa7	-0.069732
4	0x38e93ed4	0.000111220084
5	0x3df29295	0.118443646
6	0xbcdec66c	-0.027194224
7	0x3dd30f32	0.10305633
8	0x3b6aabe0	0.0035808012
9	0xbd7122b1	-0.058870975
10	0xbc114a8b	-0.00886787
11	0x3dac6cda	0.08419199
12	0xba8c7b62	-0.0010717923
13	0xbd179be0	-0.03701389
14	0xbc4bb40a	-0.012433061
15	0xbd7d6d79	-0.06187198
16	0xbd5f7ce8	-0.05456248
17	0xbde4fde8	-0.11181241
18	0xbd5d0e25	-0.053968567
19	0x3c10276a	0.00879846
20	0xbc8e4e65	-0.017371366
21	0x3d30ca33	0.043161582
22	0x3d3d6480	0.046238422
23	0xbd99e6b1	-0.07514704
24	0x3dae18e6	0.08500843
25	0xbe37c433	-0.17945938
26	0x3c7e1e51	0.015510158
27	0x3d454f4b	0.048171323
28	0xbdff1ed0	-0.12457049
29	0xbdfc054a	-0.12305696
30	0xbd60cb52	-0.0548814
31	0x3c23514c	0.009968113
32	0x3cf39a9c	0.02973681
33	0x3e387749	0.18014254
34	0x3c90530b	0.017617723
35	0xbb5a44da	-0.00333052
36	0xbd86d0bd	-0.065827824
37	0xbd54acbe	-0.051922552
38	0xbcb03e1e	-0.021513995
39	0xbe15d589	-0.14632238
40	0xbcd0fd42	-0.025511388
41	0xbe522914	-0.20523483
42	0xbd0f1581	-0.034932617
43	0x3dc840f8	0.09778017
44	0x3c50748d	0.0127231
45	0xbca92e1f	-0.020651875
46	0xbd89c4b4	-0.06726971
47	0xbd284cad	-0.04108875
48	0xbd61e59c	-0.055150613
49	0x3e1f7acc	0.15574187
50	0x3cc6a1c5	0.02424706
51	0x3d403b0f	0.046931323
52	0x3d20626c	0.039156362
53	0xbd83b8e7	-0.06431752
54	0xbb9f445b	-0.0048604435
55	0xbda7b71a	-0.08189221
56	0x3de32297	0.11090582
57	0x3d2a6eaa	0.041609444
58	0x3e04828a	0.12940422
59	0xbd941de3	-0.07232263
60	0x3d79fce0	0.061032176
61	0x3d21dd2e	0.039517574
62	0xbe476069	-0.19470371
63	0xbd488702	-0.04895688
64	0xbb90992f	-0.004412792
65	0x3bffba45	0.0078041875
66	0xbd4b8a36	-0.049692355
67	0xbd9a377e	-0.075301155
68	0xbca662e7	-0.020310832
69	0x3cf96607	0.030444158
70	0x3d42be8e	0.04754501
71	0xbd581530	-0.05275458
72	0x3e092980	0.13394737
73	0xbc911034	-0.017707922
74	0xbb90a997	-0.004414748
75	0xbd912454	-0.07087007
76	0xbcdcd121	-0.02695519
77	0xbd043742	-0.03227926
78	0x3d792b95	0.06083258
79	0x3cbabf1e	0.02279621
80	0xbd6a559d	-0.057210553
81	0xbd05ef3e	-0.032698862
82	0x3c1885d5	0.009309252
83	0x3c64fd48	0.013976403
84	0xbc208290	-0.0097967535
85	0x3df9eb21	0.122030504
86	0xbd0ada9f	-0.0338999
87	0x3dc4c3d5	0.096076645
88	0xbdcc281c	-0.09968588
89	0xbdfc5046	-0.123199984
90	0x3da8fbd1	0.08251155
91	0xbd032f5e	-0.032027595
92	0xbc600af6	-0.013674488
93	0x3da3c7f2	0.07997121
94	0x3e58311d	0.21112485
95	0xbe0278d2	-0.12741402
96	0x3dc631d9	0.096774764
97	0xbd4a26a2	-0.04935325
98	0xbd0a2dcd	-0.033735085
99	0x3c391f61	0.011298985
100	0xbcc7c113	-0.024384057
101	0x3e08a8ae	0.13345596
102	0x3e1578ca	0.14596859
103	0x3d9ebc8b	0.077508055
104	0xbdcf7bea	-0.101310566
105	0x3d5cef40	0.053939104
106	0xbb8ff3c9	-0.004393075
107	0x3e04378b	0.12911813
108	0x3e2d77f5	0.16940291
109	0xbd33204a	-0.043731965
110	0x3d8b4b8d	0.068015195
111	0xbe129986	-0.14316377
112	0xbd8146ca	-0.0631233
113	0xbe48cfe8	-0.1961056
114	0xbd838bc8	-0.064231455
115	0xbe1325c3	-0.14369874
116	0x3af27b59	0.0018499895
117	0x3e2c7cf0	0.16844535
118	0x3d798f1f	0.060927507
119	0x3dc2b903	0.095079444
120	0xbe0b11c3	-0.13580994
121	0xbd17f15a	-0.037095405
122	0xbda1d401	-0.07901765
123	0x3d823e69	0.0635956
124	0x3c7164d8	0.014733516
125	0x3dbe675d	0.09297059
126	0x3d856067	0.06512528
127	0x3c562f5d	0.013072816
128	0x3d103712	0.03520877
129	0x3d71baeb	0.05901615
130	0xbc231296	-0.009953162
131	0x3d89f80c	0.06736764
132	0x3d71de59	0.059049938
133	0x3d00ce52	0.031446762
134	0xbd92505b	-0.07144233
135	0xbdc25bc1	-0.09490157
136	0x3dc31dff	0.09527206
137	0x3d184607	0.03717616
138	0xbe1182f6	-0.14210114
139	0x3ac23f0f	0.0014819818
140	0xbd62997b	-0.05532215
141	0xbcb5aabf	-0.022176145
142	0x3d77a599	0.06046066
143	0xbe241d68	-0.16026843
144	0x3cda5175	0.02665017
145	0xbb9f60ae	-0.00486382
146	0x3cf1f79b	0.029537013
147	0x3d8597f9	0.06523127
148	0xbd0b36bc	-0.033987746
149	0xbe05f02a	-0.13079897
150	0xbcc26cb1	-0.023733469
151	0x3d4c9b4c	0.04995279
152	0x3dc1bd36	0.09459917
153	0xbd800ed4	-0.06252828
154	0xbd7d96c0	-0.061911345
155	0x3da83f1d	0.08215163
156	0xbdbdd97d	-0.09269998
157	0xbd8af6bc	-0.06785342
158	0x3c9d0f95	0.01917247
159	0xbde4b188	-0.11166674
160	0xbcf650b1	-0.030067774
161	0x3e17bb3c	0.14817518
162	0x3e025fa3	0.12731795
163	0xbe517e57	-0.20458351
164	0xbbe569ff	-0.007001161
165	0x3e1bc281	0.15210916
166	0xbd9bbfda	-0.07604952
167	0x3d58ddd6	0.052945934
168	0x3dfda769	0.123854466
169	0xbd4138ca	-0.0471733
170	0xbce5bce9	-0.028044181
171	0xbdbc4df4	-0.09194556
172	0xbd06a924	-0.03287615
173	0x3c212968	0.009836532
174	0xbe05dbcb	-0.13072126
175	0x3de8e926	0.113725945
176	0xbcf819cf	-0.030285744
177	0xbbc2a776	-0.005940373
178	0xbdbb0e47	-0.091335826
179	0x3e54dad7	0.20786606
180	0x3c1015d9	0.008794271
181	0xbd2ac206	-0.04168894
182	0x3bb688a2	0.005570487
183	0xbe0af1dc	-0.13568825
184	0xbc327a30	-0.01089339
185	0x3d3724fa	0.044712998
186	0xbd72cbdf	-0.059276458
187	0xbe1c0cc5	-0.15239246
188	0xbd1d0988	-0.038339168
189	0xbdcf09b6	-0.10109274
190	0xbdad216a	-0.08453639
191	0xbccccff5	-0.025001505
192	0x3df12cf1	0.1177615
193	0x3d09ea90	0.03367096
194	0xbdbbddf9	-0.09173197
195	0xbe04403d	-0.1291513
196	0x3c0dee13	0.008662718
197	0xbdd14e33	-0.102199934
198	0x3c986450	0.01860252
199	0x3dcc2ae5	0.09969119
200	0x3dbf788a	0.09349163
201	0x3bc2edd9	0.005948764
202	0x3dbd1674	0.09232798
203	0xbde2f557	-0.11081951
204	0xbd0052e6	-0.031329058
205	0xbde8be3b	-0.113644086
206	0x3d36e386	0.044650577
207	0xbafbe01d	-0.0019216571
208	0x3d278161	0.04089487
209	0xbd6eac5d	-0.058269847
210	0xbd8b7c30	-0.06810796
211	0xbd52cf4a	-0.051467218
212	0x3e1a23ab	0.15052669
213	0x3ddaa583	0.106761
214	0xbd2fa0c1	-0.042877916
215	0x3d960921	0.0732596
216	0x3dd66fc9	0.1047054
217	0xbdd8ff82	-0.10595609
218	0xbd4df648	-0.0502837
219	0xbd19e253	-0.037569355
220	0xbd1233cc	-0.03569393
221	0x3e09ee2a	0.13469759
222	0x3de49f3d	0.11163185
223	0xbdcfb7e1	-0.10142494
224	0x3dfb8c52	0.12282623
225	0x3d9a20db	0.07525798
226	0xbe2ea85a	-0.17056409
227	0x3cb6e1c3	0.022324448
228	0xbdde614d	-0.108584024
229	0x3e7897ba	0.24276629
230	0x3c1912d9	0.009342873
231	0xbd50cb9f	-0.05097544
232	0xbdbe2abc	-0.09285495
233	0xbd1ab049	-0.037765775
234	0xbdb19947	-0.086718135
235	0x3cd752f3	0.02628467
236	0x3dced762	0.10099675
237	0x3b9dce3e	0.0048158458
238	0x3e25c593	0.1618865
239	0xbd949ce1	-0.07256485
240	0xbca97ee8	-0.020690396
241	0xbe1fc768	-0.15603411
242	0x3cf09e0d	0.02937224
243	0xbc02d13d	-0.007984457
244	0xbd6cd31e	-0.057818525
245	0x3e43bf74	0.19116002
246	0xbd6fa31c	-0.058505163
247	0x3e41b97f	0.18918417
248	0xbe285adc	-0.1644091
249	0xbdc69267	-0.09695893
250	0xbdf9bcc9	-0.12194211
251	0xbd9d2f36	-0.076750204
252	0x3b8d6f86	0.004316273
253	0x3d35b92d	0.04436605
254	0x3b5b0fb5	0.003342611
255	0xbcff8730	-0.031192392

lstm.bias_ih_l1 f4 [512]
0	0xbe2e6c21	-0.17033435
1	0xbd8aba3d	-0.067738034
2	0xbd6662ab	-0.05624644
3	0xbe7643e0	-0.2404933
4	0xbe0e785d	-0.13913102
5	0x3d5cd010	0.05390936
6	0xbdabe214	-0.0839273
7	0xbe44cdec	-0.19219178
8	0xbd97cfe2	-0.074126974
9	0xbe322703	-0.17397694
10	0xbdd52dcd	-0.104091264
11	0xbe0e9c8d	-0.13926907
12	0x3cbd3d40	0.023100495
13	0xbde3807e	-0.11108492
14	0xbdaaef23	-0.08346393
15	0xbd536cf6	-0.051617585
16	0xbdb00272	-0.085942164
17	0xbde1accf	-0.11019289
18	0xbe1af496	-0.15132365
19	0xbe8c49a6	-0.2739994
20	0xbdc15cdd	-0.094415404
21	0xbe280b5f	-0.16410588
22	0xbe7ac19b	-0.24487917
23	0xbda53112	-0.08066
24	0xbdc61c7e	-0.09673403
25	0xbe2effe6	-0.17089805
26	0xbd5c2428	-0.05374542
27	0xbe030ceb	-0.12797897
28	0x3dcb6d5b	0.09932967
29	0x3c3e4ede	0.011615483
30	0xbe6d9df8	-0.23204792
31	0xbdce1eac	-0.10064444
32	0xbd627c7a	-0.05529449
33	0xbe1dbc7a	-0.1540393
34	0xbe20adb6	-0.15691265
35	0xbdf4313a	-0.11923452
36	0xbd6f4b24	-0.05842127
37	0xbe15555c	-0.14583343
38	0xbe29dad1	-0.16587378
39	0xbe2a35c2	-0.1662207
40	0xbde7437d	-0.11292169
41	0xbe2ac671	-0.16677262
42	0x3bba751b	0.0056902296
43	0xbdc40fca	-0.09573324
44	0xbe07f0f2	-0.13275507
45	0xbe918960	-0.2842512
46	0xbd0b43ce	-0.03400021
47	0xbe4a9863	-0.19784693
48	0xbdf4fce3	-0.11962297
49	0xbe4c4465	-0.19947965
50	0x3b4ef35a	0.0031578154
51	0xbe8010d5	-0.25012842
52	0xbd7bfaa4	-0.061518326
53	0xbd4c0a73	-0.049814653
54	0xbe08d897	-0.13363872
55	0xbe2c8af9	-0.16849889
56	0xbe20c740	-0.15701008
57	0x3d96c687	0.07362085
58	0xbe7f47fc	-0.24929804
59	0x3ce5a71c	0.028033786
60	0xbe0a8480	-0.13527107
61	0xbc8d66cb	-0.01726093
62	0xbe06d609	-0.13167585
63	0xbe6b2400	-0.22962952
64	0xbe525551	-0.20540358
65	0xbe247681	-0.1606083
66	0xbe08d1ae	-0.13361236
67	0xbdcca44c	-0.09992275
68	0x3cbac36d	0.022798264
69	0xbe69545c	-0.22786087
70	0xbe44da89	-0.1922399
71	0xbc348c77	-0.011019818
72	0xbdc6a158	-0.09698743
73	0xbcf4c35b	-0.029878309
74	0xbdf9acff	-0.121911995
75	0xbdb8d7ea	-0.09025557
76	0xbe14ac49	-0.14518847
77	0xbe51b479	-0.20479001
78	0xbe240b42	-0.1601992
79	0xbe32930a	-0.17438903
80	0xbdecbcb3	-0.11559429
81	0xbdfb9f7a	-0.12286277
82	0xbd97e859	-0.07417364
83	0xbd9f5eb7	-0.07781737
84	0xbd9d346f	-0.076760165
85	0xbe18a145	-0.1490527
86	0xbd248ad6	-0.040171467
87	0xbddad57e	-0.10685252
88	0xbd05cb98	-0.032664865
89	0xbc8476f9	-0.016170012
90	0xbe43542a	-0.19075075
91	0xbe1d973b	-0.15389721
92	0x3c974537	0.018465621
93	0xbdd4d1be	-0.10391568
94	0xbe016742	-0.12637046
95	0xbd075554	-0.03304036
96	0xbd27b73f	-0.04094624
97	0x3be40e2e	0.006959698
98	0xbce60235	-0.028077224
99	0xbca1c8c1	-0.019749047
100	0x3d45828e	0.04822021
101	0xbdbabfdf	-0.09118628
102	0xbdfb7b8e	-0.122794256
103	0xbcfd96de	-0.030955728
104	0xbded0774	-0.11573687
105	0xbe35ad80	-0.17741966
106	0x3ac6a58a	0.0015155536
107	0xbd7c6851	-0.06162292
108	0xbe236d3e	-0.15959641
109	0xbd97f596	-0.07419889
110	0xbdca375d	-0.09873841
111	0xbc3124a8	-0.010811962
112	0xbd546242	-0.05185152
113	0xbac83772	-0.0015275313
114	0xbe700402	-0.23439029
115	0xbe5ce10a	-0.2157022
116	0xbdcbdd6d	-0.09954343
117	0xbe17d2e5	-0.14826544
118	0xbe122d77	-0.14275156
119	0xbd5fe178	-0.054658383
120	0x3be1dfe3	0.0068931445
121	0xbe3f086d	-0.18655558
122	0xbd2cb378	-0.042163342
123	0xbbb44c67	-0.005502272
124	0xbdbf7d96	-0.093501255
125	0xbe1af364	-0.15131909
126	0xbe3b42de	-0.18287227
127	0xbe4f2845	-0.20230205
128	0xbe40601d	-0.18786664
129	0xbdae1527	-0.08500128
130	0xbbd38031	-0.0064544906
131	0xbe2901f6	-0.16504654
132	0xbe46d036	-0.19415364
133	0xbd3b6076	-0.04574629
134	0xbd835117	-0.06411951
135	0xbde127ce	-0.1099392
136	0xbe333130	-0.17499232
137	0xbdcc72f4	-0.09982863
138	0xbd25521f	-0.04036152
139	0xbe243684	-0.16036421
140	0x3cc46d70	0.023977965
141	0xbce3e1a7	-0.02781756
142	0xbdce541b	-0.100746356
143	0xbe40862a	-0.1880118
144	0xbe6373bf	-0.22212122
145	0xbe146a09	-0.14493574
146	0x3b49b96f	0.0030780693
147	0xbe38925a	-0.18024579
148	0xbe2124fe	-0.15736768
149	0xbe54bd0f	-0.20775245
150	0xbe60f68b	-0.21969049
151	0xbdfd9b91	-0.123831876
152	0xbdda3d73	-0.10656252
153	0xbe372786	-0.1788617
154	0xbc2779f5	-0.010221948
155	0xbdb7dfa6	-0.089782044
156	0xbdbd7ce0	-0.09252334
157	0xbe1b7934	-0.15182954
158	0xbe17757d	-0.14790912
159	0xbd26243a	-0.040561892
160	0xbe4744fd	-0.1945991
161	0xbd94da02	-0.07268144
162	0xbd858761	-0.06519962
163	0xbd1dca50	-0.03852302
164	0xbcd57557	-0.026056929
165	0xbe182a17	-0.14859806
166	0xbdb96291	-0.09052003
167	0xbe16230c	-0.14661807
168	0xbd5b8b09	-0.05359939
169	0xbe554f8f	-0.2083113
170	0xbda8ba7e	-0.082386956
171	0xbe0a7b67	-0.13523637
172	0xbe14a68b	-0.14516656
173	0xbe1a7836	-0.1508492
174	0xbe4407df	-0.19143628
175	0xbd53ee86	-0.051741146
176	0xbd49da9c	-0.049280748
177	0xbe58ff9c	-0.21191257
178	0xbe26c57c	-0.16286272
179	0xbe26b6ee	-0.1628072
180	0xbe40e423	-0.18837027
181	0xbd39fec3	-0.045408975
182	0xbe77a6c4	-0.2418471
183	0xbd47061c	-0.04858981
184	0xbe59a638	-0.21254814
185	0xbce0a096	-0.027420323
186	0xbe69d523	-0.22835211
187	0xbe144587	-0.14479648
188	0xbe4756d9	-0.19466724
189	0xbe1e7239	-0.1547326
190	0xbd90ed0b	-0.07076462
191	0xbe00695f	-0.12540196
192	0xbe120719	-0.1426052
193	0xbdaa4768	-0.08314401
194	0xbe07af13	-0.1325038
195	0xbe338088	-0.175295
196	0xba08d4db	-0.0005219706
197	0xbe029319	-0.12751426
198	0xbdf50cb2	-0.11965312
199	0xbcaee879	-0.021351086
200	0xbdb46e30	-0.08810079
201	0xbe0fdee8	-0.14049876
202	0xbe042718	-0.12905538
203	0xbe226426	-0.15858516
204	0xbd919dfe	-0.07110213
205	0xbde02cb9	-0.1094603
206	0xbd36a556	-0.04459127
207	0xbe232e9f	-0.15935753
208	0xbde02224	-0.10944012
209	0xbe1cb678	-0.15303981
210	0xbe0d6c65	-0.1381088
211	0xbe384862	-0.17996362
212	0xbd21050c	-0.039311454
213	0xbe4d2cac	-0.20036572
214	0xbe06a9ea	-0.13150755
215	0xbe1d9224	-0.1538778
216	0xbcb6f899	-0.022335337
217	0xbd8a90b8	-0.06765884
218	0xbe767cc6	-0.24071035
219	0xbe010eb9	-0.12603272
220	0xbde41991	-0.11137689
221	0xbd977bd7	-0.073966675
222	0xbd977085	-0.07394508
223	0xbd79f51b	-0.061024766
224	0xbd9d7489	-0.07688243
225	0x3d02c1b3	0.031923007
226	0xbe22bf90	-0.15893388
227	0xbdf854bf	-0.12125539
228	0x3d3e07c4	0.046394125
229	0xbcc4abb8	-0.024007663
230	0xbe19bdbe	-0.15013787
231	0xbe2e4114	-0.17017013
232	0xbd15e5cd	-0.03659611
233	0xbdd8cff4	-0.10586539
234	0xbd92ad9e	-0.07162021
235	0xbd6ef039	-0.058334563
236	0xbe7cd63a	-0.24691096
237	0xbd986b48	-0.07442337
238	0xbe3dbd42	-0.18529227
239	0xbd3e28b5	-0.04642554
240	0xbceed601	-0.02915478
241	0xbdce5646	-0.10075049
242	0xbe8027f4	-0.25030482
243	0xbd94ac0c	-0.07259378
244	0x3beed02b	0.007287999
245	0xbe20d853	-0.15707521
246	0xbdebe6ba	-0.11518617
247	0xbd3562f1	-0.04428381
248	0xbce12720	-0.027484477
249	0xbe50df6a	-0.20397726
250	0xbe665942	-0.22494987
251	0xbe2e4075	-0.17016776
252	0xbe4e636c	-0.20155114
253	0xbdb4ee1a	-0.08834477
254	0xbe0501ba	-0.1298894
255	0xbe2161dd	-0.15759988
