models/lstm_attn_v1.pt (torch, 965770 bytes, 15 tensors)

lstm.weight_ih_l0 f4 [512, 32]
00000000: ece2 1e3d 6634 1cbc 2a9d c33c de36 023c
00000010: faa6 d2bc be54 8cbc 6440 653d fcfe 203d
00000020: dc40 a6bd 63f7 b43d 3643 a5bc c6af c4bb
00000030: e0f6 8bbd 9231 ea3c 2eb1 61bc 7462 1b3d
00000040: b47a 0b3d 8461 4ebd 46c4 673b 5805 b1bd
00000050: 10cd 633d e37c 49bd 1baa 8ebd efdd 48bd
00000060: fa65 f93c 86e1 33bd 74e5 263d d5cc 82bd
00000070: 3081 013d b260 e93c 1d57 adbd b603 e8bc
00000080: c947 ac3d 53c3 4bbd 26fd 79ba ba72 863c
00000090: 9303 ae3d 31e8 8b3d f529 823d f480 edbc
000000a0: fea6 a7bd 4e4b ccbc c283 913c 52b9 8fbd
000000b0: 689d 213d b830 5b3d b6ae 75bc 9aac 1abd
000000c0: acb3 7bbd bfae 873d d46f 1a3d 8e8a 353c
000000d0: a7cb a53d e081 453d 1b9c 0bbd 2356 ad3d
000000e0: f658 e0bb 825b c03c d6ad 0a3c ca1e a7bd
000000f0: f83f 613d 6e68 84bd 99d5 ab3d a134 b43d
00000100: be3d 82bd e8d1 243d e329 b13d 4d6f b43d
00000110: 5aa0 c4bc a076 6f3d 5c74 523d f34c 51bd
00000120: 5c3b 9fbd 20c5 3e3d ce57 5e3c 2162 983d
00000130: 3a0a 873c d5fe a13d 0a7d 8fbd ae0a 633c
00000140: a661 10b9 d262 86bd cd47 853d 1a83 fc3c
00000150: 1481 96bd 56c7 43bc 23db 31bd de98 5e3c
00000160: 60fd 03bd 9f18 8a3d 2634 183c 5956 9c3d
00000170: 0aa1 babc d8b6 763d 5ab4 a23c bb0a a63d
00000180: 96a2 d93c 1a1d acbd 7873 fabc dae0 0f3d
00000190: aad3 febc 2ac9 4cbd cec7 763c 7001 7e3d
000001a0: d27e 67bd acf6 f4bc 9ea5 9ebd 266a 23bb
000001b0: 36ed 14bd f227 843c a1eb 883d 260a 083d
000001c0: 3ed9 02bd 2681 503b 8fd0 893d feac 953c
000001d0: 0ce7 8dbd 0ef5 42bc e9e2 56bd 4a43 43bd
000001e0: c513 81bd e6fa febb 9892 193d 2184 9f3d
000001f0: 981f 5c3d 48c6 72bd d487 483d 8a24 bfbc
00000200: 3631 edbb 2ff2 29bd dc13 73bd f65b 80bd
00000210: 2af5 b63c f6fd 023c a6c1 fa3c 083e b1bd
00000220: 69f8 4bbd 13fc 963d 744b 6ebd eae3 d63c
00000230: 9369 a83d b552 9f3d f86d 11bd d0ac 2e3d
00000240: 319f 883d 665f cabc 19e8 2fbd 0978 06bd
00000250: 3430 4fbd aae9 a4bc 281d 18bd c6c2 11bb
00000260: 812d 9e3d a608 e339 b4aa 28bd 3831 773d
00000270: 742f 48bd 7061 7f3d 86b4 c53c 7e3e 58bc
00000280: 3777 20bd 5acd 8fbd 7df3 aebd 1656 16bc
00000290: 1cb4 a7bd 50b5 aabd 153b 8d3d 6e0d a13c
000002a0: 9bcb 833d 1ac0 8ebd 56e7 26bd e897 4e3d
000002b0: 279e 39bd c5c3 a73d b335 aa3d 8d77 b33d
000002c0: 660f c9ba 0635 80bc 6ed2 4cbc 8418 2d3d
000002d0: 7cf5 463d 98ab 373d a81b b4bd 41b7 22bd
000002e0: 7301 44bd c251 57bd e6fe 3ebc 1c48 763d
000002f0: 66a0 c2bc ee2c bd3c a637 7a3a 23aa 2bbd
00000300: 5343 82bd f682 94bd 50d5 82bd 26ee 36ba
00000310: bbb7 86bd 82b2 c93c efbc 26bd c2fd 58bd
00000320: 68d8 6f3d 0694 96bd 1eb2 0e3d ebd7 8dbd
00000330: 2ef6 62bd 58b8 95bd a662 d1bb 0616 113d
00000340: 8f8c 93bd 72e9 883c e63b 243c 3921 55bd
00000350: 0626 2ebd 518d 9fbd 8830 3d3d 24eb 0abd
00000360: d8fc e6bc fe47 ef3c f144 92bd ebb6 a43d
00000370: 6925 a13d 93ff 913d 7df6 853d 26e4 60bc
00000380: 22be da3c d076 3d3d 2624 473c fe8b 783c
00000390: 9091 eebc 1204 08bd de90 ec3c da15 d73c
000003a0: e092 063d 1ccc 6a3d de1f 653c 9b96 a7bd
000003b0: a511 a9bd 2eda 79bc 0ec8 613c 0817 643d
000003c0: 5603 f4bc cfbd 43bd a6c8 f53b 46c1 483c
000003d0: b3e6 9b3d e8ca 443d cdcc 88bd 83c8 993d
000003e0: a288 e6bc 8558 b23d f4e3 72bd d650 fe3b
000003f0: 10ce 21bd 4a88 c73c 1ef0 86bd 265c 503a
0.03879063 -0.009533977 0.023878653 0.007947652 -0.025714386 -0.017130252 0.05596961 0.039305672
-0.0811784 0.08836248 -0.02017365 -0.006002399 -0.06834197 0.02858809 -0.013775153 0.03793569
0.034052566 -0.050385967 0.003536479 -0.08643597 0.055615485 -0.049191367 -0.06966039 -0.049039777
0.030444134 -0.043916248 0.040746167 -0.06386725 0.031617343 0.02848849 -0.08463881 -0.028322082
0.084121294 -0.049746823 -0.0009536318 0.016412128 0.084967755 0.06831396 0.06355659 -0.028992154
-0.08186148 -0.024938252 0.017763022 -0.07017769 0.039456755 0.05351326 -0.014995268 -0.037762262
-0.061450645 0.06625127 0.037704304 0.011080397 0.08095484 0.04821956 -0.03408442 0.08463695
-0.0068465425 0.023481134 0.008464297 -0.081601694 0.054992646 -0.06465231 0.0839035 0.08799101
-0.06359433 0.040239245 0.086505674 0.088102914 -0.024002243 0.05846274 0.0513805 -0.051098775
-0.07774994 0.04657471 0.013570739 0.074405916 0.016484369 0.079099335 -0.07006271 0.013857527
-0.00013769287 -0.06561817 0.065078355 0.030824233 -0.073488384 -0.011949381 -0.043421876 0.013586251
-0.03222406 0.06742977 0.009289777 0.07633657 -0.022781868 0.060232967 0.019861389 0.081075154
0.026566785 -0.08403988 -0.030572638 0.035126545 -0.031106789 -0.049996532 0.015062286 0.06201309
-0.05651743 -0.029902779 -0.07746433 -0.0024935096 -0.036359034 0.016132329 0.06685568 0.033212803
-0.03194546 0.003181526 0.067292325 0.018270966 -0.06928834 -0.011899246 -0.052462492 -0.047671594
-0.06302599 -0.0077813743 0.03749332 0.077888735 0.053741068 -0.059271127 0.04895766 -0.023332853
-0.0072385324 -0.04149073 -0.05934511 -0.0626754 0.0223337 0.007995119 0.030609917 -0.0865441
-0.04979745 0.07372298 -0.058177426 0.026231725 0.08223262 0.07779447 -0.035505265 0.042645276
0.06670988 -0.024703693 -0.042945955 -0.03282932 -0.05058308 -0.020130951 -0.03713718 -0.0022241338
0.07723523 0.00043303258 -0.04117842 0.060349673 -0.04887338 0.062348783 0.024133932 -0.013198493
-0.039176192 -0.070215896 -0.085425355 -0.009175798 -0.0818865 -0.08335364 0.06896035 0.019659724
0.06435319 -0.06970234 -0.040747963 0.050437838 -0.04531684 0.08191637 0.083110236 0.08763037
-0.0015339672 -0.015650284 -0.012501342 0.042259708 0.048573956 0.04484138 -0.087943375 -0.039725546
-0.047852945 -0.052568205 -0.011657452 0.060127363 -0.023758125 0.023092713 0.00095450354 -0.041910302
-0.06360497 -0.07251541 -0.063883424 -0.0006978236 -0.065780126 0.024621252 -0.040707525 -0.052976377
0.05855599 -0.07352452 0.034837835 -0.06925949 -0.055410556 -0.073105514 -0.0063899336 0.035421394
-0.07204544 0.016712878 0.0100240465 -0.052033637 -0.04251673 -0.07790626 0.04618886 -0.033915654
-0.028196737 0.029209133 -0.07142056 0.08042701 0.078684635 0.07128825 0.065411545 -0.01372627
0.02670199 0.046255887 0.012154615 0.0151700955 -0.029122144 -0.033207007 0.028877672 0.026255537
0.032854915 0.05732356 0.0139846485 -0.081830226 -0.082553186 -0.015249772 0.013780607 0.055686027
-0.029786747 -0.047788437 0.007500726 0.012253111 0.07612362 0.04804507 -0.06679688 0.07508948
-0.028141323 0.0870829 -0.059299424 0.0077611012 -0.039503157 0.02435698 -0.065887675 0.00079483015

lstm.weight_hh_l0 f4 [512, 128]
00000000: 44bb 4abd b0f6 c9bc 403e 2d3d 3144 c73c
00000010: f74d 053d 4bf4 a0bd 457d 35b9 560d 9e3d
00000020: cd9b aebd cd1b f3bc 74d9 afbd 4ce4 7d3d
00000030: 91f0 39bd a9c4 1e3d de5e a4bd 0636 9b3c
00000040: a49f b53d 505d 793d aaa9 d33c 889d a93d
00000050: e395 1e3d 989d f53c 15cf 923d 92ae 863d
00000060: 2aa7 8cbb 1ead 96bc a92d 153d 6767 a83d
00000070: 1434 8fbd 1004 8a3d 4010 8abc 5139 55bd
00000080: fabc 9e3d 0b5b 15bd b8a3 973d b035 62bd
00000090: 60e5 a6bd cd14 7c3d 08de cfbc 65e8 863d
000000a0: bb9e 0e3d 1660 a9bd d098 263d 8a8e 03bd
000000b0: 02a5 7f3d 05a9 803d d393 be3d 7393 763d
000000c0: 5791 81bd ce10 88bd 9946 b63d a4c5 93bd
000000d0: 3eab 6cbd 63c2 26bc 9e4b 50bd 4e2f 253b
000000e0: c686 9c3d 68b6 c5bc 8129 60bd 5f57 07bd
000000f0: e074 4c3c ad71 213d 4201 74bd 8d7d 893d
00000100: 9e8f 82bd 6e26 a53c 8b8e 5a3d 4a7b 88bd
00000110: 3c19 6e3d 5506 b3bc a4a2 21bd cb1e 4a3d
00000120: 8419 9e3d c76d 423d 3d0b 833d 0cef 203d
00000130: fb65 91bc 5020 a5bd 5428 8d3c 618f a2bc
00000140: f17b 903c 7337 d9bc 4107 843d 2a97 86bd
00000150: 2cc3 b83d 3cf7 18bd 73c5 f63b 45a4 35bd
00000160: aab9 a03d 069e 193d 4a8a 3c3d 4a1e 3e3d
00000170: 33fc 5ebc 678b 80bd 59c1 2c3c 29c2 a33d
00000180: 5ce5 1cbc f36a f93c cfc9 903c e403 643c
00000190: b88c 94bd 25f7 6bbd a84a 4d3d 281c b2bd
000001a0: f37f 08bd 465a 063c 76f2 003d ad45 f8bc
000001b0: 1b6c a2ba c7ef 70bd 0aa9 86bd bf72 c63b
000001c0: 4bca a5bd 3480 753d f474 c63c 1588 a4bd
000001d0: 6d22 8c3d 7530 6c3d dc97 7bbd c21e 2dbd
000001e0: 9623 043d 8337 45bd daee 89bd e1b9 08bd
000001f0: 9212 30bd 05cf 16bc 037f 163d 53d5 453d
00000200: 4e45 89bd 13c8 8cbd 8ce0 dd3c 4db6 53bd
00000210: ea35 9e3d 5917 3a3c 11ca 7dbd ca57 263d
00000220: dd5a 6f3d 55a7 24bd 3bc5 aa3c 8db1 a03d
00000230: 9d44 88bd d2dc 803a f1e9 903d c7ea 6fbd
00000240: 6c18 a9bd 9557 9dbd 6397 afbc 290b 56bd
00000250: 40f8 a5bd 817b 723b 89ad 643d bd91 cc3c
00000260: b7b9 023d f97e c2bb 88b5 913d 5912 6bbc
00000270: ce89 b33d 506f a63d 782f 793d dca5 0dbd
00000280: 0af9 a33d b29d 473c 3c4d a33d 20e4 c2bb
00000290: f94a 99bd 657c 18bd 96cd 763c d3ec 9cbc
000002a0: 2a06 2dbd 21ac 32bc bf6a b2bc 8a0f c7bc
000002b0: f02c e43c d94e 943c bf1b bb3c 5fb9 6f3d
000002c0: 6660 8e3d 6a08 4b3d 7686 a8bd 1916 313d
000002d0: 82a4 28bd 1602 99bc 33e8 9f3c 0325 f23b
000002e0: 82b9 70bc dca8 60bd ce0a a2bd f189 b23c
000002f0: 50d6 793d b96e 7f3d d749 11bc 5485 c4bc
00000300: fa38 1e3d dcdd 8bbd 3699 2cbd 44e2 f33c
00000310: 9de3 3dbd 9de9 223c 02b7 bfbb 2e61 6e3d
00000320: 45e2 903d db1a b63c 91bc 4d3b 5a5c 363c
00000330: 7ab8 4dbd 128e 593d d899 3b3d bc05 3abd
00000340: d668 a4bb ec3b abbd 2933 4fbd 5d85 a33c
00000350: ecf1 17bd 5456 37bd 9fb2 ccbc 84ff 0f3d
00000360: 1470 c43c 47b8 233d 10cb b43d 31c1 69bd
00000370: 7856 6cbd c0d6 593c 7d37 54bc 870b 5a3d
00000380: 6a30 e43c 11c2 5cbd de44 ac3d fa05 6ebd
00000390: fac3 433d 3125 49bd 3cfb 88bd 8cc9 9ebd
000003a0: 6194 04bd 7102 8c3d 63da d63c c179 ee3c
000003b0: 8bcf 933d 78a0 a13d f947 943b ad16 953d
000003c0: 339d 9f3d de79 293d 1cb2 a93d 1e5f 773d
000003d0: 1afd 98bd bf07 ab3c a359 99bd 8f2a 4c3d
000003e0: 4d9a 05bd 7847 9c3d f658 443d 7211 eb3c
000003f0: d960 f13c 7293 0d3d a9d2 263d bf44 96bd
-0.049494997 -0.024653763 0.042295694 0.024324508 0.032545056 -0.07859095 -0.00017308172 0.077173874
-0.085258104 -0.029676342 -0.08586398 0.0619853 -0.045395438 0.03876177 -0.08025907 0.018946659
0.0886834 0.060880005 0.025837738 0.08282 0.038717162 0.029982373 0.07168404 0.065762654
-0.0042923884 -0.018393096 0.036420498 0.082228474 -0.06992355 0.06739056 -0.016853452 -0.052056614
0.07750888 -0.03646378 0.07404274 -0.05522698 -0.081492186 0.061543275 -0.025374427 0.065872945
0.034819346 -0.0827028 0.040673077 -0.032118358 0.062413223 0.06282238 0.09305539 0.060199212
-0.063265495 -0.0664383 0.08900184 -0.07215431 -0.057780497 -0.010178181 -0.050853364 0.0025205198
0.076428935 -0.02413483 -0.05472708 -0.033042308 0.012479037 0.03941505 -0.059571512 0.067134
-0.06375049 0.020159926 0.053358596 -0.066641405 0.058129534 -0.021853605 -0.039461747 0.049345773
0.077197105 0.047467973 0.06398628 0.039290473 -0.017748823 -0.08062804 0.017231144 -0.019843759
0.017637225 -0.026515698 0.06446696 -0.06571801 0.09021601 -0.037345156 0.007530862 -0.044346113
0.078479126 0.03750422 0.04603032 0.046415605 -0.013609934 -0.06276589 0.010544145 0.079960175
-0.009576168 0.030446505 0.017674355 0.013916943 -0.072534025 -0.057608742 0.050120026 -0.08696777
-0.033325147 0.008200234 0.03148123 -0.030306662 -0.0012391837 -0.05882242 -0.065752104 0.0060561593
-0.08095225 0.059936717 0.02422569 -0.08033768 0.06842504 0.0576634 -0.06142412 -0.04226566
0.0322605 -0.048148643 -0.067350104 -0.033380393 -0.04298646 -0.009204631 0.03674222 0.048299145
-0.06702672 -0.06874099 0.027084611 -0.051687527 0.07725127 0.011358106 -0.061960284 0.040611066
0.058436263 -0.040198643 0.020846 0.07846365 -0.06653712 0.0009831435 0.07075871 -0.05857351
-0.08256611 -0.076827206 -0.021434492 -0.052256737 -0.081039906 0.0036999884 0.05582956 0.024971837
0.031915393 -0.0059355465 0.071147025 -0.014347636 0.087665185 0.081267 0.060836285 -0.034582004
0.08006485 0.012183594 0.07973716 -0.005947605 -0.07485003 -0.037228007 0.015063664 -0.019155895
-0.042242207 -0.010905297 -0.021779416 -0.024299402 0.02785346 0.018104004 0.022840379 0.058526393
0.0695198 0.04956857 -0.082287714 0.043233965 -0.041172512 -0.018677752 0.0195199 0.007389666
-0.014692666 -0.054848537 -0.07912217 0.021794291 0.0609954 0.062361453 -0.008867702 -0.023989357
0.038628556 -0.06829426 -0.0421383 0.029770978 -0.046359647 0.009943393 -0.0058506737 0.058198147
0.070744075 0.022229603 0.0031392912 0.011130417 -0.05022476 0.053114004 0.045801014 -0.045415625
-0.00501738 -0.083610386 -0.0505859 0.019961054 -0.03709595 -0.044760063 -0.024987517 0.035155788
0.023979224 0.039970662 0.088277936 -0.057069007 -0.05769965 0.013295829 -0.012952683 0.05323365
0.027855117 -0.053896014 0.08411573 -0.05811117 0.04779432 -0.049107734 -0.06688544 -0.07753286
-0.032368068 0.06836403 0.026227182 0.029110791 0.0721732 0.07891935 0.0045251814 0.07279716
0.07793655 0.041375987 0.08285925 0.060393445 -0.0747015 0.020877717 -0.074878 0.049845275
-0.032617856 0.07630819 0.047936402 0.028694842 0.029465126 0.034564443 0.040728245 -0.07337331

lstm.bias_ih_l0 f4 [512]
00000000: c9ab 833d e0cd d3bc a4cb 683d b038 40bd
00000010: 55ab 5b3d 9bc0 a13d 153f 8f3d 27c4 9cbd
00000020: 397a 233c 03e5 f4bc 24d4 87bd 85b4 adbd
00000030: d34b e1bc 8362 c3bd 2f4e 343c 42dd a2bd
00000040: dcd2 dfbc 927b 17bd 21f3 603b f632 65bc
00000050: 9759 983d 296e 3a3d f316 2abd caa7 94bd
00000060: 1b53 93bd dd78 95bd 576d 7dbc ceae a3bd
00000070: 9aaa 0bbd b3ce 333d 0a41 30bd e423 3bbb
00000080: eddd 01bd 592f 373d 838f cc3c 2f57 c9bc
00000090: 730b be3b f377 843d 0671 853d 354d b0bd
000000a0: 748f 48bd 1d4f b4bd 233a 6cbc 5a2b 04bc
000000b0: f77b 8bbd 9e0c 0f3d 1062 933d bae1 4bbd
000000c0: c70f bfbd 71ec e7bc 4ef3 f83c ef37 3a3d
000000d0: f966 adbd 58f2 8abd d0a7 c03c bd71 92bd
000000e0: 4932 6dbd d14e a33c c58a c83c fc26 9e3c
000000f0: d8d7 363d 5c47 66bc 1578 09bd a656 bf3c
00000100: a235 97bd 9245 c0bc 3497 1cbd ab55 b6bd
00000110: c37d 2e3d 8d43 31bc 2efb c13a 97a8 edba
00000120: d7f1 a6bd a4bc 8dbd 5128 56bc dd0d 653c
00000130: 29db bcbd df6d 1d3d 10b0 1c3d c0cb 0e3d
00000140: a555 913d ceae a6bd 4c5c debc 3abd 5d3d
00000150: 726d b33d fd8e f03c c646 b9bd 08cd 663d
00000160: 94e3 4dbd eb2d 9d3d 6a55 49bc a9f1 f5bc
00000170: 64e9 7dbc c4a3 b9bd 7f77 9abd 3cd6 943c
00000180: b7a6 d3bc 0008 80bd a5db 54bd 2b91 0d3d
00000190: 5c03 05bd b2dd 31bd dfa2 bbbd 194d 4f3c
000001a0: 2b7d d63b 98bb af3c fd03 4ebd 6e74 1c3d
000001b0: e0f7 a4bd 86cb a9bd 4ef7 8a3d 0852 52bd
000001c0: 77d0 b7bd 0fa8 7b3d 6572 8e3d 6c81 9b3d
000001d0: 96b8 6bbd bcfb 133d 27cb 6fbd a2ce a3bc
000001e0: 3d32 083d e43e f8bc 2f56 88bc 1284 c2bc
000001f0: 9e23 6a3c 32ad 433d e25e 673c 7c4f 693c
00000200: adb4 f4bb 331e 873d bd3f 7e3c 07ac 6dbd
00000210: 52b9 9e3d 6e64 afbc 1dde 863d 3e8b 9fbd
00000220: 87e4 62bb c3df aa3d f54a 9b3d a403 f3bb
00000230: 6c55 97b9 0d94 343d 8338 2bbc 5ce5 95bc
00000240: cd50 43bd 182a 8f3d fac8 6a3c 69b5 2e3c
00000250: 7bce 813c 7e7f 283d 1caa 943c 9751 35bd
00000260: 889c 44bd 0394 0ebd 9ae0 46bd 80d3 803d
00000270: d68b 87bd f0fd 15bd 9a36 533d a6b5 86bd
00000280: b65f 51bd 009b 8a3d d7ce 213d 894c 6abd
00000290: 0da6 21bd 94b5 d33b ea7f 323d c96f 1fbd
000002a0: 1c7f 6bbd 0968 4a3d bbca 653d d934 2bbc
000002b0: 41c6 debc d67c 87bd 5050 1eb8 cc9f 9f3c
000002c0: c188 2cbc 5d41 20bd a930 ca3c 3318 a0bd
000002d0: 0bc5 783d f7c0 893c 5e84 a0bd 6d70 82bd
000002e0: 1ac5 703d b9bb 9f3d 3e8b 60bd dfd6 fa3c
000002f0: 0a02 c7bc b40d 5ebd 07a0 b4bc 9a32 afbd
00000300: ee05 9c3d 755a 0f3d b7fd a3bc 9cb5 6cbd
00000310: 7c5b 3f3d 55e2 293b ea97 7b3d f813 a83d
00000320: faa7 583d cc2e 883d 20a7 1c3d c0c9 5c3d
00000330: 1f00 c73c 9066 a03c 1ea9 0a3d 9edd f2bc
00000340: 03ba 713d 6fc3 a8bd 1177 e6bc 8461 84bd
00000350: a210 773c 9243 48bc a3da 22bd af4a 8f3b
00000360: 0b8e 613d 7980 213d 80fa 5a3d 7aeb 9fbd
00000370: ebae 97bd 1e7e 30bd baec ea3c 4181 6bbd
00000380: 08e1 6bbc d4ce c1bb 27f3 afbd b20d af3d
00000390: b84b 4c3c cf26 86bc 4826 a3bd 348f 093d
000003a0: 4ccc ffbb 85b0 59bd 82d0 803d 048d 943d
000003b0: 83c0 463a a0ec 78bd 4bbe 693c 75fc e9bb
000003c0: d7ce 7f3d 889a 3d3d 1b12 4bbd a0eb 25bd
000003d0: 308b 85bd 3cc0 eb3c 09db b0bd 13b2 aabd
000003e0: 231e 20bd 7fc2 923d 4201 5e3d 852f 5abc
000003f0: 52ae 673d 3aa9 67bd 6902 013d d781 7f3d
0.0642925 -0.025855005 0.05683483 -0.04692906 0.05363019 0.07898065 0.06994454 -0.076546006
0.009977871 -0.029894358 -0.066322595 -0.08481697 -0.027501976 -0.09540274 0.011004969 -0.07952358
-0.027322225 -0.03698308 0.0034324604 -0.013989201 0.07438963 0.045515213 -0.041525792 -0.07258566
-0.071935855 -0.072984435 -0.015467963 -0.07992326 -0.034098245 0.043898296 -0.043030776 -0.0028555328
-0.031705786 0.04472289 0.024970775 -0.024577705 0.0057997047 0.06468191 0.06515698 -0.08608476
-0.048964933 -0.08804152 -0.014418158 -0.008066976 -0.06810754 0.034924142 0.07196438 -0.049775817
-0.09329181 -0.028310986 0.030389454 0.0454635 -0.08466906 -0.06784505 0.02351752 -0.071506
-0.057909284 0.019935044 0.024480233 0.019305699 0.04463944 -0.014055099 -0.033561785 0.023356747
-0.073832765 -0.023470674 -0.038230136 -0.089030586 0.042600404 -0.010819328 0.0014799589 -0.0018131909
-0.08151596 -0.06920746 -0.013071136 0.013980356 -0.09221489 0.03843486 0.038253844 0.03486228
0.070964135 -0.0813881 -0.02714362 0.05413554 0.087611094 0.029365057 -0.09046702 0.056347877
-0.050265864 0.07674774 -0.012288431 -0.03002246 -0.015497539 -0.09064439 -0.07542323 0.018168561
-0.025836332 -0.06251526 -0.05196728 0.03456227 -0.032473907 -0.043424316 -0.091619246 0.012652659
0.006545683 0.021451756 -0.050296772 0.038196974 -0.08055091 -0.08290772 0.06785451 -0.051347762
-0.089753084 0.06143957 0.06955413 0.07593045 -0.05754908 0.036128744 -0.05854335 -0.019995991
0.033251036 -0.030303426 -0.016642658 -0.023744617 0.014290718 0.047772594 0.014121743 0.014240142
-0.0074678273 0.06597557 0.015518126 -0.058025386 0.07750191 -0.021410193 0.065853335 -0.0779023
-0.0034621076 0.083434604 0.07582656 -0.0074162055 -0.0002886461 0.044086505 -0.010450485 -0.018297844
-0.04768448 0.069904506 0.014330143 0.010663369 0.015845528 0.04113721 0.01814752 -0.044267263
-0.048000842 -0.034809124 -0.04855404 0.062903404 -0.066184685 -0.036619127 0.051565744 -0.065776154
-0.051116668 0.06767845 0.0395039 -0.057201896 -0.039465 0.006460855 0.04357902 -0.038924966
-0.057494268 0.049415622 0.056101542 -0.010449612 -0.027194144 -0.066156074 -3.7744932e-05 0.019485377
-0.010530652 -0.039124835 0.024681406 -0.07817116 0.06073479 0.016815646 -0.07837747 -0.063691
0.05878172 0.07799477 -0.05482029 0.030620037 -0.024292964 -0.054212287 -0.022048963 -0.08554573
0.076183185 0.034998376 -0.020018442 -0.057790384 0.046718106 0.0025922258 0.061424173 0.08206934
0.05289457 0.06649551 0.03824532 0.05390334 0.02429205 0.019580156 0.03385269 -0.029646691
0.059015285 -0.08240401 -0.028132947 -0.06463912 0.015079649 -0.012223141 -0.03975929 0.0043729167
0.055067103 0.03942916 0.05346155 -0.078085855 -0.0740641 -0.043089025 0.028677333 -0.057496313
-0.014396913 -0.0059145484 -0.085912995 0.08547534 0.012469225 -0.016375927 -0.07966286 0.033583835
-0.0078063365 -0.053146858 0.0628977 0.07253459 0.0007581787 -0.06077254 0.014266561 -0.007140691
0.062453117 0.04628995 -0.049577814 -0.040507913 -0.065206885 0.028778188 -0.08635528 -0.08334746
-0.03909124 0.071660034 0.05420042 -0.013316994 0.05656273 -0.05655787 0.03149644 0.062379684

lstm.bias_hh_l0 f4 [512]
00000000: 295f cdbc 60ec 803d d2ca 8bbd 8f58 9ebd
00000010: 845d 1dbd 4417 9dbd cd57 973d 80af 3b3d
00000020: 98fd ea3c 5141 b63d b44a 153d 12ac 4dbc
00000030: a2ea 223d eb7e 89bd 1ac9 4c3d 0512 283d
00000040: e1e9 85bd dae8 183c d698 a83d ed03 543d
00000050: e9a1 ad3b 29d7 663d 99d6 d33c 9db2 33bd
00000060: d624 97bd 5127 673c 9d4e 003d 33bf 81bd
00000070: 2f93 583d 2d9a a2bd 445c c0bc 9fc9 24bd
00000080: a32d a1bd 41a2 9abd 38f0 bd3d 7cd7 753d
00000090: 974c 36bd 88bd 9bbc 5ca7 89bd 975b c73c
000000a0: 4807 ecbc 6f40 453d b37b 77bb db6e b4bd
000000b0: 3ad5 96bd 5ef3 4a3c 1112 eabc 6429 513d
000000c0: ab58 883d 4b77 a53d 4650 293a 30dd 1a3c
000000d0: 7fbc e3bb bcbc 713c 5751 573d fc0e f73c
000000e0: 39b6 99bd 07de 92bc 9ebe 05bd fe27 b8bd
000000f0: b4da d83c 66e1 5b3d e5a8 1fbb 47e4 9ebd
00000100: 8349 debc 6ccc 8dbd 5a26 3a3d 7a45 0bbd
00000110: 9f68 313d 2b3b 293c 37e3 b4bd 8085 a13d
00000120: 230e 98bd 7937 8abc 89e5 47bd 9a43 92bd
00000130: 693a b43b 4efc c0ba 835d 8f3d 2727 0ebd
00000140: c70b bb3d 3059 d43c 3cf2 7c3d 18d3 963d
00000150: b8fb 31bd 9e44 3abc 689c 66bc b3b0 a0bd
00000160: b4c7 b73c 6890 0a3c adce 9c3d 8440 173b
00000170: b62f 043d c283 acbd 06ec d63c 4256 38bd
00000180: 8337 7b3c c81e adbd 4b52 72bd 6f34 1a3d
00000190: 28c5 a7bd 6251 8bbd 9ff4 afbd 27ae 41bc
000001a0: c492 2a3d a2cf 9ebd fadb d53c a923 14bd
000001b0: c5cb a63d 419d f73b 9a25 773d 8be8 a63d
000001c0: 5c78 88bc c483 5cbc d730 943d 76d7 853d
000001d0: 290c 9d3b bf69 b8bd 8ca1 29bd eaa5 ab3c
000001e0: 9f59 88bd 86d3 d8bc 88b4 123d 99db 043d
000001f0: 3201 203c 7989 eabc 881d f7bc b915 09bd
00000200: 98f8 0e3c 5bef ae3d 7bd0 87bd 315b 9dbd
00000210: 88b8 03bd 900d 143d df65 943d a6bf 883d
00000220: bd08 6dbd 47e3 fabc 600d 8cbd b04a fc3c
00000230: 6526 813d 7b35 99bd 453f 293c e6eb 8bbc
00000240: 56e9 abbd 3a19 1fbd f06a 393d a6bc a63d
00000250: 1e0d 18bd 9eed 0c3d 5298 f53c 36cf 39bd
00000260: d87e 993c 56e8 1cba 1568 83bd e87e aebb
00000270: 125b 4fbd 090c c4bb 1e5c 3e3d aae9 e3bc
00000280: a6c9 92bd 512f 1e3d e83c 96bc 1b40 0d3d
00000290: fb7f b03d 2d1f b0bd 1a31 9a3d 4755 6e3d
000002a0: 850b 8e3d c68c 88bc 3afb 29bb 4c24 df3b
000002b0: 6710 493c b17a 52bd b2ab 8abc de50 a53d
000002c0: 8031 163d ddf5 243d c744 0fbd 8a2e 3e3d
000002d0: 17f6 1c3d 6abe 12bd 06fe ec3c 337f a43d
000002e0: d2cf 76bd 64ba 373d 64d7 2dbc 6acc 31bd
000002f0: 694e 7bbd 5f3a ee3c 5c76 b0bd 702d 6c3d
00000300: fbfc 72bd 0c8a babc bc29 4dbd 00ba 803c
00000310: bafa 1ebc 3c65 a6bd be2f cf3c 48dc e53c
00000320: 8ef2 613d 9299 263d 5b2a 01bd f8bf c4bc
00000330: 80dc e63b 743f 86bd 8274 403d 9c70 37bd
00000340: 1779 5b3d 4bac 0dbd d01f 87bd d2af adbd
00000350: 4cdc ddb9 2d40 83bd ef52 903d 82b4 81bd
00000360: 8adb a53d 5176 1a3d 9ff2 b4bd 0d04 8fbd
00000370: 7c40 7d3d f0b2 e0bc 4e26 22bd 8f08 54bd
00000380: 471d 4dbd 58e7 b03b 0613 413d 36de d83b
00000390: a297 49bc e619 52bc 3448 f8bb e8b0 283d
000003a0: 0994 f1bc 5333 703c 860d 943d e6d2 a23d
000003b0: 6c32 e9bc e82a 673d ff13 a53d 7234 883b
000003c0: 66da 193d 6615 bdbc f2fb a13d 1b6c 18bd
000003d0: 1109 9fbd 6041 81bd caa9 1abd fbb7 05bd
000003e0: 3aac bdbc 9cb7 40bb 2e47 513d b923 a1bd
000003f0: 6de0 973d e4f7 91bc 8d81 773d 2d13 083c
-0.02506979 0.06295085 -0.06825794 -0.07731735 -0.03841926 -0.07670453 0.073897935 0.045821667
0.028685376 0.08899177 0.036448196 -0.012553232 0.039774545 -0.06713661 0.049996473 0.04103281
-0.065387495 0.00933286 0.08232276 0.051761556 0.005298842 0.056357536 0.025859164 -0.04387151
-0.07380073 0.014108495 0.03132497 -0.063352965 0.05287474 -0.07939563 -0.023481496 -0.040231343
-0.07870033 -0.07550479 0.09274334 0.060019955 -0.044506636 -0.019011274 -0.067213744 0.024335666
-0.028812066 0.04815715 -0.003776294 -0.088102065 -0.073648885 0.012387125 -0.028573068 0.051064864
0.06657537 0.08079394 0.00064588 0.009452149 -0.0069499607 0.01475447 0.052567806 0.030158512
-0.07505459 -0.017928137 -0.03265249 -0.08992003 0.026471473 0.053681754 -0.0024362144 -0.07758384
-0.027134662 -0.06923756 0.04544673 -0.034001805 0.043312665 0.010329048 -0.088324 0.07886791
-0.07424571 -0.016872155 -0.048802886 -0.071418 0.005500127 -0.001472363 0.07000258 -0.034705307
0.09133106 0.025921434 0.06175445 0.07364482 -0.04345295 -0.011368899 -0.014075376 -0.07846203
0.022434093 0.008457281 0.07656608 0.0023079226 0.032272063 -0.08423568 0.026235592 -0.045004137
0.015333059 -0.08453137 -0.059160512 0.03764766 -0.081919014 -0.06802632 -0.0859158 -0.011821306
0.041643873 -0.077544466 0.02610587 -0.03616682 0.08144335 0.007556588 0.060338594 0.08149823
-0.016658954 -0.01345915 0.07235878 0.065352365 0.0047927094 -0.090045445 -0.04141383 0.020953137
-0.06657719 -0.02646805 0.0358167 0.032435987 0.00976591 -0.028630005 -0.030165449 -0.033467982
0.008726262 0.08541747 -0.06631561 -0.07683409 -0.032158405 0.036145747 0.07245993 0.06677179
-0.05786966 -0.030625952 -0.068384886 0.030797333 0.06306151 -0.07480904 0.010330026 -0.017080259
-0.08394115 -0.038842417 0.045268 0.081414506 -0.037121885 0.034406297 0.029979859 -0.045363627
0.018737242 -0.00059855485 -0.064163364 -0.005325187 -0.05062396 -0.00598288 0.04647457 -0.02782138
-0.07167368 0.038619343 -0.01833959 0.034484964 0.0861816 -0.08599696 0.07528897 0.058186796
0.06935791 -0.016668689 -0.0025937096 0.006809747 0.012271977 -0.05138654 -0.016927574 0.08072065
0.0366683 0.040273536 -0.0349777 0.0464311 0.038320627 -0.035826124 0.028929722 0.08032074
-0.060256787 0.04485549 -0.010610435 -0.043407835 -0.061354075 0.029080568 -0.08616325 0.05766052
-0.059323292 -0.022770904 -0.05008863 0.015713692 -0.009703333 -0.08124778 0.02529132 0.02805914
0.05516296 0.0406738 -0.031534534 -0.02401732 0.0070453286 -0.065550715 0.04698611 -0.044785127
0.053582277 -0.03458814 -0.06597865 -0.08480801 -0.0004231654 -0.06408725 0.07047068 -0.06333257
0.080985144 0.03771049 -0.08835339 -0.069831945 0.061829075 -0.027429074 -0.03958731 -0.051765975
-0.05007675 0.005398672 0.047137283 0.0066182865 -0.0123042185 -0.0128235575 -0.0075769667 0.041184336
-0.029489534 0.014660674 0.07229142 0.07950382 -0.028466426 0.056437403 0.080604546 0.0041566426
0.037561797 -0.023081493 0.07909383 -0.037212472 -0.07765401 -0.063112974 -0.03775958 -0.03264616
-0.023153413 -0.0029406315 0.051093273 -0.07868142 0.07415853 -0.017818399 0.060426284 0.008305353

lstm.weight_ih_l1 f4 [512, 128]
00000000: d1a0 bd3c 3451 babd a587 433d 5655 66bd
00000010: 79a0 b1bd 08e6 173d ea03 a93b aa06 833d
00000020: 8a7c 0b3d ac11 9c3c 542c ad3d 12e6 db3c
00000030: 563e 743d 86e2 163d e5ca 9b3d dcf0 a6bc
00000040: 8ec0 203d ed57 a3bc a514 5e3d ed87 0abc
00000050: e55e a1bb 0eb6 67bd 6489 033c 1ea3 9abd
00000060: bd22 2f3d 83a5 9d3d 444f 8dbd b1d3 c13c
00000070: e8cc 9f3d 8fc5 ad3c 8ca1 cb3c 5309 34bd
00000080: 53ff 83bd a840 88bd d566 74bd cd84 dc3c
00000090: fc1a 6fbd 5208 3d3c f4c7 983c 58cc a1bd
000000a0: 3a7e f7bb 5592 073d a282 a83c 4f98 97bd
000000b0: f676 483d cf97 77bd 2fbf 8bbd 8dd8 10bd
000000c0: c8db b13d 25b2 c53c a746 6c3b 4d1b aebd
000000d0: 382b 813d 8b49 9cbd 2c4c abbd 4b1e 613d
000000e0: 7822 8a3d 2c1e 103d 0f77 973d 834b c13c
000000f0: daca 6cbd a8f7 3fbc 43a9 96bd 824c 1c3d
00000100: 8623 413d 98c8 b93d 1df7 87ba ac2d 5a3c
00000110: 6ddd 9d3d 9ea1 10bd 889f b7bd 2e14 e13a
00000120: 2628 babd 2e8d bf3c 3975 143d cb73 80bd
00000130: 8830 dd3b fddf 6a3d 2e67 b73c caac ac3d
00000140: 5550 94bd 5fcf 89bd f834 a13d bda4 623c
00000150: f2b4 2b3d 17ed 453c 60f5 423d d7c6 53bc
00000160: 83cb 003c 73db 303c befa 09bd b157 99bd
00000170: 05bf 2d3d 2d0e 13bd a6ad a2bd 94d3 473d
00000180: 3911 463c ad20 e4bc 8445 71bd 815e 5dbc
00000190: f299 2abc a35b 923d 302d 383d 3d1e 7abd
000001a0: 5466 2b3d d174 2d3d 598b 6a3d a8e1 2c3c
000001b0: ef9d b83d 31f6 36bd b830 89bb 8174 8d3d
000001c0: 23d3 843d ad02 1b3d eea8 83bd 1704 803d
000001d0: ba9c 6abd 1122 623c a0d7 65bd 043a 77bc
000001e0: e246 533d 0357 a33c d8c4 8e3d 2ce1 8bbd
000001f0: 3ac8 f3bc e74f 7c3c ecfb 473d 24ce f0bc
00000200: 01f4 27bc e89d ad3d 402c a0bd cc4e 28bc
00000210: f7fd fd3c 919a 823d 0a47 93bd 7500 8cbd
00000220: 32d5 b73c e664 d3bb 9d70 82bd c345 b03d
00000230: 21f3 383c 8a71 a33d 213c 6a3d a25a 973d
00000240: 637c 9ebd 6d0b 853c 62c8 f73c 33c9 a4bd
00000250: 7a59 a43d b0d2 af3d 41c9 96bc 2cd3 b43c
00000260: 698b 7cbd 7432 3d3d 850e a8bd 9bef 2bbd
00000270: fb56 83bd 071b 9c3d c281 6c3d afa2 613d
00000280: 2dc3 883c 7526 0cbd c3f6 243c b8cd 46bd
00000290: 62f7 29bc 9407 1a3d c3c4 55bd 1e87 a23d
000002a0: c1a2 1abd 5418 cc3c 1b05 6a3d 1f17 95bd
000002b0: 79ed 44bd 1a8e 2a3d 020e f63a 88a7 f2bc
000002c0: 0361 8dbc 2657 8d3d 4377 60bb cb30 18ba
000002d0: e728 14bd 9989 413d 48c7 ad3d 6cc2 293c
000002e0: 0be9 20bd a55a c6bc 2efc bd3c ceef a63b
000002f0: 1369 823d 44c2 003d bbc9 8d3c ceda 5bbd
00000300: 86bc 00bc 8434 923c 04cc 3fbd f3e0 bd3c
00000310: a9ea 87bd 76a0 9abc c745 fabc 948a 7c3d
00000320: c926 533b 3690 b53d d7f6 86bd e4b3 82bb
00000330: 3929 92bd c913 9fbd 791f 4d3d 7806 acbd
00000340: 56e7 373d e780 aa3d dad7 f83c 9691 ebbc
00000350: fadd 3dbd 0331 fdbc 3c5f 1e3d 668a 493d
00000360: 4b27 82bd fa6b 9bbb 2155 283d d241 443b
00000370: 9feb a6bd 980e 3e3c 1fac a4bd dd16 2f3d
00000380: 7d9b 843c dcf9 783c bffa 87bd 3a88 693d
00000390: 6ad5 153d 5973 843d 6589 c3bc a934 113d
000003a0: 8340 a93d 1ad7 1ebc fa9c 58bc 5b1d 86bb
000003b0: 7c9e 0dbd dc16 54bd 082f 1abd f4e4 98bc
000003c0: a936 14bd 5469 523d 6b43 093c b2fb 003c
000003d0: e4e7 873d c034 b13c 9e1e a7bd 198b 42bd
000003e0: f157 0dbd 2a82 93bd a11e 083d c8b5 673d
000003f0: d24a 6ebd 703a 8d3d ad5a 6c3d 99b2 993d
0.023147972 -0.090975195 0.047736783 -0.056233726 -0.08673186 0.03708461 0.0051579373 0.063977554
0.034054317 0.019051395 0.084557205 0.026843105 0.05962976 0.036837123 0.076070584 -0.020378523
0.039246134 -0.019939387 0.054218907 -0.008455259 -0.0049246424 -0.056570105 0.008028362 -0.075506434
0.04275774 0.076975845 -0.06899884 0.023660513 0.07802755 0.021212367 0.024857305 -0.043954205
-0.064451836 -0.06652957 -0.05966838 0.026918793 -0.058375344 0.011537628 0.018650033 -0.079003036
-0.007552889 0.033098537 0.020570103 -0.074020974 0.048941575 -0.06044751 -0.06823575 -0.03536277
0.08684498 0.024132797 0.0036052854 -0.08501301 0.063070714 -0.07631215 -0.08364138 0.05496053
0.06744856 0.035185024 0.073957555 0.023595577 -0.05781064 -0.011716761 -0.07356503 0.0381589
0.04715302 0.09071463 -0.0010373328 0.013316553 0.07708249 -0.03531038 -0.08965975 0.0017172152
-0.09089689 0.02338275 0.036244605 -0.06272086 0.00675017 0.057342518 0.022388067 0.084313944
-0.072418846 -0.06729006 0.07871431 0.013833222 0.04192061 0.012080452 0.04759729 -0.012925825
0.007861021 0.010794508 -0.033686392 -0.07487429 0.0424185 -0.03590219 -0.07943277 0.04878576
0.012089067 -0.027847612 -0.058904186 -0.013511301 -0.01041268 0.071463846 0.04496497 -0.061063994
0.041845635 0.042347733 0.0572618 0.0105518475 0.090144984 -0.04466838 -0.004186716 0.06906987
0.06485584 0.03784435 -0.06428705 0.0625078 -0.057278372 0.013802067 -0.05611384 -0.015089516
0.05158127 0.019938951 0.06971139 -0.068300575 -0.029758561 0.01539991 0.048824236 -0.02939517
-0.010251046 0.08477384 -0.0782094 -0.010272693 0.031004889 0.063771375 -0.07191284 -0.06836025
0.022440527 -0.006451237 -0.063691355 0.08607056 0.011288435 0.0798064 0.05718625 0.07390334
-0.07738569 0.0162408 0.030246917 -0.08046188 0.08024879 0.08585107 -0.018406512 0.02207335
-0.06165639 0.046190694 -0.082058944 -0.041976552 -0.064130746 0.076223426 0.057740934 0.055086788
0.01669463 -0.034216363 0.010068598 -0.048536032 -0.010373922 0.037604883 -0.0521896 0.07935928
-0.03775287 0.024913944 0.057133775 -0.072798006 -0.048078034 0.041639425 0.0018772485 -0.0296209
-0.017258173 0.06901388 -0.0034250773 -0.00058056106 -0.03617182 0.047250364 0.084852755 0.010361295
-0.039284747 -0.024213145 0.023191538 0.005094505 0.063676976 0.031435266 0.017308107 -0.053675465
-0.0078574475 0.017847307 -0.046825424 0.023178553 -0.06636555 -0.018875342 -0.03055085 0.061655596
0.0032219163 0.08865397 -0.0659005 -0.00398873 -0.07136769 -0.077674456 0.050078843 -0.08399671
0.044898354 0.083253674 0.030376364 -0.028755944 -0.04635427 -0.03090716 0.03866504 0.049204253
-0.06355151 -0.0047430964 0.04109681 0.0029946459 -0.0815041 0.011600159 -0.08040642 0.042746413
0.016187424 0.01519629 -0.06639623 0.05701468 0.03658048 0.06467313 -0.023869226 0.03545061
0.08264258 -0.009694839 -0.01322102 -0.004092855 -0.03457497 -0.051779613 -0.03764251 -0.01866386
-0.03618494 0.05136998 0.00837789 0.007872509 0.066360265 0.021631598 -0.08160137 -0.047495935
-0.034507696 -0.07202561 0.033232335 0.056569844 -0.058176823 0.06895912 0.057703663 0.07504768

lstm.weight_hh_l1 f4 [512, 128]
00000000: 95a4 83bd da8f 9ebd dc9a 8e3d 1ac7 a8bd
00000010: 03b7 7b3c 8008 82bc 766a 72bc 2013 8ebc
00000020: 8093 c6bc cf2d 75bb 25bf 3c3d bf75 11bd
00000030: 5909 693d 92b1 a8bd 6a51 a5bd 8aa5 823d
00000040: 3c0c 993d fe68 823d a155 a23d e122 893d
00000050: 3c91 0e3c a58c 9bbd 4b92 05bd d051 49bd
00000060: e87d 54bd 94c2 5d3d 4347 7d3c 2db1 bf3c
00000070: 298f 863d be9f b9bc 15ec c5bc 0bb2 143d
00000080: 5883 34bc 4346 c5bc 3f0b 1f3a 2240 5a3d
00000090: baf8 8d3d f718 91bd 431e 9d3d 656c 84bd
000000a0: 6e01 4abd 4414 ab3c 0e28 ec3c 2932 5dbd
000000b0: 1179 933d 825b 8c3b dd24 42bd fac2 2a3d
000000c0: 537d acbd 6ab6 a43d 1d75 083d ddde 06bd
000000d0: 0124 733d bcf4 a1bc d2d5 b03d 5344 a4bd
000000e0: 8a9a 1d3d 0e5c 783d 4d7b 4abc 326c f93c
000000f0: 88eb 163d 4746 33bd 0773 3a3d d891 ddbb
00000100: f9ee f1bc ea37 b03d 5341 803d 4050 64bd
00000110: 16d7 a3bd 62f1 6e3d cd7c a63d b131 b6bc
00000120: 564e 31bd 6e33 86bd 69ee 413d 5e50 3d3d
00000130: 5220 14bd 2fe9 8c3d e6b4 043d ce91 73bd
00000140: 23a8 13bd 17c4 8a3c 512b 153d 5918 6abb
00000150: 5090 433d e26e 6fbd dcb5 52bd 45de 6bbd
00000160: 2ec8 aabd 3fbf 1f3d d3fd 7ebb bc72 063d
00000170: cca8 8b3c f487 673d 6949 a5bd 6e63 7c3c
00000180: e0e8 a3bd 7bf5 2e3d 7704 0c3d 5214 bb3c
00000190: 36df 063d b00a 003d 7b5b fa3c 1316 453d
000001a0: 4111 be3c 80fd 483d ac6c 8a3d 43d9 ecbc
000001b0: b940 b6bd 4a33 a2bd d18a 7dbd ef1b afbc
000001c0: 0c2b 903d 79e0 88bd 0efa 193d 8ea8 04bd
000001d0: 0038 51bd a6d6 d23a 3062 e2bc 4d96 9a3d
000001e0: 8cfb 06bd 591e 4a3a 55b6 a3bd d6f5 073d
000001f0: 3c78 f7bc bed2 d03c f729 7b3d 8d51 97bd
00000200: 4318 94bd 3c38 843d a6ec 82bb f67e 8f3d
00000210: 4d9c a03c bacd 4d3c b13c 14bd 2fa6 a03d
00000220: 4dc5 1e3d c052 90bd 5013 013d 037a d53c
00000230: 32db bb3d 5efe 05bd 7cd2 953d 1661 b13d
00000240: c858 863d b6d7 0fbd ea6f 64bc 2e4d 903d
00000250: 77e8 26bd 0fea 6abd 0b15 463d 9857 303c
00000260: 41f3 07bd 2df7 cd3b bc3e 1d3d e09f b4bd
00000270: bbaf 303c 5154 b7bd 29d7 37bd 41fd 7b3d
00000280: 6ba3 ad3d 7019 033d e888 92bd 5667 ae3d
00000290: a195 e6bc f9f3 b53c c0ba 703b b9f4 51bd
000002a0: a0dd 083c da7d 36bc f5dd 503d 5cda 5fbc
000002b0: b4c7 0c3d 8646 a33d faee 2a3d ed77 033d
000002c0: d2be 673d 0c3f 793d 8b61 e6bb 3995 423d
000002d0: 715b 8e3d 8a08 7bbc 2a1d 583d e49a 7bbd
000002e0: bdd5 62bd 5b2d bfbc dcef 893b d14c b1ba
000002f0: 42a5 ab3d 65d7 4abd 6a6a ad3c e585 a43d
00000300: 1c71 0f3d f24a 70bd d9f9 ac3c e4cf babc
00000310: dfb7 833d 3451 b2bd 5d8f 943d d9c2 9dbc
00000320: cc0f 243d 7583 923d 6fe7 debb b11a a0bd
00000330: 67a7 643d 1192 993d 8fa6 dc39 2170 70bd
00000340: b573 57bc 4c37 ebbc f5b7 8f3a ab7e 733d
00000350: fb13 213c 8732 cd3c ad11 9fbd 92c5 8a3d
00000360: 9e39 adbc adfe 4ebc 2119 593d f753 74bd
00000370: ae64 84bd 1072 943d eeac b1bd 18c3 9b3d
00000380: 7f21 2bbd d4d1 3cbd aa1b b4bd 4c9e f33c
00000390: 67bd 733d b527 cb3c a5c2 89bd 8f7f 163c
000003a0: 82a8 b63b 6b90 56b9 dc44 8a3d f2d3 0f3d
000003b0: 5c68 2c3d d020 97bd 337a a03d 6e3f 58bd
000003c0: 6298 6bbd fdb6 c2bd 174a 9d3d e6e8 553d
000003d0: 39a9 223d 1338 3fbd 5c52 22bc 857c b5bc
000003e0: a7d9 34bd 5f5e abbd 049a e1bc d9ea b6bc
000003f0: ca29 923c 54b6 91bd 7b9e 983d 5a4a 93bc
-0.06427876 -0.07742281 0.06963131 -0.082411006 0.015363458 -0.015873194 -0.01479589 -0.017343104
-0.024240255 -0.0037411337 0.046080727 -0.035512682 0.05689368 -0.08236994 -0.08072169 0.0637923
0.07473037 0.06367682 0.07926489 0.06696106 0.008701619 -0.07595185 -0.03261022 -0.049150288
-0.051877886 0.054140642 0.015458885 0.023399914 0.065702744 -0.022659179 -0.024160424 0.036302608
-0.011017643 -0.024081355 0.00060670445 0.053283818 0.069322065 -0.0708484 0.076717876 -0.06465987
-0.04931777 0.020883687 0.028827693 -0.054002915 0.07200826 0.0042833695 -0.047398437 0.04168985
-0.08422341 0.08042605 0.033314813 -0.032927383 0.059360508 -0.019770019 0.08634533 -0.08020844
0.038477458 0.060634665 -0.012358499 0.0304471 0.036845714 -0.043768194 0.045519855 -0.0067617707
-0.029532896 0.08604415 0.062624596 -0.055740595 -0.08000009 0.05833567 0.081292726 -0.022240492
-0.043287598 -0.06552778 0.047346506 0.046219222 -0.036163636 0.06880414 0.03239908 -0.059465222
-0.03604902 0.016939206 0.036418263 -0.0035720079 0.04774505 -0.058455355 -0.051442966 -0.05758502
-0.083389625 0.039000746 -0.0038908615 0.032824263 0.017048262 0.05652614 -0.080706425 0.015404565
-0.08003402 0.042714577 0.034183946 0.022836838 0.032927714 0.031260192 0.0305612 0.048116755
0.023201587 0.04906988 0.06759009 -0.028912192 -0.088990636 -0.07919939 -0.061899964 -0.021375624
0.070394605 -0.0668344 0.037591986 -0.03238731 -0.051078796 0.0016085699 -0.02763471 0.07548199
-0.032954738 0.00077102106 -0.079937615 0.03319343 -0.0302087 0.025491115 0.061319318 -0.073886015
-0.0723119 0.06456038 -0.003995496 0.07006638 0.01960578 0.012561256 -0.036190692 0.07844197
0.03876238 -0.07047033 0.03151256 0.026059156 0.091726676 -0.032713287 0.07315537 0.08661096
0.065599024 -0.035117827 -0.013942698 0.07045971 -0.04074904 -0.057352122 0.048359912 0.0107630715
-0.03319097 0.006285569 0.038389906 -0.08819556 0.010784085 -0.08951629 -0.044882927 0.06152082
0.08478435 0.03200668 -0.07155019 0.085158035 -0.02814752 0.022211062 0.0036732405 -0.051258776
0.008353621 -0.011138404 0.050992925 -0.013662901 0.03437014 0.07972436 0.041731812 0.032096792
0.056578465 0.06085114 -0.007030671 0.04750559 0.06951035 -0.01532186 0.052762188 -0.061427012
-0.055379618 -0.023337057 0.0042095017 -0.0013526921 0.0838113 -0.049521822 0.021168906 0.08033351
0.03501998 -0.058665223 0.02111523 -0.022804208 0.06431555 -0.087068945 0.07253907 -0.01925795
0.040054128 0.0715398 -0.0068024914 -0.07817591 0.05582371 0.07498563 0.00042085766 -0.058700684
-0.013150145 -0.028712891 0.0010964858 0.059446972 0.009831424 0.025048507 -0.07767043 0.06775965
-0.021145638 -0.012633962 0.05300248 -0.059650388 -0.064645156 0.07248318 -0.08675562 0.076055706
-0.04177999 -0.046098545 -0.08794339 0.029738568 0.0595068 0.024799207 -0.067265786 0.009185686
0.005574287 -0.0002046243 0.06751415 0.035114236 0.042091712 -0.07379305 0.07835808 -0.052794866
-0.05751837 -0.095075585 0.07680147 0.052224062 0.039712165 -0.046684336 -0.009907331 -0.022154102
-0.044152882 -0.08367609 -0.02753926 -0.022328781 0.017842192 -0.071148545 0.07452103 -0.01797979

lstm.bias_ih_l1 f4 [512]
00000000: fd9a 613d a54e 0abd 8d0f b13c 3e3c 9ebd
00000010: 5080 80bd ff2c f2bc 02c5 633d 6cf9 a8bd
00000020: 1f94 91b9 1c3d 393d 05c4 e1bb 7075 6f3c
00000030: d667 87bc 7184 b13c c38b 71bd e9c7 813d
00000040: 1d1e 4a3d e7ed c93b a735 a23d e022 a7bd
00000050: 9ce7 a23c f6ad 323c 86f1 4cbd 0cff db3c
00000060: c052 5b3d e558 913d eecf 4a3d b908 df3c
00000070: ff82 253d 5e88 59bd 0c96 fdbc ce42 1b3c
00000080: 13c0 84ba 18a5 5a3d 2650 8c3d a12d 1c3d
00000090: 90b4 79bd a01e 1fbb 2a23 03bd 026f 9c3d
000000a0: c576 413d 45ba 3b3d b5c0 c5bd b200 333c
000000b0: bf8c 5a3c 78f8 a23d ad86 5b3d 683c 8dba
000000c0: f5bd 5b3d 3a8e 69bd a114 57bc bf5c 863d
000000d0: 1eba 5a3d 1ed8 e2bc 5416 183c 2591 90bc
000000e0: 9627 23bc 7f74 8dbd d22d 59bc 8548 983d
000000f0: 61a0 8cbc 45a1 b9bd ab38 82bc dc6f d5bc
00000100: a64b 7ebd d206 203c 5674 f9bc c807 f6ba
00000110: 2684 20bd d4db a23d 7c04 d9ba 263b cc3b
00000120: c7f1 b9bd 2ce8 8c3c c229 94bd 1b23 5dbd
00000130: d453 debc 2c81 c9bb 7faf 9d3d 5597 4bbc
00000140: 33ba 573c af8d 013d eb0d 07bd 7a8f 5bbc
00000150: ee97 423d b4c4 62bc 6e0b 303c c5d0 79bd
00000160: 2c1d afbd b371 9f3d 1447 143d 4b5f 83bd
00000170: 816a 083d 34d1 b9bc b70a 35bd 4168 473d
00000180: 61ab e33b f6b2 9dbc 9987 a43d ccc9 403d
00000190: 876f 6ebc 3847 8cbd cf7f 7bbb e633 a3bd
000001a0: d619 52bb f5a2 acbc 7129 9cbd bae9 723b
000001b0: a114 3e3d 61cd 4a3d 9aab f63b 1885 52bd
000001c0: 6013 a2bd 8c3c 0dbc 95fc b4bd e59f 853d
000001d0: 17d2 8c3d 8b6a a33d 953c 5c3d 59d1 dc3b
000001e0: 809c 683d 9c26 aebd 8485 433d f1df e1bb
000001f0: fee1 b0bd 308f 71bd a81f bbbb ffd8 813d
00000200: 7067 8a3d 5df2 06bd 80f7 b3bd ffa4 033d
00000210: a4d3 413c 3298 263d bea7 fcbc 2e2b 643d
00000220: 13c5 c3bb d2d2 c3bd 5196 ce3c 5cb6 55bc
00000230: 693d 6e3d c0fa aebc 7983 a8bd 1dd3 8f3b
00000240: 5104 6f3d f727 e33c 18ac a1bd 19c1 20bd
00000250: acff 7cbd 0d10 2fbd e356 9ebd 22dd 84bd
00000260: 9de2 8abd cc18 56bd 209b 5bbc b5d5 003d
00000270: d7d1 c03c 3d41 b23d 2da0 d2bc 55b5 92bd
00000280: fd75 65bd 0e80 67bd 6eaa 043d 2ad7 14bc
00000290: 11c2 9e3d 0ef7 1e3d 0fc2 17bd d77e a0bd
000002a0: 5d2f 273d 6ecd 803d ad40 00bd 9991 07bd
000002b0: 5d92 2fbd f80a 41bc 0a00 753d 6f51 98bd
000002c0: 72ff 87bd 6b82 08bc a3d5 9ebc b5d5 80bd
000002d0: d423 77bd 240b 7c3c 5160 493d 006f 60bd
000002e0: 56f0 f4bc ef89 b43c d01f 81bd fff3 8a3c
000002f0: e5b7 4b3d 8709 b4bd db48 03bd ccf4 63bd
00000300: 1603 b33c 0559 313d f59b de3c a3e6 1a3d
00000310: 8782 77bd adb9 ecbb 5c69 28bd e901 993d
00000320: 5c4b 3e3d 1519 623d af57 933d 28bf c8bc
00000330: 9392 b1bc 88c2 ee3c 03de a63d b3c3 d03c
00000340: 4fe3 753d e4eb 963d 31e8 b1bd 9ff9 a1bd
00000350: 2402 b1bd d8bc 4abd 4319 583c 4669 9c3d
00000360: 1650 8f3d d34d 4bbd 98aa adbd fb53 4abd
00000370: 9211 833d 4a16 a63d cc61 2fbb 0d26 63bd
00000380: 9bf5 40bd 55d2 a53b ea6a 823d 5e49 653d
00000390: 367d 86bd a4c5 b2bd ae84 493b 3e5a 6cbc
000003a0: 7004 b53a 8ee5 88bd 14d9 803d 728c 7f3d
000003b0: c78a ec3c 4a61 a6bd f0d7 2bbc e959 abbd
000003c0: 11ad 603d c989 b23c 8ac4 033c 0df8 c5bd
000003d0: 65d4 07bc ad53 c33d 3e5d 9a3c e9a5 7d3c
000003e0: aeca 793b 02ce 5abd 2706 31bd 96f8 3dbd
000003f0: e5e4 ce3c 7a02 9e3d c272 f4bc 8362 bdbd
0.05507945 -0.033766408 0.02161386 -0.07726334 -0.06274474 -0.029562471 0.055607803 -0.082506984
-0.00027766914 0.045224294 -0.0068898224 0.014615402 -0.016529005 0.021669598 -0.058971178 0.06336958
0.049345125 0.0061623934 0.079203896 -0.08160949 0.01988583 0.010905733 -0.050035022 0.026855014
0.053545713 0.070970334 0.049514703 0.027225839 0.04040813 -0.053108566 -0.030955337 0.009476377
-0.0010128043 0.053380102 0.068512246 0.038129453 -0.060963213 -0.0024279729 -0.032015957 0.076383606
0.047232408 0.045831937 -0.096558966 0.010925459 0.013339221 0.07957548 0.053595234 -0.0010775449
0.053647954 -0.057020403 -0.013127477 0.06560659 0.05340015 -0.027690943 0.009282667 -0.017647335
-0.0099581685 -0.069069855 -0.013255553 0.07435707 -0.017166318 -0.09063963 -0.015896162 -0.026054315
-0.062083863 0.009767251 -0.030450981 -0.001877063 -0.039188527 0.07952085 -0.0016557123 0.006232637
-0.090793185 0.017200552 -0.07234527 -0.053988557 -0.027139582 -0.0061494317 0.07699489 -0.012426217
0.013166952 0.03162926 -0.032972258 -0.013400907 0.047508173 -0.013840843 0.010744913 -0.060990114
-0.08550486 0.07785358 0.036200598 -0.0641466 0.033304695 -0.022682764 -0.04419967 0.04868341
0.00694792 -0.019250374 0.08033676 0.04706745 -0.014552957 -0.068495214 -0.003837574 -0.07968883
-0.0032058856 -0.021073798 -0.07625092 0.0037065581 0.046406392 0.04951227 0.0075277807 -0.05139646
-0.07913852 -0.0086203925 -0.08837239 0.06524638 0.06876009 0.07979306 0.053768713 0.0067388234
0.056789875 -0.08503458 0.047734752 -0.006893151 -0.086368546 -0.058974445 -0.005710561 0.06340217
0.067580104 -0.03294598 -0.08787441 0.032139774 0.011830244 0.04067249 -0.030841704 0.05570524
-0.005974421 -0.09561695 0.02521816 -0.013043966 0.058164034 -0.021359801 -0.082282014 0.0043891803
0.058353726 0.027729018 -0.078941524 -0.039246652 -0.061767265 -0.042739917 -0.07731416 -0.0648749
-0.06781504 -0.052269742 -0.013403684 0.031453807 0.02353756 0.087038495 -0.025711143 -0.071634926
-0.056020726 -0.056518607 0.032389097 -0.009084502 0.07751859 0.03880983 -0.037050303 -0.07836693
0.040816654 0.062891826 -0.03131168 -0.033097837 -0.042864192 -0.0117824 0.05981449 -0.07437407
-0.06640519 -0.008331875 -0.01938898 -0.062907614 -0.060336903 0.0153835155 0.04916412 -0.054793358
-0.029899757 0.022038428 -0.06304896 0.01696205 0.049735922 -0.0879088 -0.032051902 -0.05565338
0.021852057 0.043297786 0.027173975 0.03781761 -0.060427215 -0.0072242827 -0.041116104 0.074710675
0.046458587 0.0551997 0.07194459 -0.024505213 -0.021676337 0.029145494 0.08147814 0.025483942
0.06003123 0.07369211 -0.08686865 -0.079089396 -0.086429864 -0.0494965 0.013189617 0.07637267
0.06997697 -0.049634766 -0.08479804 -0.049396496 0.06399836 0.0810972 -0.0026761172 -0.05545621
-0.047109228 0.005060474 0.063680485 0.05597817 -0.06566851 -0.08729103 0.003074925 -0.014425812
0.0013810527 -0.06684409 0.06291404 0.0623898 0.028874768 -0.08124025 -0.010488495 -0.083667584
0.05485255 0.021794217 0.008042464 -0.096664526 -0.008290385 0.09537444 0.01884329 0.015481451
0.0038115191 -0.05341912 -0.043218758 -0.04637965 0.02525563 0.07715316 -0.029839877 -0.09247305
