models/lstm_attn_v1.pt (torch, 928714 bytes, 14 tensors)

lstm.weight_ih_l0 f4 [512, 14]
00000000: 89cd babd b836 88bd dd95 07bd e7fe 6c3b
00000010: 6306 493d f641 b83d 67c0 68bd 0fd7 9ebd
00000020: ed0d ad3d a375 2e3d 6cae 613d ba88 3e3d
00000030: c628 11bc 1513 8fbc e286 8bbd 7f44 07bd
00000040: 1170 843d b6fd dbbc 38ea 2bbc 6ebd 56bd
00000050: 5b9f 3fbc 6c2e 91bc 918e 5abd ead2 743d
00000060: d4ca bcbc b266 80bd 5935 cdbc 4a57 a4ba
00000070: d738 d33c 8fa7 9ebd 749a cabd 5ca8 2e3d
00000080: 00ab b43d cc43 893d 48ae 6c3d cdf8 90bd
00000090: b77a b53d faf5 44bd 9896 953d 13b8 883d
000000a0: 192c 4abd 3170 853d ced0 83bd caae 253c
000000b0: d3d6 b6bd 900a 95bc 95de dbbb 63d9 66bd
000000c0: 23d2 933d b038 1d3d 13c8 92bd 67c7 9ebb
000000d0: eff4 bd3d cbf8 9ebd f7e0 cdba fdd6 a9bd
000000e0: deb6 6e3d 60f7 b53d 3152 57bd 008a 3cbd
000000f0: 9f4e 833d 2a37 70bc 049a 973d a501 073d
00000100: 88e8 dcbc b03c b7bd ac0e 793d 9c26 2dbc
00000110: 4dfb 7dbd 64f7 0b3d 40bf e1bc 0218 b9bd
00000120: 7f12 db3b dc1f a03d c18f 89bd 6247 973d
00000130: 1cb2 36bd ce1d 2fbd 3f3c 573d 008d 2abc
00000140: 54d7 aa3c 0570 f43b 2c5d 6cbd 9e56 943d
00000150: 5691 c03d 8496 c43d 087f e03d 71ed b0bd
00000160: e878 bd3d a19c afba cb87 a43c c195 c13b
00000170: 689b 53bc 55d2 9b3d c6ae f6bc 901e b63d
00000180: 604c 263b d375 8a3c 0325 85bd 4b47 253d
00000190: c9ed 35bd d560 9a39 a980 d63c af36 023d
000001a0: 8c68 d73d 5632 303d dbe6 5d3d 7754 463d
000001b0: 1cbe b33d c168 3bbb cb75 40bd 0ff3 adbd
000001c0: eb74 57bd 2542 4abd 01f1 a13b da10 6f3d
000001d0: 5924 04bd 3a9d 81bd 6e93 25bc c9a0 443b
000001e0: 7d2c b83c f453 35bd 3e15 b93b 1169 e33d
000001f0: 0931 b13c a1c0 26bd cdc4 90bd 2fc8 afbd
00000200: b002 683d f040 f23d 7f27 8f3d ef53 b0bc
00000210: b95b 653d d6d4 c1bb c28f 883d 9787 993d
00000220: bbf7 97bd 580d 843d 5ad7 8d3d 24e3 593d
00000230: 7b38 863d fe4e 24bd d3e4 9c3c 72f3 a3bd
00000240: 1b2d c53d a338 173d 8c2d 58bc 21a4 573b
00000250: d83a 93bd 3ca7 2ebd 26fb 2b3a a7a3 603d
00000260: 0880 653d 0919 663d 6d98 9c3d b94d a03d
00000270: 3850 ab3d 1dd9 9a3d 6f0e 513d 1c90 643c
00000280: 4448 09bd 02aa 0f3d 7833 0f3d c3d9 a3bb
00000290: dc32 233d 69f0 66bd 6aef 833d 90bf a43d
000002a0: 1243 9c3c ad7f a1bd e898 af3d 38dc 063d
000002b0: 59f4 a83c f905 313d 6f2f 6ebd bc75 783d
000002c0: 6b2e 36bd 523b 3ebc c450 81bd ebd1 1abc
000002d0: 007e 11bd ebd1 14bd 19db 4e3d 0d2a 9e3c
000002e0: f338 2ebd 36ab a43d 4108 f13d bc67 db3d
000002f0: 04f5 f33b 0a45 9c3d 789b fe3d e070 ffbc
00000300: 6981 ccbd 3740 4e3d c65f 993c 6587 6c3d
00000310: 7f99 7e3d a25b 793c 5f04 48bd dcf8 38bb
00000320: 6a65 a6bc f7eb cd3c 6e9d 58bc 2bb7 13bd
00000330: 939a 5c3d 91ab 043d 74a4 76bc fbeb 61bd
00000340: b624 0b3d 34f6 8c3d 0949 a7bd 9b32 083c
00000350: 6e75 3a3d 5623 233d 66f8 77bd d4c3 c03d
00000360: 1f8e a43d 3bec 4e3d 7971 16bd b12f 913c
00000370: ed92 3c3d 8d13 39bd 3cd9 833d 3653 89bd
00000380: 72ad 223c 3e05 8dbd abb0 29bd 4c07 08bd
00000390: f5ec c3bd 302b bcbd 2396 863d 20c7 f13c
000003a0: b413 d83c 5148 40bd 3a5f 053d b251 813c
000003b0: ca27 9abc cf30 123d 7c02 5fbc f648 f0bc
000003c0: 4320 1fbd e902 3dbd dc4a 503d a32d 0a3d
000003d0: 73be 7a3d 3708 613d 931d 893d 4a32 5a3d
000003e0: 0cd9 51bd 05a3 e93c f0ae e0bc 9f54 b23d
000003f0: faa9 49bd b9f4 77bd dd08 203d a357 29bd
-0.09121234 -0.06651062 -0.033101905 0.0036162676 0.049078356 0.08996956 -0.056824114 -0.07755863
0.08449922 0.042592656 0.055097982 0.04651711 -0.008859819 -0.017465154 -0.06812836 -0.033024307
0.064666875 -0.026854377 -0.010492854 -0.052426748 -0.011695708 -0.017722331 -0.05335862 0.059771456
-0.023045935 -0.062695876 -0.025049852 -0.0012538221 0.02578394 -0.07746803 -0.09892741 0.04264103
0.08821678 0.06702384 0.057783395 -0.07078705 0.088612966 -0.048086144 0.07304114 0.06675734
-0.04935846 0.065155394 -0.06436311 0.010112474 -0.08927693 -0.018193513 -0.0067098835 -0.05635966
0.07217815 0.03838414 -0.071670674 -0.004845548 0.09275233 -0.07762297 -0.0015707304 -0.08292959
0.058279864 0.08885074 -0.05256862 -0.046030045 0.0641148 -0.01466159 0.07402423 0.032960553
-0.026966348 -0.08947122 0.060805008 -0.010568287 -0.062007237 0.034171477 -0.027557015 -0.09037782
0.0066855545 0.07818577 -0.06716872 0.07386662 -0.044603452 -0.042753033 0.05254769 -0.010409594
0.02085463 0.007459643 -0.057706043 0.072430834 0.09402721 0.09599021 0.10961729 -0.08639038
0.09251577 -0.001339812 0.020084282 0.0059077446 -0.01291547 0.07608477 -0.030112635 0.08892548
0.0025375113 0.016901886 -0.065012 0.040351193 -0.044416223 0.00029445314 0.026184397 0.03179043
0.105179876 0.043016754 0.05417524 0.048420396 0.08776495 -0.0028596374 -0.046987336 -0.084936254
-0.052601736 -0.049379487 0.00494206 0.05836568 -0.032261226 -0.06328817 -0.010105951 0.0030003062
0.022482151 -0.044269517 0.005648284 0.11104024 0.021629827 -0.04071105 -0.07068787 -0.08583104
0.056643188 0.11828792 0.06989955 -0.021524398 0.055995677 -0.0059152646 0.066680446 0.07496565
-0.07420298 0.064478576 0.06925841 0.053195134 0.065537415 -0.040114395 0.01915208 -0.08005418
0.09627744 0.036919247 -0.013194453 0.0032904225 -0.07188958 -0.042639956 0.00065605564 0.05484357
0.056030303 0.05617622 0.076462604 0.078273244 0.0836491 0.07560942 0.051039156 0.013950374
-0.033516183 0.03507424 0.034961194 -0.0050003245 0.039843425 -0.056381617 0.06442149 0.0804435
0.01907495 -0.0788568 0.085740864 0.03292486 0.020624327 0.043218587 -0.058150705 0.060659155
-0.04447786 -0.011610823 -0.06314233 -0.009449462 -0.035520554 -0.036333006 0.050501917 0.01930716
-0.04253478 0.080404684 0.117691524 0.10713145 0.0074449796 0.07630356 0.12431997 -0.031181753
-0.099856205 0.05035421 0.018722426 0.05774631 0.062158104 0.015219601 -0.048832294 -0.0028224504
-0.02031203 0.02513693 -0.013221128 -0.036063354 0.05385835 0.03239018 -0.015053857 -0.05515669
0.033970557 0.06882897 -0.08168227 0.0083128465 0.045522146 0.03982862 -0.060539626 0.09412351
0.0803492 0.050518256 -0.03672931 0.017722936 0.046038557 -0.04518466 0.064379185 -0.06705324
0.009929048 -0.068857655 -0.04142825 -0.033210084 -0.0956668 -0.09187925 0.06571605 0.029513896
0.026376583 -0.046943966 0.03256152 0.015786026 -0.018817801 0.03569108 -0.013611432 -0.029331665
-0.038849127 -0.046145353 0.05085264 0.03373493 0.061216783 0.054939475 0.06695094 0.053270616
-0.051232383 0.028520117 -0.027427167 0.087075464 -0.049234368 -0.06053612 0.039070953 -0.041343343

lstm.weight_hh_l0 f4 [512, 128]
00000000: 7745 e43c a9a2 b43d 4c0e 983d 97a8 f03c
00000010: ed6b 4a3d bb48 98bd 0b07 983d 2642 81bb
00000020: b20e e23d f7bf 573d f0dd 563d 37f5 4c3c
00000030: 826b 1d3c 66d4 88bd 8d06 24bd 6ba5 683c
00000040: 1e0a 753d 13d1 82bc d601 e8bc 4910 60bd
00000050: bc22 263c 8972 cdbc 1ddc 42bd c25a b33b
00000060: 3ab9 573d c014 883d 50e7 003d 306e 8ebd
00000070: 5a3e 613d a129 73bb e2ae cbbd e452 43bc
00000080: ca67 94bc 39da c2bd be8c b7bd 7e91 40bc
00000090: ba77 a9bd 8aa1 cbbd d1a9 1cbd c879 dfbd
000000a0: 9929 e13c e47d 683d ebfc c8bd 1a56 39bd
000000b0: 3461 c4b8 98c1 6a3d 51bc 1abd 70c2 713d
000000c0: d071 c0bd bd20 063e 520a 8dbc da36 c0bd
000000d0: e24e 8fbc 0c56 923d 0e8d 7fbc 0a9f b33c
000000e0: b809 c33d 8e72 f3bb 1d35 ba3d f425 4bbd
000000f0: 382d 713d 6759 31bd 6939 fabc d268 ec3c
00000100: be74 21bc 5f04 d6bc 2d62 923d 8fd3 8fbd
00000110: 3d5e 3fbd 03ba 9fbc 803f 28bc d136 a73d
00000120: 6047 cbbc da5a 913d 628b a43d 0bf2 3c3c
00000130: 6f0f 14bd dbf0 e33d 3c5b 4bbd df18 8c3d
00000140: b0d9 86bd 4fe5 7abd c573 93bd e71e 863d
00000150: dd60 513d a604 413d fc7f b83d 935b 3abd
00000160: 1391 b5bc fb02 f73c 0015 883d 5860 80bc
00000170: a404 e8bd 4501 ba3c 18bd be3d f800 5bbd
00000180: 69d5 9bbd b7ab 64bd 4f1c eabc dd55 c03d
00000190: 833b a2bc 6de1 bb3c 51b5 28bd bb7b b63c
000001a0: 93bc 843d 14e1 aebb 3647 aebb 20e9 f4bc
000001b0: d8cb 19bd 86c2 773d 7c08 913b 7902 503d
000001c0: 75bb 9bbc b809 663c edf3 4a3c f43d f63c
000001d0: 00ba ebbd 84dc 19bd c1b0 733d c643 3e3d
000001e0: 019a f9bb fc6d a23d db26 683d 7459 96bc
000001f0: b132 5c3b 3fdf 17bd c183 5dbc 4cfe 3d3d
00000200: 5f7e 893d 6205 4e3c 8810 21bd 1150 acbd
00000210: 5c52 cbbb e9d7 4f3d 83ba c0bd 4999 a8bc
00000220: a065 5d3d fdb4 b93d c619 a23d 0a8f 483d
00000230: 2b2f 20bd ebd9 b0bc a01e 6bbb 5fe1 c2bd
00000240: 4d1b 803d f7d6 9fbc cace 7ebc ba35 a6bd
00000250: 73d3 92bd 3280 343d b6af 2a3d 98a2 b8bc
00000260: 612b c23d cc6c a63b 738e 103d bb3b 98bd
00000270: f7b0 163d 9d5d bd3c 6bd7 efbd 4e1d 84bc
00000280: f03e 9bbd 0c5e 073d d1a5 e33b 8e77 8a3d
00000290: 46f2 bfbd 595a 92bd c70f 083c 3d3e 443d
000002a0: 1123 e23a e2b3 b63b a821 cbbd 5877 8c3d
000002b0: feec 873d fb63 c63d e017 cfbd d339 8e3d
000002c0: 8bbc 95bd 92ff f4bc c254 373d 4a93 99bc
000002d0: 8b5b aa3d efa9 d83c ef72 653c f4af ab3c
000002e0: d0de 88bc 5f0e 733d 39c7 5bbd 1ae5 b93d
000002f0: 9827 5c3d 91aa 063d d671 e5bd 939e aabd
00000300: 8b0e e3bc 4e00 51bc f87d 503d 6fa0 f1bc
00000310: ae48 fbbb 4fc2 b33d 1c1d 8a3c 0531 33bd
00000320: 91c5 e53c 5287 a93d b293 51bd 9da1 ccbd
00000330: b5a8 05be c4e5 c93d f28b 8a3c e40e 963c
00000340: d287 6d3c 721a 80bd 9d85 e63b ae71 873d
00000350: 77b9 c1bd 44b4 a3bd be01 74bd c55d 8fbd
00000360: d79a 99bd 551c d3bc 4f81 ce3d 1853 4abd
00000370: 6d69 a9bd 6021 813d 1b07 78bc e88b 953c
00000380: 7c5e 983c de22 8e3d 3f5f 01bc b54e f03a
00000390: 438e 8b3d 7bd2 8e3d 732b 2b3d a6f2 843d
000003a0: f08b af3d 8632 43bd 11f7 0b3d 346d 273d
000003b0: 46d5 193d 2086 ed3c 435c c7bd fcf7 dcbd
000003c0: da1a 98bd a74c b8bc b45e 77bd 7c77 87bd
000003d0: 09e7 ffbb 91fb 3b3d 6a9e a03c 4eaf 4c3d
000003e0: a141 8d3d 867b 213d 1422 c43c f087 30bc
000003f0: 8834 dabd b2e5 8a3c 3afb c73c 0030 bd3c
0.027865155 0.088200875 0.07424602 0.029377265 0.049419332 -0.07435747 0.07423218 -0.003944653
0.11037959 0.052673306 0.05245775 0.012509636 0.009608151 -0.06681137 -0.04004531 0.014199595
0.0598241 -0.015968835 -0.028321188 -0.05470303 0.010140117 -0.025079029 -0.047573198 0.0054734657
0.05266688 0.06644583 0.031470597 -0.0695461 0.054991104 -0.003710367 -0.099454656 -0.011921618
-0.018115897 -0.09514279 -0.08962391 -0.011753438 -0.08274789 -0.099429205 -0.038247887 -0.109119
0.027485656 0.056760684 -0.09813865 -0.04524813 -9.364114e-05 0.05731353 -0.03777725 0.05902332
-0.09396708 0.13098426 -0.017216835 -0.09385462 -0.017493669 0.071453184 -0.015597595 0.021926422
0.09523338 -0.0074294275 0.09092162 -0.04959674 0.058881015 -0.04329815 -0.030544953 0.028858576
-0.009854494 -0.026125131 0.07147632 -0.070227735 -0.046720732 -0.019497877 -0.010269046 0.08164752
-0.024814308 0.07097407 0.08034398 0.011532317 -0.03614753 0.11129924 -0.049647555 0.06840681
-0.06584489 -0.061253842 -0.07199816 0.06548863 0.051117767 0.047123574 0.09008786 -0.04549749
-0.022163903 0.030152788 0.066446304 -0.01567094 -0.1132901 0.022705683 0.093134105 -0.05346772
-0.07609064 -0.055827823 -0.028577952 0.09391377 -0.019803768 0.02293464 -0.04118854 0.022275796
0.0648128 -0.00533689 -0.0053185476 -0.029896319 -0.037547916 0.060488246 0.0044260602 0.050783608
-0.019010285 0.014040403 0.012387258 0.030058838 -0.11510086 -0.037563816 0.059494738 0.046451353
-0.0076172356 0.07931134 0.05667768 -0.018353201 0.003359955 -0.03707814 -0.013520182 0.046385095
0.067135565 0.012574526 -0.039322406 -0.08413709 -0.0062048864 0.050743017 -0.09410574 -0.020580905
0.054051995 0.09067724 0.07915072 0.048964538 -0.039107483 -0.021588286 -0.0035876408 -0.095156424
0.06255207 -0.019511683 -0.015552232 -0.08115716 -0.07169237 0.04406757 0.041671477 -0.022538468
0.0948093 0.0050788876 0.0352921 -0.07433268 0.03678986 0.023115927 -0.117110096 -0.016127255
-0.07580364 0.033048674 0.006947257 0.067610845 -0.09372382 -0.07146139 0.008304543 0.047910918
0.0017252882 0.005575643 -0.09918529 0.068587005 0.066369995 0.096870385 -0.10111976 0.06944623
-0.07311352 -0.029907022 0.044758566 -0.01874699 0.08318242 0.026448218 0.014004453 0.020957924
-0.016707808 0.059339877 -0.05365679 0.09076901 0.053748697 0.03287751 -0.11203353 -0.08331027
-0.027716896 -0.01275642 0.050901383 -0.029495446 -0.007668576 0.08777296 0.016859584 -0.04374792
0.028048309 0.082777634 -0.051166244 -0.09991763 -0.13052638 0.098582774 0.016912434 0.018317647
0.014497714 -0.06255044 0.007034971 0.066134796 -0.09459203 -0.07993367 -0.059571974 -0.07000307
-0.075002365 -0.025770346 0.100832574 -0.04939565 -0.082720615 0.06305194 -0.015138413 0.018255189
0.018599741 0.06940244 -0.007896244 0.0018334003 0.06814244 0.0697374 0.041789483 0.06491594
0.08571613 -0.047655605 0.034171168 0.04087563 0.03755691 0.02899462 -0.097343944 -0.10789487
-0.074269965 -0.022497488 -0.06039305 -0.06614587 -0.007809524 0.04589421 0.019606788 0.04997187
0.06897283 0.03942444 0.023942031 -0.0107745975 -0.10654551 0.01695523 0.024411786 0.023094177

lstm.bias_ih_l0 f4 [512]
00000000: 2c96 8abc f19f c43c 9ca1 eb3b 84e6 67bd
00000010: 2bda e83a b5ac 203d 1cd3 a5bc 625a 433c
00000020: d2be 08bd 54a9 1c3d e79c 86bc 59d7 7b3c
00000030: d671 153d ce54 de3d 9e6f 723d 424a 373d
00000040: 002e ad3c 43e8 9fbc bb35 c8bc 5309 573d
00000050: 1c80 293d 8692 383d 239e 333d 08c0 6dbd
00000060: 6f2f a23d 2f22 f83c 009c 603d 3c0a 643d
00000070: fc02 8c3d 9347 363d d21c d9bc 9af8 a1bd
00000080: 2ed1 0ebd 0b40 a33d aabb d1bc 3ab6 9dbb
00000090: 68db 14bd cb2e 8abd 0035 ca3d dc92 ca3c
000000a0: 2462 7ebd e002 e4bc a1f1 91bc 11e7 883d
000000b0: 9cc6 6cbc 8468 44bc 0197 eebb 556c e43c
000000c0: c351 943d b6a6 54bd 60b0 54bd 46bf ecbc
000000d0: 706d e43d 37bb 16bd 9213 9b3d b093 173d
000000e0: b213 213d e0a0 473d abf2 f93d bbca 713d
000000f0: 731c 443d 9c78 173c 53ac f0bb 67a9 d73d
00000100: 19e4 5dbd 027b fd3c 5f69 8ebc 3620 08bd
00000110: 2857 b83c b9d6 25bd 53a1 083d 211a 10bd
00000120: 51b0 c23d 604a 383d fd0c adbc 438c c8bc
00000130: 4ac6 f93b ef13 a43c 6d72 8c3c 7328 3cbd
00000140: 9bb9 d53b d525 2d3d 3228 9e3c dcbb a23c
00000150: a8fc cd3d 9cf0 b53d a9f9 803c 1565 a0bd
00000160: 70da 1ebd f5df 9c3d d1d5 c73d 15b8 833a
00000170: e4ee d2bc 7b28 1e3d 78a5 b33d e03b cf3d
00000180: 1246 43bd 3cac 86bc 2774 4c3d 06fb 2dbd
00000190: b988 913d 413c 823d 1351 7d3c d297 af3d
000001a0: 6d50 433b a5e0 34bd 9ab6 b93d dab9 163d
000001b0: 3893 413c be94 1d3c e504 463c cfa9 a1bc
000001c0: 1970 87bd 1e5e ad3d 8704 b83d 5825 6a3d
000001d0: f098 d03d 87b6 9abd 6eff 963d 257d 2abd
000001e0: b80c f93d a802 8ebd 3fd3 d8bc 1e8a afba
000001f0: bcee 1abd 7ae1 ae3d 5575 cdbc 56cb e13c
00000200: 359a 81bb c122 8f3d b6f1 cebb e03d f53c
00000210: e7ab 123d 4f71 87bd 966e 94bc 36b6 253d
00000220: ebfc cfbc 7c70 8cbc 75d5 a03d ba4c 1fbd
00000230: a0b1 db3d 9f00 1abd 8ecb 7abd cacf f83c
00000240: 03d5 1a3d 86fd 463d c947 20bd 1e2c 193c
00000250: 2b0c 583d 9e6c cdbc cd40 e73d bb94 053c
00000260: e141 ed3d 6e8d dbbb a489 a73d 09cf c13c
00000270: b824 793d b011 59bd 1c0b 7e3d 60a3 4dbd
00000280: a8e0 033d b37a 7b3c bef5 303d b8d0 283d
00000290: ab53 573d 6624 9e3d 905f 8fb9 a5bb bc3d
000002a0: 2594 c53d 8c66 21bd 0dbc 983d b20f 32bd
000002b0: c6f3 9bbc ede7 13bd d26b 683d b6cd 58bd
000002c0: 947c 89bd 4066 c1b9 4e53 843c 9cf3 95bc
000002d0: 5cdd 4cbc dbce 193e 1235 3e3d 52d9 e2bb
000002e0: 178a d33d 85e2 3fbd cf7b 473d da2a ae3d
000002f0: 0fd3 04bd 9f07 79bd c11a ae3c d04a a33d
00000300: 1d78 b7bc dc0e da3a 666d 063d 5a51 85bd
00000310: 21b1 c83d 07b2 9cbc e8ed 833b 46cd 143d
00000320: 2a31 f13c b3c5 8e3d ad2e a63c 5e48 f2bb
00000330: 5fd3 0cbd f073 1c3d b99c 71bd 1573 77bd
00000340: 1516 67bd aa8d 3abd eb9f b63d 457b 34bd
00000350: 2a6a 8cbc 4527 d63d d98f 37bc 5ba6 8abd
00000360: be36 d43d 241d 96bc 5f35 9abc 3086 4abd
00000370: 8edb 3e3c 26e3 a43d 06b5 1a3d ba0d 24bd
00000380: 1d18 be3d 54fb b43d 94da f03d 61d7 1d3c
00000390: 0ece f6bc 61fc cf3d f763 933d 54d6 bc3d
000003a0: 90e5 c53d 46de 3bbd 6285 69bd b86c 8dbc
000003b0: e087 823d 7d16 05bb de39 5cbc 1631 e53c
000003c0: 2d96 933d afaf 913d 9e14 bfbc 83f9 3bbc
000003d0: 8238 513d 096c a83d 39c5 193e 2604 9eba
000003e0: d7c1 743d 670c 293c c89e 07bd 468f 3bbb
000003f0: 0ef2 b93b 59b4 d0bb bb0d 0fbd e8d0 023d
-0.01691731 0.024002047 0.007190896 -0.05661632 0.0017765214 0.039227206 -0.020242266 0.011923404
-0.033385105 0.03824742 -0.016432239 0.015371167 0.036485516 0.10856019 0.059188478 0.044748552
0.021140099 -0.01951993 -0.024439683 0.052499127 0.04138194 0.04506161 0.043851983 -0.058044463
0.079192035 0.030289738 0.054836273 0.055673823 0.06836507 0.044501852 -0.026503 -0.07908745
-0.034867458 0.079711996 -0.02560218 -0.004812983 -0.036342055 -0.06747206 0.0987339 0.024728231
-0.062105313 -0.027833402 -0.017815413 0.066846974 -0.014451649 -0.011987809 -0.0072811847 0.027883688
0.07242157 -0.0519168 -0.051926017 -0.0288998 0.11153686 -0.036799636 0.07572092 0.03700608
0.039325424 0.048737407 0.12204488 0.05903123 0.047878694 0.009245064 -0.0073447614 0.10530358
-0.05417261 0.030942444 -0.01738423 -0.033233844 0.022502497 -0.04048798 0.033356976 -0.03518117
0.09506286 0.044992805 -0.021124357 -0.024480944 0.007622515 0.020029036 0.017144406 -0.045937013
0.00652237 0.042272408 0.019306276 0.019864969 0.10057956 0.08883783 0.015744047 -0.0783178
-0.038782537 0.07659904 0.09757579 0.0010049368 -0.025748678 0.038612824 0.08771795 0.10118842
-0.047674246 -0.01643955 0.04991546 -0.042475723 0.07106156 0.06359149 0.015461224 0.08573879
0.0029802576 -0.04415955 0.090680316 0.036798336 0.011814885 0.009617982 0.012086128 -0.019734291
-0.06613178 0.08465217 0.089852385 0.05716452 0.101854205 -0.075543456 0.07372938 -0.041623253
0.12160629 -0.069341004 -0.026467917 -0.0013392603 -0.03782533 0.085391 -0.025080362 0.027562778
-0.0039551505 0.06989051 -0.0063154353 0.02993673 0.03580847 -0.06613409 -0.018119138 0.040456973
-0.025389155 -0.01714348 0.07853214 -0.03889153 0.10727239 -0.03759825 -0.06122928 0.030372519
0.0378008 0.048581623 -0.03913096 0.009348897 0.05274598 -0.025076207 0.11291657 0.008153136
0.11584831 -0.0067002093 0.0818055 0.023658292 0.060826033 -0.052995384 0.062022313 -0.050204635
0.03219667 0.015349078 0.043203108 0.041214675 0.052570026 0.07721786 -0.00027346285 0.09215478
0.09647397 -0.039404437 0.07457743 -0.043472 -0.019037139 -0.036109854 0.05674345 -0.052930556
-0.067132145 -0.0003688801 0.016153004 -0.018304639 -0.012503948 0.15020315 0.04643733 -0.0069228793
0.10329073 -0.046846885 0.048702057 0.08504267 -0.032427844 -0.060798284 0.021252992 0.07973254
-0.022396142 0.0016636509 0.032819174 -0.06509657 0.0979941 -0.019127859 0.0040261634 0.036328577
0.029442389 0.06971302 0.020285929 -0.0073938807 -0.034381267 0.038196504 -0.058987353 -0.060412485
-0.056417543 -0.045545258 0.08917221 -0.04406287 -0.017140467 0.10456709 -0.01120373 -0.06770011
0.10362004 -0.018324442 -0.018824277 -0.049444377 0.011649026 0.080511376 0.037770294 -0.040052153
0.09281943 0.088369995 0.117604405 0.00963387 -0.030127551 0.10155559 0.07196801 0.09220567
0.09662926 -0.045866273 -0.05701197 -0.017263755 0.06373572 -0.0020307594 -0.013441531 0.027977508
0.07206378 0.07113587 -0.02332526 -0.011473062 0.05107928 0.08223731 0.1501664 -0.001205568
0.059755173 0.010317898 -0.03311041 -0.0028619333 0.005674607 -0.0063691554 -0.034925204 0.03193751

lstm.bias_hh_l0 f4 [512]
00000000: b7d1 febc 4af7 263d 2e61 ac3d 5242 17bc
00000010: e496 4a3d c2df b03d 24b7 86bd 3552 bb3d
00000020: 69e6 8dbd bdb8 b6bc bcf8 ab3d 23b4 393c
00000030: ee17 433d 4207 df3d 5ffb 893d c4b5 6b3d
00000040: 802c 8b3d 30ec a7bd 7247 893d c5c8 2f3d
00000050: f5d8 f9bc 0753 acbc 265d 00bc ba0d 5f3d
00000060: 1ee3 f33c ed64 abbd ff32 c53d 04b3 66bd
00000070: 68a2 443d 7c9c 403d e9f8 0e3d 7ce2 973d
00000080: 5a2e 603d 593e 7d3d 3927 bcbc 563f 73bb
00000090: 3c7e a13d 28dd 253c 8066 4e3d d942 733d
000000a0: e93f 953d 42f9 ea3d fdae ebbc 41f6 133d
000000b0: d49f 663d 27b2 c1bc b9a4 883c 35f9 30bd
000000c0: b6b7 b73d 3f26 53bc 7c6e eebc 5806 5d3b
000000d0: 118d e9bc e781 85bd d9ce 013c 1279 933d
000000e0: 6016 013d 3d52 8fbc 5963 ebbc 2c23 29bd
000000f0: 053e 74bc 47db 903d 82fb 29bc a982 223d
00000100: f950 513d a893 8c3d a388 613c 7d3b 233d
00000110: 5a36 c63c b045 d53d 82a6 793d 7141 0e3d
00000120: 728e 0ebd 13ed 3a3d ee98 623d def6 813d
00000130: 51a2 6dbd 189a c73d be06 af3d db79 61bd
00000140: 4cd6 3dbc 2d9f 3a3d 3f9b a63d e6bc 703d
00000150: f682 e53d 97e4 58bd 5d7c ee3c def5 67bc
00000160: 3906 9fbd 4655 2dbd fa2c 3dbc 2d3a 87bc
00000170: cc7f f53d 828f 88bd 03f3 e6ba 5134 9b3d
00000180: 572a 23bd ad80 40bd c7c1 a03d 769f 8a3d
00000190: ea62 39bd 53fd b53d 696a a23d b4e4 bb3d
000001a0: e157 4a3d 222d 823d 400e 0d3d 6bfb f53c
000001b0: 5211 3abd df0c e13c 9d40 293d affc 4ebd
000001c0: a65e 9f3d 8d55 64bd 1b97 01bc b0cb 87bd
000001d0: c869 133e 4cad 40bc fd26 a13d eb7a e7bc
000001e0: fcf3 c43d 7378 8b3d 3a70 01bd 0acd 333d
000001f0: 90cc 4bbc 2881 113d 78a8 5ebd 3154 00bd
00000200: 6570 103d 95a0 903d 60a0 893d 04cb 933d
00000210: 0ab6 29bd 7e11 733d 94c3 363c 3f27 bc3d
00000220: 6f34 9abc 2d2d 103d 33ff 833d eedc 13bd
00000230: 2fe7 763d 80e3 cf3d f70b 75bd d89c a93b
00000240: b978 853d 14dc 323d 1908 663d aa93 6f3d
00000250: de86 85bc 7149 c03d be6c 50bd 3cd8 253d
00000260: 1dc7 c23c 9a73 4a3d 59cc 29bd 9b50 133d
00000270: 1eca f53c ace9 a6bc 054a 82bd faf6 16bc
00000280: 70da c43d d97a aebd ed6f 843d f2df 623d
00000290: be38 563d a81c 703d 6bc9 3ebd cce6 cf3c
000002a0: 0338 ca3d c44c e43d 7676 8d3d 9b9d 123c
000002b0: c295 0c3d db55 b93c 67ba 8f3c b728 b83d
000002c0: d0aa 81bd 16e0 a23d d93a 9f3d d4bd 603d
000002d0: 73e0 3ebd 08e4 113e 20cf 9d3d 33cf 1abc
000002e0: 66c3 96bc 62da ea3b ba42 b63d 98e1 583d
000002f0: 4202 c53d 3593 ea3c 6c27 5a3c 41eb a23d
00000300: 6da7 a83d ca0f 1c3d 65ee 793d 8e7a 883c
00000310: 2b81 7a3c 26e8 433d e6d8 79bd ae37 b53d
00000320: ddc4 da3a 0227 a2ba c65e 483d f868 733d
00000330: e0be 623c e21f 4abd 84a1 1fbc 84b4 00bd
00000340: f6a8 e63c 93dd 6f3d a237 6bbb 53ba 813d
00000350: 8c67 d1bb 2b3e ac3d 040d 8d3d 09cb ffbb
00000360: 055e 523d 0e67 d03d c45a 3dbd 0224 60bc
00000370: aebf cd3d 2014 9ebd 65c0 80bd 2731 ee3d
00000380: 31f7 aa3d 45d3 a9bc 0d4a df3c e024 40bd
00000390: 1b3e 8a3d ba4a 1fbc bbe6 44bd ec1b 6bbd
000003a0: 57cb ef3d bfb5 c53d 3889 73bd 3a5e 24bd
000003b0: ec42 03bd e8df 8d3b e480 993d 4ad2 883d
000003c0: 0e61 ac3c 87b0 a23c 5607 383d d890 063d
000003d0: 02bd 17bd e669 1d3d 117a db3d 532b 423d
000003e0: bbb3 cf3d 8d65 3c3c 31d2 c13d 1bd8 953d
000003f0: 841c 3b3d 059e a53d 8714 073d 51c5 43bc
-0.03110586 0.040763177 0.08416973 -0.009232121 0.049460307 0.086364284 -0.065779 0.09146539
-0.06928713 -0.022304887 0.08397052 0.011334452 0.047630243 0.10890056 0.06737398 0.057546392
0.06795597 -0.08199346 0.0670308 0.042916078 -0.030498961 -0.021035684 -0.007834708 0.05445645
0.029771384 -0.083688594 0.09628867 -0.056323066 0.048006445 0.047024235 0.034905348 0.07416245
0.054731704 0.061827037 -0.022967922 -0.0037116609 0.078854054 0.010123529 0.05039072 0.059389923
0.072875805 0.114733234 -0.028769964 0.036123518 0.056304768 -0.02364452 0.016680108 -0.043206412
0.08970587 -0.012887537 -0.029105417 0.0033725705 -0.028509649 -0.065189175 0.0079228515 0.07200827
0.03151548 -0.017495269 -0.028733896 -0.04129331 -0.014907365 0.07073074 -0.010374906 0.03967539
0.051102612 0.06864101 0.013765487 0.039851654 0.024195839 0.104136825 0.06094981 0.03473038
-0.034803815 0.045636248 0.055321626 0.06345914 -0.058016125 0.09746188 0.08546208 -0.05504785
-0.011586737 0.045561958 0.081350796 0.058773898 0.112066194 -0.052952375 0.029112035 -0.01415774
-0.07764859 -0.04231765 -0.011546368 -0.016507233 0.11987266 -0.06667997 -0.001762003 0.07578338
-0.0398353 -0.046997715 0.0784946 0.06768696 -0.045260347 0.088862084 0.079304524 0.09174481
0.049400214 0.06356265 0.034437418 0.030027112 -0.045426674 0.027471958 0.041321386 -0.050533947
0.07781725 -0.05574565 -0.0079095615 -0.06630647 0.14395821 -0.011760067 0.078687645 -0.028256854
0.09616849 0.06810083 -0.03160117 0.043896712 -0.012438908 0.035523564 -0.054359883 -0.03133029
0.035263438 0.070618786 0.06720042 0.072164565 -0.04143337 0.059342854 0.011155028 0.09187173
-0.01882383 0.035199333 0.0644516 -0.036099367 0.060279068 0.10150814 -0.059825864 0.005176168
0.06517167 0.043666914 0.056160066 0.058490433 -0.016299661 0.09389008 -0.050884955 0.04048942
0.023776585 0.049426652 -0.041454647 0.035965543 0.030003604 -0.020375095 -0.06361774 -0.009214157
0.09611976 -0.08519525 0.06466661 0.055389352 0.052300207 0.05862108 -0.046578806 0.025378607
0.09873965 0.111474544 0.0690736 0.008948709 0.034322508 0.022623947 0.017544938 0.08992141
-0.06331408 0.07952897 0.07774896 0.054868534 -0.04660077 0.14247143 0.077055216 -0.009448814
-0.01840372 0.0071671465 0.08899446 0.052949518 0.09619571 0.028634647 0.013315063 0.07955027
0.08235059 0.038100995 0.061018366 0.016660001 0.015289585 0.047828816 -0.060997866 0.08848511
0.001669075 -0.0012371244 0.048918508 0.059426278 0.013839453 -0.049346812 -0.009743098 -0.031422153
0.028156739 0.05856092 -0.0035891314 0.06334367 -0.0063905176 0.08410295 0.06887248 -0.007806186
0.051359195 0.10175906 -0.04622914 -0.01368046 0.100463256 -0.07718682 -0.06286696 0.11630469
0.08347929 -0.020730624 0.02725699 -0.046910167 0.06750127 -0.009722406 -0.048071604 -0.057399675
0.11708706 0.09653806 -0.059457034 -0.040128924 -0.032046244 0.00432967 0.07495287 0.066807345
0.021042373 0.019859565 0.04492887 0.032852978 -0.037045486 0.03843107 0.10716642 0.0474046
0.10141703 0.011498821 0.09463919 0.073166095 0.04568149 0.080867805 0.03297856 -0.011948899

lstm.weight_ih_l1 f4 [512, 128]
00000000: 516b 1e3d ea68 7f3d 03fe 853b d743 b7bc
00000010: b827 673d e16b 0a3d 999c 04bd 8828 00bd
00000020: 0153 e1bc ff9c 183c 02da 8f3b 1b6c 20bd
00000030: 659c f2ba b7c6 a9bd ac0e 113d 3cd8 6abd
00000040: 1078 72bd 1b9f 473c 7de9 4b3d 2a6f c2bd
00000050: 1a2d 513d fe23 0c3d 4457 9f3c ea2d 5fbd
00000060: e3c9 903d f9e3 b33d 6594 573d 7c6d f0bd
00000070: a227 573d f5c8 86bd f89c 4b3d 79a8 b7bd
00000080: 85f7 733d edc1 19bd 857b eebc 9c64 2bbd
00000090: 21f0 123b e15b 15bd 93ae e0bc 9387 ff3c
000000a0: 5833 b3bd 7d63 cbbd b1bc 703c a34d b33d
000000b0: 23e2 ab3b ede5 fc3c 32ab a53c cc3f 9abc
000000c0: bab8 f1bb 0442 943d eea9 eebc 19c3 6dbd
000000d0: 202c c63d b112 8b3d 17ad 37bd c4c0 91bd
000000e0: 6c92 1a3d 6737 aa3d 2857 02bd e6aa ed3c
000000f0: 1a99 9dbd 7ab7 ed3d 8e67 3bbd ea43 8b3d
00000100: b908 c1bd f2ff 4d3d 9cd1 a5bc 8125 683d
00000110: 6ddf be3d 2aea ad3c 9e14 443d 835e 18bd
00000120: 4a9c d1bd c62f fd3c f4a6 a7bd fe5a cb3c
00000130: 6f62 d03c 66c9 25bd d049 7abd fde3 36bd
00000140: 1f14 71bd 9f1a 253d bfba 34bd 8d67 573d
00000150: 01de 9f3c df56 72bc d6bd dc3b f5c7 9ebc
00000160: 4e6f a4bd 39ff 9abc 4005 8cbd c2b3 8cbc
00000170: ccae f6bc 1c61 ce3d 4514 143b c0e8 4d3c
00000180: 3d94 6dbd a864 b6bb de50 753d 52c4 ec3d
00000190: 58fd c0bd 33d7 e2bb ccba c6bd f019 153d
000001a0: 1dbb 753d 47f8 56bc 0f62 a63d 587a 12bd
000001b0: f538 a8bd 9131 3ebd 70b6 f7bc c774 7bbd
000001c0: 7150 74bd 8854 973d e26f b03d 78ff 01bd
000001d0: 3ae7 5f3d 8896 493c d79f 1abc 6a62 21bc
000001e0: 535e 863d aff6 f53c 1555 263d 97df bfbd
000001f0: eb7b f5bd 5e8e a2bc 9bbb a8bd 8920 1a3d
00000200: 25b5 483d 6334 c83d 57bf 0cbd 42ed 85bd
00000210: 56ff 81bd 34e7 c83d fec7 19be 23cf 4ebc
00000220: 9d6c a23c a5fc b73b 2133 063d 390f 473d
00000230: 01aa 793c a5a9 a2bc 4177 933d eb31 ffbb
00000240: 424d fbbc 916f c73d 0613 8bbd 0f04 9fbc
00000250: 75cb 72bd 1b88 5cbc dd54 abbd 3bbb 87bd
00000260: 3aa6 b53c e0d9 86bc 2f57 f4bc 6bf3 313d
00000270: b876 9fbd c2a3 963d 826a 3dbd afd8 d2bb
00000280: d608 0f3c cd11 d0bc f4e9 973d 4888 193d
00000290: ed60 b83d 2065 6f3d 9400 73bd f65a b4bd
000002a0: fe16 a1bd 11d5 c03c c820 9fbd 3553 08bd
000002b0: a5a1 833d 4de1 9d3d e581 063d f822 bc3d
000002c0: 0d44 74bd 32ab 6d3d c90d a7bd b38d a9bd
000002d0: 43ef 36bb f2b1 3a3d 0956 ac3d 12f4 8abd
000002e0: 6563 973d f3ad b83c f5e1 233d c755 893c
000002f0: 442e de3b 7c8b a43c dd28 a13d 5db3 a63d
00000300: 989a 823d b171 3bbd 2b56 ab3d 8558 843d
00000310: a3c8 b23b 31a2 313d 7a20 9bbd 1515 be3c
00000320: 7a45 23bd 35a9 f03d efa3 073d ecfe b3bd
00000330: ad37 bcbd eb23 5ebd 6866 e8bc c6cd 1a3d
00000340: ee76 cfbb 4e03 a5bd 7195 43bb 92ed cbbd
00000350: 8196 08bd fc06 013e 6dd9 8f3c 0d01 9e3c
00000360: 927e 8b3d 4c92 113d b446 793d 1760 07bd
00000370: d5d3 48bd 259e dabc 12c9 2fbb d1c6 40bd
00000380: 0d2a ce3d f0dc cebd 5106 3c3d 870c ea3d
00000390: 0ca5 8c3d 906e b639 71de 33bb dc4b d0bc
000003a0: ad18 27bd 175f c9bd d4e3 033d b2c7 9d3c
000003b0: ebdf 6f3d c701 99bd 0d62 bfbd ee98 25bc
000003c0: 53b3 a93b 0ba8 b33c 7069 ba3d fc72 a13d
000003d0: 86cb 813a bc0d 99bd 4e72 87bd 7d14 b0bc
000003e0: d9f6 9d3c b90f 7ebd 69cf 673d 7420 3ebd
000003f0: 2517 6f3c 5480 903d 4f33 e2bc 6520 3cbb
0.038676564 0.062355913 0.0040891184 -0.022371216 0.056434363 0.033794288 -0.032375906 -0.031288654
-0.0275054 0.009314775 0.004390002 -0.039165597 -0.0018509744 -0.08289855 0.035414383 -0.057335123
-0.05919653 0.01218393 0.04978322 -0.09493859 0.051068403 0.034214012 0.019450791 -0.054487146
0.07069757 0.08783717 0.052631754 -0.117396325 0.05252803 -0.06581298 0.049710244 -0.089676805
0.059562225 -0.037538458 -0.029111633 -0.041843995 0.002242096 -0.036464576 -0.027426993 0.031192577
-0.087500274 -0.09931085 0.014693425 0.087550424 0.0052454635 0.030871356 0.020223234 -0.018829249
-0.0073767575 0.07239154 -0.029133763 -0.058047388 0.09676385 0.067906745 -0.044842806 -0.07116845
0.037737295 0.083113484 -0.0318214 0.029012155 -0.076952174 0.11607261 -0.045753054 0.06800063
-0.09425492 0.050292917 -0.020241551 0.05667639 0.09319959 0.021229822 0.047871225 -0.03719951
-0.10234888 0.03090657 -0.08186141 0.024823662 0.025437562 -0.04047527 -0.06110555 -0.04465102
-0.05885708 0.04030859 -0.044123407 0.052588988 0.01951504 -0.0147912195 0.0067364974 -0.019382456
-0.08029042 -0.018920528 -0.06836939 -0.017175559 -0.030112647 0.10077116 0.002259509 0.012567699
-0.0580027 -0.0055661984 0.059891574 0.11560883 -0.094233215 -0.0069226264 -0.097035974 0.03640169
0.0599929 -0.013120717 0.08124172 -0.035761207 -0.08213989 -0.04643399 -0.03023836 -0.061390664
-0.059647027 0.0738917 0.0861509 -0.031737775 0.054663874 0.012303956 -0.009437523 -0.009850124
0.0656096 0.030024854 0.040608484 -0.09368818 -0.11986526 -0.019843277 -0.08238908 0.037628684
0.049000878 0.09775617 -0.034362163 -0.06539394 -0.063475296 0.098097235 -0.15017697 -0.012622627
0.019827181 0.0056148344 0.032763604 0.0485985 0.015238286 -0.019856283 0.0720048 -0.007787933
-0.030676488 0.097380765 -0.06790738 -0.019411115 -0.059276063 -0.013460184 -0.08365796 -0.06627508
0.02217399 -0.016461313 -0.029826729 0.043445032 -0.07786316 0.07355453 -0.046244152 -0.006434522
0.008730134 -0.025399113 0.0741767 0.037483484 0.09002862 0.05844605 -0.059326723 -0.08806412
-0.078657135 0.023539098 -0.077699244 -0.033282477 0.064273156 0.07708988 0.03283872 0.09186357
-0.05963521 0.058024593 -0.08156926 -0.0827898 -0.0027913607 0.045579858 0.084148474 -0.06784834
0.07392005 0.022543883 0.04001041 0.016764535 0.0067804176 0.020086043 0.07869122 0.081396796
0.06377143 -0.04576272 0.083660446 0.06462196 0.0054560467 0.04336757 -0.07574554 0.023203412
-0.03986118 0.11751024 0.033115324 -0.08788857 -0.09190307 -0.054233473 -0.028369144 0.037793897
-0.006331316 -0.08057271 -0.0029843713 -0.09957422 -0.033346657 0.1260032 0.017559731 0.01928761
0.06811251 0.03553991 0.060858443 -0.033050623 -0.049030144 -0.026686737 -0.0026822728 -0.047064606
0.10066614 -0.10100734 0.04590446 0.11428171 0.06867418 0.0003479612 -0.0027445818 -0.025426798
-0.040795017 -0.0983259 0.032199696 0.019260261 0.058563154 -0.07471042 -0.093448736 -0.010107262
0.005178848 0.021930715 0.09102142 0.0788326 0.0009902574 -0.07473323 -0.06613599 -0.021494145
0.019282745 -0.062026713 0.056594286 -0.04641767 0.01459292 0.07055727 -0.027612356 -0.0028705832

lstm.weight_hh_l1 f4 [512, 128]
00000000: 2e59 d1bd 8913 a63c 9b5d a53d c03a 303d
00000010: 7775 31bc 5453 253d 1916 403d 11c4 f13c
00000020: 819f e43d a4e0 15bd d12c 58bd fe19 d3bc
00000030: 4168 e4bd ad97 cf3d ce15 c5bc a06d 81bd
00000040: ec79 5e3d f829 72bd 0955 493d 07ed 86bc
00000050: ac00 96bc 21a4 92bd ea8a febc 5d13 69bd
00000060: 4181 a3bc 0e11 573c ef8b af3c 0615 4f3d
00000070: 45d3 58bd 9a44 3bbd 4cbb 033d b7c7 793d
00000080: a173 143d 04d9 c9bd 6566 e3bd 5a0b 10bc
00000090: e9b4 243d e941 6abd a66e c6bc 3209 d63b
000000a0: 05d3 923c 4424 b43d 3293 36bd c5af 843b
000000b0: c2f6 99bd 7138 253d 4fa1 40bd 91a7 753c
000000c0: 4f0f 163d 0fbc 1dbd 5dda 663b 422a d03d
000000d0: 312f 683d 2464 a3bc 07b6 b63a 9f61 0bbd
000000e0: c770 9e3c 4af0 afbc 0803 3f3c 3cd9 b5bc
000000f0: 924c 843c 4fbe f3bc 728e 9ebc 0341 203d
00000100: bc5c afbc 102f 313d d9b9 4f3c 658d 00bc
00000110: 73b2 b4bc f23f f3bc cd53 9fbb 84d2 343d
00000120: cfed b9bc 5a4a 85bd 484f 21bd 4f86 c4bc
00000130: 2ef7 46bb 3d7e 483c 3c90 183d 4e31 9abd
00000140: 9871 79bc 6700 13bd 8658 833d 60bb 52bd
00000150: 7d42 56bd 04aa a3bc 9fc4 cf3d 0952 6c3d
00000160: a319 87bd 78c3 aabc 3ca4 4ebd 7e90 6b3d
00000170: 15ad 50bc 791c 4bbd 15de 513c 2deb 3dbd
00000180: 1f94 3b3d 1e2f b6bd b64d da3c 9291 8cbd
00000190: fe52 8e3d 51cf 8fbd 45d7 4c3d bad9 9b3c
000001a0: 2cfb 13bd 1c08 77bd 03ab 39bd 1a32 703d
000001b0: d313 ebbc 9c83 76bd 1f78 be3c c858 64bc
000001c0: 5484 9a3d 759d 6c3d bdb5 843c a0f8 92bc
000001d0: 701b 08bd deae 8b3c 2e68 ad3d 0291 883d
000001e0: c660 a03d d9c5 763d f5bc 4bbd 4984 0b3d
000001f0: 51c3 b13d 1263 d6bd d333 cc3d fa8b b5bd
00000200: 4748 3bbd 3518 c23d 5d49 68bd b348 5f3d
00000210: 6adf ad3d 1c8a 383d f218 89bc 42c3 383d
00000220: 24d0 913d ecfc 40bd 7c0f 3c3d 5176 523d
00000230: 72b9 3c3c 3498 983d 081d 7e3d 5f9a f9bd
00000240: ec07 c9bc 0ad5 8c3d fcae 7d3d 5a6d ce3b
00000250: 343d 9c3d 316d cfbc 17ca 5f3d 5956 93bc
00000260: 489f 763b c99c 803d 0035 0abd 0b79 94bc
00000270: 3871 713d 8e2a 953d b6a3 5fbd a62a 233d
00000280: 5b09 85bd a250 4bbd 2e45 a6bc 7cc8 86bd
00000290: bc4e 313c 2975 753d cfaf 483d 9f38 b83d
000002a0: aa2e 7cbd c052 2a3d 50d2 383c e63f 81bd
000002b0: 6007 413d fab8 75bd 1713 d7bd 21b9 b03d
000002c0: 6ed7 89bd 67b7 ccbd f503 273d 14c2 39bd
000002d0: ce91 7f3d 5372 54bd 8a1d 36bd 8d2b a8bc
000002e0: 8e9b 92bd 77a1 93bd 31e9 ab3c 74b8 a43d
000002f0: a4fe 85bd 9a2e 9a3c 2abe 173d 3be3 9abd
00000300: f327 a8bd 46bc 883c 754b bbbd 37ba a03c
00000310: 1ff3 083d 0a6d 01bc d83e c53d d430 13bb
00000320: b904 1a3d 36d4 703d e704 f6bb 836b 8fbd
00000330: f777 a13c e28c 50bd c87b 6c3d 6d22 813b
00000340: ea33 80bc 4bc9 373c b90c 083d 3be6 ec3d
00000350: ba27 193d 0b9e 403d 4783 92bd 77d5 7dbd
00000360: 6bb9 bfbd 64a6 8d3d 7212 dd3c 1464 b73d
00000370: 26ab abbd cc3c d939 9487 97bd 04be 423d
00000380: 2568 853d 7828 81bc 6abb 083d 835c c43c
00000390: b139 bc3d 6322 35bd 7ab6 5abc 513e 013e
000003a0: 9ee0 943d b1e4 613d 8b71 0bbd 92d5 ee3c
000003b0: 2528 9fbd 72d9 973d a6e1 a33c b563 4bbc
000003c0: d900 493d 9ff3 213d dec4 be3c cc73 bb3d
000003d0: a882 9b3d b91f 6c3a 1141 c33b 841d 433c
000003e0: 2055 913d f00e d1bd 67b0 0fbd 286f c6bc
000003f0: ae53 78ba 4cfc a83c 5ce8 d3bd 6d73 8dbd
-0.10222088 0.020272987 0.080744945 0.04302478 -0.010831228 0.04036267 0.046896074 0.029512437
0.111632355 -0.036591187 -0.052777115 -0.02576923 -0.11152697 0.10136352 -0.024058249 -0.063197374
0.054315493 -0.059122056 0.04915336 -0.016470445 -0.018310867 -0.07160211 -0.031072099 -0.056903232
-0.019959094 0.013126625 0.02142903 0.05055716 -0.052935857 -0.04571972 0.032161042 0.06098148
0.036243085 -0.098558456 -0.111035146 -0.008791769 0.040211592 -0.057191763 -0.024222683 0.006531858
0.017922888 0.087959796 -0.04457397 0.0040492737 -0.075177684 0.04033703 -0.047028836 0.014993564
0.036635693 -0.038509425 0.003522537 0.1016431 0.05668563 -0.019945212 0.0013939746 -0.034028646
0.019340886 -0.021476883 0.011658438 -0.022198312 0.016149793 -0.029753832 -0.019355033 0.0391245
-0.021406524 0.043257773 0.012678587 -0.007846211 -0.022057747 -0.029693577 -0.0048622848 0.044146076
-0.022696404 -0.06508322 -0.03938225 -0.023989825 -0.0030359733 0.012237129 0.037246928 -0.075289354
-0.015224837 -0.035889056 0.06413369 -0.051448226 -0.052309502 -0.01997853 0.10144924 0.057695422
-0.06596687 -0.02084516 -0.050449595 0.057510845 -0.0127365785 -0.0495877 0.012809296 -0.04636686
0.045795556 -0.08895706 0.026648384 -0.06863703 0.06949423 -0.07021964 0.050009985 0.019024719
-0.036128208 -0.060310468 -0.045329105 0.05864153 -0.028695976 -0.060184106 0.023250638 -0.013937183
0.07544771 0.05776735 0.01619994 -0.01794082 -0.03322929 0.017051157 0.08467136 0.06668283
0.07830958 0.060247276 -0.04974075 0.034061704 0.08679832 -0.10468115 0.09970822 -0.08864589
-0.045723226 0.094772734 -0.05671059 0.05451269 0.084898785 0.045053586 -0.016735528 0.045108087
0.07119778 -0.047116205 0.045913205 0.051382367 0.011518823 0.074509054 0.062039405 -0.12187647
-0.02453991 0.068765715 0.061934456 0.006299657 0.07628861 -0.025320621 0.054636087 -0.01798551
0.003763156 0.062799044 -0.03374195 -0.018124124 0.058945864 0.07283507 -0.054599486 0.039835595
-0.06495925 -0.049637444 -0.02029666 -0.06581208 0.010821994 0.059926186 0.04899579 0.089951746
-0.06156794 0.041582823 0.011280611 -0.06311016 0.047126174 -0.05999086 -0.10501688 0.086290605
-0.06730543 -0.09995919 0.040775258 -0.045351103 0.06239491 -0.05186684 -0.044461764 -0.02052858
-0.07158576 -0.07208531 0.020985218 0.08042994 -0.065427095 0.01882105 0.03704659 -0.07562872
-0.08210745 0.016691338 -0.09145252 0.019620044 0.033434983 -0.007899532 0.09631127 -0.0022459524
0.03760216 0.05879613 -0.0075079086 -0.07002928 0.019710524 -0.050915606 0.057735234 0.0039408715
-0.015649755 0.011217426 0.03321526 0.115673505 0.0373914 0.04702572 -0.071539454 -0.061971154
-0.093615375 0.06916502 0.026986334 0.08954635 -0.08382253 0.00041434763 -0.07398906 0.047544494
0.065140046 -0.015766367 0.033381857 0.023969894 0.09190691 -0.044222247 -0.01334917 0.12621428
0.07269405 0.055149738 -0.03404383 0.029154573 -0.07771329 0.07414521 0.020005058 -0.012413909
0.049073074 0.039538976 0.023287233 0.09152946 0.0759328 0.00090074126 0.0059586843 0.011908893
0.070963144 -0.10207927 -0.03508034 -0.024222925 -0.00094729185 0.020628117 -0.103470534 -0.06906781

lstm.bias_ih_l1 f4 [512]
00000000: b552 b0bc caaa 21bd c7e4 41bd 83b0 663d
00000010: 578c 7cbd 98e6 fd3b 1b31 02bd e7ed a43d
00000020: 5a09 353c 30ce 5abd 4abc 833c 9014 053d
00000030: 6d76 54bd 0fa1 6c3d de71 433d ae56 4f3b
00000040: 8b71 8c3d 2377 0abb 9c03 5fbd af3b 3d3d
00000050: 5131 c33d 9c6b 783d 9c33 26bc 26b1 503d
00000060: ea37 6bbb 6c57 3e3c 1547 1e3d 34e8 4b3d
00000070: bfb2 8fbd dd2b 57bd 851b 623d 0d0d 1cbd
00000080: 5f06 3ebd f3c1 79bd 579f bd3d 4ede 8b3d
00000090: 5ba2 47bd 3784 bbbb 7c9f 36bd a360 9f3d
000000a0: 1b03 833d 1b48 a2bb e056 873d 4373 363d
000000b0: 8875 df3c 729c 7a3d ab31 91bc 771f 81bd
000000c0: 4c5e 0bbd bcf8 8cbd 4def 35bd 9e3c 263d
000000d0: 2df5 e0bc 922d a73d 2fd4 89bc 25df 69bb
000000e0: 7e3e cb3d 5f25 54bb 4b2b 9f3c 0db2 843d
000000f0: 406f c53d ffce 903d 8bcc a4bc 93b6 ecbc
00000100: 415f d33b dbbc a53d f7b4 87bd 8515 ae3d
00000110: 353c d83d e16a e13c 40d9 923d a72a a7bb
00000120: 99ed d33d a593 6e3d 6533 90bc dc6b 46bd
00000130: a669 c4bb f6f2 55bc 32c0 39bc edc9 1f3d
00000140: f525 893a e7ff 083b 7097 87bd 3311 ffbc
00000150: b831 9cbd 43d9 ad3d 2e11 6239 91a5 d23c
00000160: 35b2 1e3d d83c 50bd 57b2 47bd d6ca a9bb
00000170: eac0 ad3d 58f0 abba f8ea 59bd 1b56 e93d
00000180: b2ba 693c 507c 5cbd 0afa 0e3d 8817 f73d
00000190: 373f 823d e93e ad3d 2dc7 ad3c 76cb 843d
000001a0: 7cf9 023d d08b b73b d878 30bc 857f 26bd
000001b0: a510 96bc 8a81 243d 7da1 b03d 82be ad3d
000001c0: a142 853d 5e88 963d ee52 f53d 85aa 8b3d
000001d0: f753 9f3c fc40 d0bc b29b 4a3d c30e af3d
000001e0: 0411 6ebd 84ee 6e3d dcd4 64bd 1062 81bd
000001f0: 5cd5 83bd 6cba e03d 9303 28bd 1c54 df3d
00000200: 2d5c afbc 67a6 ed3d c963 283d 7805 13bc
00000210: 8a8c 673c 3389 0c3c 5300 283d e95f c6bc
00000220: d8a0 383c adc3 c63c ec14 323c 5834 063c
00000230: 5357 933d 0217 0dbc 8aea 3a3d bfb1 23bd
00000240: 84bc d73d 0acc 0d3c ee76 53bd 9209 0c3d
00000250: 90d7 563d a2a6 db3b 37eb fdbc 3a05 f93d
00000260: a066 983d 2273 5abc 8c77 4b3c 9834 203d
00000270: 6c8f 4e3d 6288 c33d ebe8 a23d 9b77 b03d
00000280: 8db7 b1bb 503e 953d 24da 743c 6716 edbc
00000290: a36e 79bd 2f2a a3bd 6409 dd3d 5871 063d
000002a0: 2cc7 8ebd 5b60 c5bc e569 bc3c b83f 203d
000002b0: 117f 933d 612e 3a3c 2549 25bd 5c91 adbc
000002c0: 9ea6 6fbd 39d3 6b3d 75d3 3ebc 367a 733d
000002d0: e61f c63d 81ed 94bd 9e0e b53b ead9 c63d
000002e0: a882 9f3d e94a 61bd 1c92 0cbd f73a 673d
000002f0: e643 943d 908d e23d a251 e33d 9d60 b8ba
00000300: 6de3 7bbb 0509 9cbd d31b 4b3d f32e 6dbc
00000310: fb9c c63b 996b 8cbd ff51 9dbd 4c91 eebc
00000320: 22a5 a33d 0381 51bc 65d1 47bc 8650 db3c
00000330: e95a 1a3c 3212 43bd 70ca e23c 69f1 e13b
00000340: e688 403d f3dc c33c 4652 1f3d 4633 8e3c
00000350: 8793 3cbd 1dbf ec3c c602 09bb 094d f13c
00000360: a0fb 0e3d 536d 843c c4d6 9cbc b8e2 2f3c
00000370: bc03 d3bb fd0b bcbc 36eb c1bb e85f d73c
00000380: db79 00bd 7d07 74b9 54f2 9e3d 95ed 6a3d
00000390: b7f7 9b3b d080 89bc de60 283c 925a b13d
000003a0: 8a4a 28bd 1079 2e3d acc5 ecba f1d4 9d3c
000003b0: 9de4 30bd e7ea ad3d 9145 3cbd f4b0 403b
000003c0: d010 6c3c a91e bc3d 869e 343c d5b0 ee3c
000003d0: e36a f63d f562 453d 256f 223d 9da5 a53d
000003e0: 3006 d83d 031d a5bc 7d8d 893d 51cc 02bd
000003f0: 1e45 3a3d 0233 ba3d 49c7 b3bd 70b7 8d3d
-0.021523813 -0.039469518 -0.04733732 0.05632068 -0.061657276 0.007748436 -0.031785112 0.08053189
0.011049593 -0.053419292 0.016080994 0.032490313 -0.051870752 0.057770785 0.047716014 0.0031637358
0.06857594 -0.002112814 -0.0544468 0.046199497 0.09530891 0.0606495 -0.010144141 0.050950192
-0.0035891482 0.011617523 0.038642008 0.049781993 -0.07016515 -0.052532066 0.055202026 -0.038098384
-0.046392795 -0.06097598 0.09258907 0.06829511 -0.04873882 -0.0057225483 -0.04458569 0.07782104
0.06397077 -0.0049524433 0.06608367 0.044543516 0.027277723 0.061184354 -0.017723879 -0.063048296
-0.034025475 -0.0688338 -0.044417668 0.040585153 -0.027460659 0.08162989 -0.01682481 -0.0035685983
0.09924029 -0.0032370908 0.019429823 0.06479273 0.0964036 0.07070731 -0.020117065 -0.028895652
0.006450564 0.08092662 -0.06626313 0.08500198 0.105583586 0.027516784 0.071703434 -0.00510152
0.103480525 0.058246274 -0.017602632 -0.048442706 -0.0059940396 -0.013058415 -0.011337327 0.03901093
0.0010463583 0.0020904483 -0.06620681 -0.03113613 -0.076266706 0.08488705 0.0002155944 0.025713714
0.03874417 -0.050839275 -0.048754063 -0.0051816506 0.08484061 -0.0013117893 -0.0532026 0.113933764
0.014265703 -0.05382949 0.034906425 0.12065035 0.063597135 0.08459265 0.021213138 0.064841196
0.031976208 0.0056013837 -0.010770999 -0.040648956 -0.018318484 0.0401626 0.086245514 0.08483602
0.06506849 0.07350229 0.11978708 0.068196334 0.019449217 -0.025421612 0.04946489 0.085477374
-0.058121696 0.058332935 -0.05586706 -0.06317532 -0.064371794 0.10973057 -0.041019034 0.109047145
-0.021406258 0.11604004 0.041110788 -0.008973472 0.014132628 0.008577633 0.041015934 -0.024215655
0.011268817 0.024263227 0.010869246 0.008191191 0.0719439 -0.0086114425 0.04563383 -0.039964434
0.105340034 0.008654604 -0.051627092 0.034188814 0.05245167 0.006703214 -0.030995948 0.121592
0.07441449 -0.013333114 0.012418639 0.039112657 0.050429747 0.09547497 0.07954582 0.08616563
-0.0054234923 0.07287276 0.014944587 -0.028941346 -0.060896527 -0.0796703 0.10792807 0.032822937
-0.06971583 -0.024093797 0.022999713 0.039123267 0.0720197 0.011363597 -0.04035296 -0.021187477
-0.058508508 0.057574484 -0.011647095 0.05944272 0.09674053 -0.07271863 0.005525424 0.097095326
0.077885926 -0.05500308 -0.03431903 0.056452718 0.07239513 0.11062157 0.110995546 -0.0014066879
-0.0038435117 -0.07618908 0.049587082 -0.014476526 0.006061194 -0.0685646 -0.07681655 -0.029122017
0.07990481 -0.012787106 -0.01219592 0.026771795 0.009421089 -0.047624774 0.02768442 0.0068952334
0.047005557 0.023909068 0.03889682 0.017358433 -0.04603913 0.028899724 -0.0020906194 0.029455679
0.034907937 0.016165411 -0.019145377 0.010735206 -0.006439654 -0.022954935 -0.005917932 0.026290849
-0.03136621 -0.00023272443 0.07761064 0.057355482 0.0047597545 -0.016785055 0.010277001 0.08659853
-0.04108671 0.042595923 -0.0018064282 0.019266577 -0.043186773 0.0849207 -0.04596478 0.0029402347
0.014408305 0.091855355 0.011024123 0.029137054 0.12032106 0.048190076 0.039656777 0.08088229
0.10548055 -0.020155435 0.0671644 -0.031933133 0.04547607 0.0909176 -0.08778245 0.069197536
